raisimGymTorch/raisimGymTorch/algo/ppo/student/models/2022_10_21.pth (torch, 900915 bytes, 74 tensors)

tcn.0.conv1.bias f4 [60]
000000 42 a4 2b bc c4 33 43 3d c9 9a 8d 3b de 73 27 bd
       -0.010476174 0.04765679 0.0043214303 -0.040881984
000010 fc fc 8d 3b 83 8e 89 3c 17 41 2c 39 ea 96 d6 3d
       0.0043331366 0.016791588 0.00016427446 0.10478003
000020 d5 90 0a 3d 65 a8 6e 3d a8 13 a0 3d 5d e1 94 3d
       0.03382953 0.058266062 0.07816249 0.07269547
000030 fb ef 76 3d 8c af 52 bb c6 7d 80 3d d1 70 ca 3c
       0.060287457 -0.003214809 0.062739894 0.024711998
000040 54 1b 7b 3d 29 15 96 3d 65 ed 12 3d 5e cd 6f bd
       0.06130536 0.07328255 0.03587093 -0.058545463
000050 73 7b 89 3d c8 5f 8f 3b ae d6 ad 3d ad 02 07 bd
       0.06712999 0.0043754317 0.084882125 -0.032961536
000060 9c c4 32 3d b5 c3 03 bd 19 1e 07 3c 02 9b 96 bb
       0.043644533 -0.032169063 0.008246922 -0.004596115
000070 c9 28 4a 3d ef 9a 30 3d 68 9d e1 bc 27 85 c3 3d
       0.049355302 0.043116506 -0.027540877 0.09546881
000080 89 85 8a 3c 04 56 1a 3c 19 a5 99 3d 44 06 88 3c
       0.016909378 0.009419922 0.07502193 0.01660455
000090 a6 ab 49 3b 37 12 2a 3d f6 9e 40 bc a7 03 34 3d
       0.0030772476 0.041521277 -0.011756649 0.043948796
0000a0 3b 5a ea 3b 28 93 d0 bc c7 c1 3b bd a0 cd af 3c
       0.0071518696 -0.025460795 -0.045839097 0.021460354
0000b0 a1 fe 45 3d 26 96 45 bc 9a 14 77 3d 29 4c df bc
       0.048338536 -0.012059724 0.06032238 -0.027257996
0000c0 9f cf 1a bd 23 9f 84 bc 86 44 db 3c 0e 31 52 bd
       -0.03779566 -0.016189164 0.026766073 -0.051316313
0000d0 f6 0b cb 3c 97 08 1c bd a7 2f 8d 3d eb 8b 9b 3d
       0.024785977 -0.03809413 0.068938546 0.075950466
0000e0 a6 9a bf 3d 5f a7 ea 3d 29 bb 6b bc c5 5c 13 3d
       0.09355669 0.11457705 -0.014387884 0.035977144

tcn.0.conv1.weight_g f4 [60, 1, 1]
000000 fe c7 07 3f 69 b7 01 3f 90 76 f7 3e fa 72 16 3f
       0.5303954 0.50670487 0.48332644 0.5876919
000010 f3 df 0f 3f 65 23 09 3f 79 f2 14 3f 4d 11 11 3f
       0.56201094 0.5356963 0.58182484 0.56667024
000020 a8 10 fc 3e 9f 04 1a 3f 2d 96 10 3f 37 fe 0d 3f
       0.49231458 0.601633 0.5647915 0.55466026
000030 c1 b5 10 3f e4 03 09 3f e9 ff 0d 3f 3e 12 07 3f
       0.56527334 0.5352156 0.5546861 0.5276221
000040 60 8c 1d 3f 27 c5 16 3f 97 03 02 3f 60 53 0a 3f
       0.6154232 0.5889458 0.5078673 0.5403347
000050 c7 b8 19 3f 83 c8 09 3f a0 68 06 3f 07 8a 01 3f
       0.6004757 0.5382158 0.52503395 0.5060124
000060 22 b6 05 3f 7e 67 08 3f 55 11 0a 3f 51 b5 fd 3e
       0.5223104 0.53282917 0.53932697 0.49552396
000070 6e 17 16 3f ad 30 13 3f e4 0d fd 3e e5 88 1f 3f
       0.586295 0.5749615 0.4942466 0.6231826
000080 3c ec 13 3f 62 f8 08 3f 88 5f 10 3f 18 d2 11 3f
       0.5778234 0.53504 0.5639577 0.569612
000090 5a 3c 0e 3f 28 60 0f 3f 10 a9 04 3f 82 0a 08 3f
       0.5556084 0.560061 0.5182047 0.53141034
0000a0 31 87 14 3f a3 9b 0f 3f 0c d4 10 3f 37 64 03 3f
       0.58018786 0.5609686 0.5657356 0.5132479
0000b0 41 84 04 3f a9 42 1f 3f 97 52 14 3f 70 eb 15 3f
       0.51764303 0.6221109 0.5793852 0.58562374
0000c0 37 e4 06 3f 54 78 15 3f 67 36 0e 3f 76 a2 14 3f
       0.5269198 0.5838673 0.5555176 0.58060396
0000d0 9e 91 10 3f 4e a7 07 3f 4b ff 0e 3f 77 6e 0f 3f
       0.56472194 0.5298966 0.55858296 0.5602793
0000e0 88 b9 0d 3f f0 84 17 3f 92 4e 11 3f 21 bc 11 3f
       0.55361223 0.5918722 0.56760514 0.56927687

tcn.0.conv1.weight_v f4 [60, 60, 5]
000000 a9 ee d1 3c b9 88 75 bc 22 4d 34 bb af 04 2d 3c
       0.025626497 -0.0149862105 -0.0027511795 0.010560199
000010 b5 ba c4 bc ec bb ee ba 5c 79 ba bb 17 84 ed 3c
       -0.02401481 -0.0018213964 -0.0056907367 0.02899365
000020 94 5c af 3c 43 60 c3 bc 27 5c 99 3c 33 cd a7 bc
       0.02140645 -0.023849612 0.0187207 -0.020483589
000030 e5 d6 d9 3c e1 71 9c 3c 2e 84 d2 bc 86 ff 3b 3c
       0.026591728 0.01909727 -0.025697794 0.011474496
000040 87 4f 88 bc 6b 68 c3 3c 50 6e 3c bc 97 1c c3 bc
       -0.016639484 0.023853501 -0.01150091 -0.023817344
000050 b0 90 a0 3c 10 21 69 bb 97 5f e2 b8 90 83 88 3c
       0.019600242 -0.0035572685 -0.00010794325 0.016664296
000060 65 ae a3 bc f4 e4 8a 3c ae 92 4f bc 74 5b 61 bc
       -0.019980619 0.016954876 -0.0126692485 -0.013754714
000070 ea 88 ad 3c ab e4 b5 bc da 1f 3f 3c 70 91 22 bb
       0.02118345 -0.022203764 0.011665309 -0.0024805926
000080 72 5e 01 3d 7b fc ed bb 71 10 ca bc 65 d6 2b 3a
       0.03158421 -0.007262764 -0.024666043 0.00065550796
000090 69 d2 9b bb 3b 13 c0 3c a4 9c 7f bc 02 e6 d3 bc
       -0.0047553075 0.02344667 -0.015601311 -0.025866512
0000a0 80 9d d1 3c 5d ee e3 bc 90 95 e3 bb 8d 5c 9a 3c
       0.025587797 -0.027823621 -0.0069453195 0.01884296
0000b0 85 c5 31 bc ec 88 bc 3c a1 80 8d ba d0 ba b6 3c
       -0.010850315 0.023014508 -0.0010795781 0.022305876
0000c0 8a 2b 16 bb be 0a ce bc ae 8b 00 3d 52 aa e5 ba
       -0.0022914135 -0.025151607 0.03138321 -0.0017522073
0000d0 04 0e aa ba 4b 68 65 3b 75 bb df bb 60 66 8b 3c
       -0.0012974148 0.003500479 -0.0068277665 0.01701659
0000e0 9f e9 e3 bc 3a 16 c2 3a 13 57 39 3c e7 55 dc bc
       -0.02782136 0.001480765 0.011312264 -0.02689643
0000f0 b5 5b 10 3d 7a 2a 23 bc 79 4d fb 3c 70 22 83 3c
       0.03524371 -0.009958858 0.03067659 0.016007632
000100 5c d5 d9 bc d2 1e 59 3c 74 9c fb bb 30 3d b7 3c
       -0.026590995 0.013251977 -0.007678563 0.022368044
000110 c9 6a 83 3c f0 9d e5 bc d3 86 81 3b 3e f1 d3 bb
       0.01604213 -0.028029412 0.00395284 -0.0064679673
000120 11 84 39 bc c5 18 3a bc 9e 3f c2 bc 45 7d 15 3c
       -0.011322991 -0.011358445 -0.023711976 0.009124105
000130 e3 2d 84 ba 42 b4 b1 3c 05 0d 38 bc 48 cc d2 bc
       -0.0010084476 0.021692399 -0.011233573 -0.025732175
000140 65 35 e5 3b 3c 18 d1 bc f5 c5 03 bc 1e 39 a3 3c
       0.0069948905 -0.025524251 -0.008042802 0.019924697
000150 75 c4 c5 bc 3a 5d 3c bb ae 38 a0 bb e7 1e fc 3c
       -0.02414153 -0.002874209 -0.0048895692 0.030776454
000160 e6 ff 1c bc 9e bd 82 bc 82 ea d3 3b 86 a9 eb 3a
       -0.009582495 -0.015959557 0.0064671645 0.0017979599
000170 71 6f c9 3c f9 ad 09 bc 1f b3 bc bc 4e 64 b3 3c
       0.024589272 -0.008403295 -0.02303463 0.021898415
000180 c9 36 7e bc 45 30 ef bb 25 0a 35 bc c4 a9 0c bd
       -0.0155159915 -0.0072994553 -0.011049782 -0.03434159
000190 cf e0 d7 bb f3 17 3b bb 97 a6 8d 3c ca 54 8f 3c
       -0.0065880786 -0.002854821 0.01729135 0.017496485
0001a0 8a 22 04 bd de 11 cf 3c 16 4d 1e bc 1f 03 df 3c
       -0.0322595 0.025277074 -0.009661933 0.027223168
0001b0 88 f9 59 3c 2f 99 b0 bc 91 f2 b6 3c 03 d4 f0 bc
       0.013304122 -0.021557419 0.022332462 -0.02939797
0001c0 c4 9d f0 3c dc 0b 29 bb c0 40 06 bd f4 2c 0b 3c
       0.029372104 -0.0025794422 -0.032776594 0.008494604
0001d0 95 a4 0e bc d4 67 f9 3c f4 88 9b 3c 22 61 cb bc
       -0.008706232 0.030445017 0.018986203 -0.02482659
0001e0 aa fa 1e 3c 9d 28 97 bc 79 49 e8 3c 0e d2 3b 3c
       0.009703318 -0.018451983 0.028355347 0.011463655
0001f0 4c 34 9a bc c8 31 d4 3b 26 7b 5f bb e9 c6 3e ba
       -0.018823765 0.006475661 -0.0034100502 -0.0007277565
000200 43 b1 8c 3b c1 2b 13 bd 03 dc f4 3b 6c 07 21 3b
       0.004293592 -0.0359304 0.0074725165 0.0024571074
000210 5e e2 7e bb 81 0d 27 3c b1 f2 48 bc 4d a7 55 bb
       -0.003889225 0.010196091 -0.012264893 -0.003260094
000220 f8 6d 55 3b b7 bc dd 3c 63 cb 83 3b 6d 8c 13 bd
       0.0032566767 0.027067525 0.0040220483 -0.036022592
000230 28 df 01 3c 20 29 18 bc 45 96 cc bb 97 bd df 3b
       0.00792674 -0.009287149 -0.0062434995 0.006828021
000240 c5 a5 9a bc 22 1e 85 3c 08 d2 bc bb a2 63 e3 3c
       -0.018877873 0.01624972 -0.0057623424 0.02775747
000250 69 d2 b6 3b cd db c8 bc 2a 39 e1 bb 99 e3 4d bc
       0.005579282 -0.024518872 -0.0068732696 -0.012566471
000260 fa 49 22 bc 44 90 10 3c e9 37 e0 bc 9f 0c e1 3c
       -0.009905333 0.008823458 -0.02737041 0.027471839
000270 82 5e 0f bb df ea f0 3c 97 ae e3 bb c6 ec 7c bc
       -0.00218764 0.02940887 -0.006948303 -0.015437311
000280 c6 ea e5 3c c3 bd ac 3b 64 d8 b7 3c 8d 35 a0 bb
       0.02806605 0.005271645 0.02244205 -0.0048891963
000290 c9 6e da bc fd 7a c1 3b e4 4e 5e bc d5 40 85 3c
       -0.026664155 0.005904554 -0.013568614 0.016266266
0002a0 08 04 65 3c a6 46 a1 bc 4e f3 d0 3b dc 8d 1d bc
       0.013978012 -0.019687008 0.0063766604 -0.009616341
0002b0 70 f9 a1 3c c0 36 df bb d9 0a 42 bc ad 6b 13 3c
       0.019772261 -0.0068119466 -0.011843407 0.00899784
0002c0 3a 50 fc bc e8 ab 8b 3c cc ba 85 3c ce 00 15 bd
       -0.030799974 0.017049745 0.016324423 -0.03637772
0002d0 d1 17 c7 3c 04 bd a4 bc c8 64 3f bc 8f 2b e6 ba
       0.024303349 -0.02010966 -0.011681743 -0.0017560589
0002e0 b4 4d 03 bd 74 98 b6 3c c6 b4 50 3a 07 c1 97 3c
       -0.032056525 0.022289492 0.00079615077 0.01852466
0002f0 33 dd 10 3c 78 28 fa bc 99 01 fa 3c b1 7c eb bc
       0.0088418005 -0.030536875 0.03051834 -0.028745981
000300 8b 58 f4 3c 9d 3d 15 3c 64 ff ae bc 6c 9a 91 3c
       0.029827377 0.009108928 -0.021362014 0.01777383
000310 82 93 a8 3a d2 f5 c7 3c 9d 5d 4b bc 9b 2a eb bc
       0.0012861344 0.024409208 -0.012412456 -0.02870684
000320 dc e2 33 3c c5 70 14 bd d7 e6 df 3c 41 14 ca 3b
       0.01097938 -0.036240358 0.027331753 0.0061669652
000330 98 9a 70 bc ca 5e 8f 3c 77 c0 1b 3b f6 82 74 b9
       -0.0146852955 0.017501254 0.002376584 -0.0002331844
000340 cf e3 00 bc 9e 8b 12 bd e4 84 84 3c f9 32 17 bd
       -0.007866814 -0.03577768 0.016176648 -0.036913846
000350 94 2c ba 3c 99 fe 8e 3c bf 64 13 bd e1 99 aa 3c
       0.022726335 0.017455386 -0.03598475 0.020825328
000360 52 5a f8 3a d5 81 86 bc d5 1c 87 3c be 50 87 bc
       0.0018947816 -0.01641933 0.01649324 -0.016517993
000370 77 2f 19 3b 2e f3 fe bb e5 bf 9e 3b 33 46 a6 bb
       0.0023374239 -0.007780454 0.004844653 -0.0050742864
000380 50 5a 64 bc fe bb 5e 3c 2c f4 2b bc 3f 9a 8b 3c
       -0.013937548 0.0135946255 -0.010495227 0.017041324
000390 f8 3a f1 3b ac c6 15 bd e3 26 89 3c a6 51 a4 bb
       0.007361766 -0.03656642 0.016742175 -0.005014616
0003a0 6f 45 a5 bb f9 e5 5c bb 8d d2 d7 bc 57 bb 0e 3d
       -0.0050436775 -0.003370641 -0.026345516 0.03484663
0003b0 1e 46 21 bd 89 d8 c1 3c 2e 97 bd bb 4c a4 ff bc
       -0.03937351 0.023662822 -0.0057858443 -0.031206273
0003c0 77 c0 22 3d 44 e8 e5 bb c6 66 e7 3c 91 8f 52 bc
       0.03973433 -0.0070162136 0.028247248 -0.012851612
0003d0 6a 1c 06 bd 73 78 a9 3c 45 d5 d8 bb 82 69 83 3a
       -0.03274194 0.020687317 -0.0066172206 0.0010025951
0003e0 70 75 41 bc 1e 4e 1a bd d7 c4 36 3c 4b b4 c6 bb
       -0.011807784 -0.037672155 0.011155329 -0.006063973
0003f0 43 52 40 3c 55 d9 fc bb fa c0 a6 bc b5 22 22 3c
       0.011738363 -0.0077163377 -0.02035569 0.00989597

tcn.0.conv2.bias f4 [60]
000000 11 2b da 3b 2b c2 46 bb 15 34 96 3d 43 ce 7f ba
       0.006657966 -0.0030328135 0.073341526 -0.00097582134
000010 fb 77 b6 bd 2b 0c 72 3c 81 8c 9a 3c 5e a2 6a 3d
       -0.08909603 0.014773409 0.018865826 0.05728375
000020 b4 ba 8c 3d 46 b1 93 3d 03 a1 84 bc d7 af 59 3d
       0.06871548 0.072115466 -0.016190058 0.05314621
000030 95 b0 6d 3b 89 e5 6e 33 93 5f ef 3c 10 67 02 3d
       0.0036268581 5.5622454e-08 0.029220378 0.03183657
000040 b7 be 0f 3e 7e eb 0c ba 52 78 fc bc 68 f8 05 bd
       0.14037596 -0.0005375667 -0.030819092 -0.0327076
000050 ef 3a bc 32 5a f3 88 3c 15 ad 8e 3d ba 65 56 bd
       2.191288e-08 0.016717602 0.069666065 -0.052343108
000060 e3 fe 21 bd e7 c7 ab bc 9b 9f 21 3d e7 00 38 bd
       -0.03954972 -0.020969344 0.039458852 -0.044922736
000070 97 2f 09 bd e3 8d 84 3c 5a 35 15 3b 96 1d c5 3c
       -0.03349265 0.016180938 0.0022767396 0.02406196
000080 50 7a 89 3c 21 5d df 3d 42 7b 73 3d f8 27 77 bd
       0.016781956 0.10906435 0.05944372 -0.06034085
000090 e5 6c b9 bc 37 1f a2 bd 62 99 2f 3c 48 a5 e0 3c
       -0.022634933 -0.0791611 0.010717722 0.027422562
0000a0 68 fa e4 bb 07 04 a1 3b 5e 81 9c 3d 19 ba 27 3c
       -0.0069878586 0.00491381 0.07641862 0.01023724
0000b0 84 fa 18 bd 5d c9 86 bb 39 ac 2e 3d 6b 06 76 3d
       -0.037348285 -0.00411336 0.042644713 0.060064714
0000c0 48 7b 15 3e c4 85 c9 3c d4 6d e1 3d 42 65 d8 3d
       0.1459781 0.024599917 0.11007276 0.105661884
0000d0 be fb 81 bd 59 d9 ad 3b 9e 99 ec bc 57 60 86 bb
       -0.06346844 0.005305451 -0.028881844 -0.00410084
0000e0 67 03 81 3d 78 d5 a4 3d ef 5b 99 3b dd 7b 90 bb
       0.06299477 0.080485284 0.004680149 -0.004409297

tcn.0.conv2.weight_g f4 [60, 1, 1]
000000 97 02 03 3f f9 ca c0 3e 0f 3f 04 3f 54 d3 f4 3e
       0.51175827 0.37654856 0.5165872 0.4781748
000010 56 67 0e 3f c0 d5 b6 3e 1e 9c 15 3f 91 06 0d 3f
       0.5562643 0.35709953 0.5844134 0.55088145
000020 92 0a 13 3f a9 f3 17 3f ec e5 0c 3f 05 91 01 3f
       0.57438004 0.5935617 0.5503833 0.5061191
000030 32 20 0c 3f 67 14 da 3d 67 74 0e 3f f1 82 06 3f
       0.54736626 0.10648423 0.55646366 0.5254355
000040 49 57 08 3f de e5 52 3e db 5e b6 3e 84 17 08 3f
       0.53258187 0.205955 0.35619244 0.5316088
000050 68 71 dc 3d 27 17 0e 3f 71 df d8 3e 99 ae 0b 3f
       0.10763818 0.5550408 0.42357972 0.5456329
000060 1a ed 0a 3f 3f 27 00 3f 07 18 0c 3f 7a 5d 08 3f
       0.5426804 0.50059885 0.5472416 0.53267634
000070 84 0c 07 3f 68 b6 14 3f ae 26 14 3f bd ad 19 3f
       0.5275347 0.5809083 0.5787152 0.6003073
000080 c2 34 09 3f 87 4e 00 3f 1f be 11 3f fd 98 0f 3f
       0.5359613 0.50119823 0.56930727 0.56092817
000090 bb 60 f8 3e 08 ff 0f 3f 0f 01 08 3f 0e 59 07 3f
       0.485113 0.5624852 0.53126615 0.5287026
0000a0 13 a0 11 3f e6 1f 0f 3f 9b 90 1f 3f 22 6b 11 3f
       0.5688488 0.5590805 0.62330025 0.56804097
0000b0 f5 d4 0c 3f 7d e0 c0 3e 60 78 04 3f 80 5e 04 3f
       0.55012447 0.3767127 0.5174618 0.51706696
0000c0 93 d5 03 3f a1 b9 0f 3f e0 9f 15 3f 42 eb 08 3f
       0.51497763 0.5614262 0.58447075 0.53483975
0000d0 66 15 05 3f 12 8f 05 3f 19 58 b8 3e 52 bf 05 3f
       0.51985776 0.5217143 0.36004713 0.52245057
0000e0 76 54 00 3f cb ec df 3e 72 9d 1e 3f c0 8f c6 3e
       0.5012888 0.43735346 0.6195899 0.38781548

tcn.0.conv2.weight_v f4 [60, 60, 5]
000000 50 90 24 bd 04 b4 f8 bc 0b 0b 73 3d 7c 5a f6 bc
       -0.04017669 -0.030359276 0.059336703 -0.030072443
000010 be 56 ed bb 9f e5 8e 3b ae 63 86 3d 27 d7 8d 3c
       -0.0072430065 0.004360869 0.06561981 0.017314507
000020 dc 0e af 3b 61 7f 61 bc fd 3b de bc eb 7f 42 bd
       0.0053423475 -0.01376328 -0.027128214 -0.047485273
000030 20 c8 02 bd 65 73 12 3d bf ac 54 3d 5a da 5d bd
       -0.031929135 0.03575458 0.051922556 -0.054163314
000040 a3 c1 37 bc 82 55 a5 bc c4 a5 95 bd 2d 08 2d 3d
       -0.0112156 -0.020182375 -0.07307008 0.042244125
000050 8d c8 c8 3c 06 f6 cf 3b 6b 9f d2 3c 1e 84 6e 3c
       0.024509693 0.006346467 0.025710782 0.014557866
000060 5f 73 05 bd 52 a5 04 3d 51 41 7f bd 80 03 5c bc
       -0.03258073 0.032384224 -0.06231815 -0.013428569
000070 ac c3 9a 3c 4e 69 27 bc 54 38 1a 3c 7c 5c 05 3d
       0.018892132 -0.010217978 0.009412844 0.032558903
000080 e0 1d c0 bc 17 f9 5d 3d 17 f1 08 bd f7 78 4a bb
       -0.023451746 0.05419263 -0.033433046 -0.0030894855
000090 3b 2e 36 3d 94 77 71 bd ae 3a 26 bd bc 19 bf bc
       0.044477683 -0.05895193 -0.040583305 -0.0233277
0000a0 50 ce 08 bc f5 bd 0d 3d 80 59 cf 3a d1 d7 2e 3d
       -0.00834997 0.034604985 0.001581952 0.042686287
0000b0 7f 10 48 3d 98 59 a2 3c e8 66 bf bc dd d6 e1 bc
       0.048843857 0.019818112 -0.0233645 -0.027568275
0000c0 78 5e ea 3a 57 2f f9 bb b0 04 0b bc ec 2c 33 bc
       0.0017880937 -0.0076045203 -0.008485004 -0.010936003
0000d0 e3 0e b3 bd 5c 9f b8 3c c5 f1 89 3c 06 7f 47 bd
       -0.08743074 0.022536926 0.016838918 -0.048705123
0000e0 0f 66 79 bd 50 a2 a3 bb 17 46 62 bc ad b4 00 3c
       -0.060888346 -0.0049937144 -0.013810656 0.007855576
0000f0 53 5c c6 bc 64 be c2 3c 35 36 9f bc 22 d3 6f 3d
       -0.024213945 0.023772426 -0.019435028 0.05855096
000100 31 cf aa bc a2 f1 60 3d 26 ab 1c bc 1c 4b 60 bb
       -0.02085075 0.05491794 -0.009562289 -0.0034224456
000110 5d 96 8c 3c de d2 02 bd 39 8e 9f 3d ec 72 5d 3c
       0.017161543 -0.03193938 0.07790799 0.013516169
000120 fd a9 da bc 9f 2d 2b 3d ad 79 21 bc 29 e9 91 3c
       -0.026692385 0.041791555 -0.00985567 0.017811375
000130 6e 97 aa bc 6b 4a 21 3d ab 7e fb 3c 1f 63 90 bc
       -0.02082416 0.03937761 0.030700048 -0.01762539
000140 1f cf 5b bb a2 dd d7 bb 8d a9 b8 3c e5 95 f4 bc
       -0.0033540202 -0.0065877 0.022541786 -0.029856632
000150 8a 09 a9 bc 2f c7 da bc 6f 2c 0c 3c 65 5c 97 bc
       -0.020634431 -0.026706306 0.008555516 -0.018476674
000160 4f 6d 28 b9 96 ab 24 bb 20 c1 5f 3c 1d c4 cd 3c
       -0.00016062449 -0.0025126687 0.013656884 0.025117928
000170 01 7d 6b bc 76 76 ae 3c a8 db 1b 3c 0b c3 4c 3c
       -0.014373065 0.021296721 0.009512819 0.012497674
000180 d1 30 7a bd a4 56 0c bd 11 31 1f bc bb 4d 2e bc
       -0.06108171 -0.034262314 -0.009716288 -0.01063865
000190 3f 6e 8f 3c 80 80 be bc 38 f0 be bc 8d 25 e8 bb
       0.017508624 -0.023254633 -0.023307905 -0.0070845545
0001a0 04 32 35 bd 8e 6c d3 3b f3 64 cf 3c ec 3f dc bc
       -0.04423715 0.0064521497 0.025316691 -0.02688595
0001b0 0b 6d eb bc 0a 9e 81 bc a6 e7 3c bc df ee 0c 3d
       -0.02873852 -0.01582243 -0.011529839 0.034407493
0001c0 e9 e4 d0 3c 48 3b 64 bd 7a 5f 25 3d 1f 75 22 bd
       0.025499778 -0.055720598 0.040374257 -0.039662477
0001d0 67 46 40 bc 56 8e ed 3b 24 3c 82 bc 1d c5 9b 3c
       -0.011735535 0.007249634 -0.015897818 0.01901489
0001e0 a2 74 f4 bb 08 05 36 3d 7a 0f 4d bb 69 d4 05 3a
       -0.007460193 0.044438392 -0.0031289742 0.0005105199
0001f0 27 f9 04 3d 43 66 d4 3b 0b a1 c4 3b d7 9c cc bc
       0.032464173 0.006481917 0.006000643 -0.02497713
000200 33 50 62 bd fa 72 3e 3c d6 5f af 3c 89 d1 a7 3c
       -0.055252265 0.011624092 0.021408003 0.020485656
000210 5c ad dc 3c b5 e7 0d bd e3 ce 92 3c c1 43 71 bc
       0.026938133 -0.0346448 0.017920917 -0.014725626
000220 f8 a3 80 ba 60 6d 09 3d 03 86 46 3d 07 31 ee bc
       -0.0009814491 0.033551574 0.048467647 -0.029076112
000230 d3 eb d6 3b fd f2 78 bc 27 fe fb bc f6 6f 4c bc
       0.006558874 -0.015194652 -0.030760838 -0.012477865
000240 52 fc 00 bd 3d 4f bf 3b 86 e2 37 bd f7 12 05 3c
       -0.03149063 0.0058383034 -0.044893764 0.008122197
000250 b6 a8 a8 bc a2 8d b3 bc c4 ce 52 bd c2 67 0f 3d
       -0.02058826 -0.021918122 -0.05146672 0.03501106
000260 0d bc 80 3d 70 bc a7 bb 9f e5 56 3c 65 2f c2 bb
       0.06285868 -0.005118899 0.013116269 -0.00592606
000270 f9 79 54 bd bd 7d 8f bc 01 97 14 bd 7d c1 e6 bc
       -0.051874135 -0.017516011 -0.03627682 -0.028168434
000280 99 19 49 3c 74 a2 69 bc 4a 55 3e bc 88 44 36 bd
       0.012274169 -0.014259923 -0.011617014 -0.04449895
000290 16 2e 6a bc 55 3b 40 bc c5 d5 a4 3b 41 a5 ce 3c
       -0.014293214 -0.011732896 0.005030366 0.025225284
0002a0 b4 8d 80 3b c3 a0 b8 3a 3d 97 d5 bc f5 a8 bd 3d
       0.0039231423 0.0014085997 -0.026073093 0.092607416
0002b0 a3 49 da 3c cf 0b 1a 3d 75 5c da bc 86 99 2f bd
       0.02664644 0.037608918 -0.026655415 -0.04287102
0002c0 5d 65 03 bc c8 48 5e 3b 26 c4 08 bc 83 e5 42 3a
       -0.008019772 0.0033917893 -0.008347547 0.00074347126
0002d0 22 32 0a bd c3 93 01 3d ad 83 aa 3c ed 5f 3e bd
       -0.033739217 0.031635057 0.020814741 -0.0464782
0002e0 29 e8 dc bc ca 58 b4 3d 4d 68 c5 bc 23 e8 8a bc
       -0.026966171 0.08805998 -0.024097586 -0.016956395
0002f0 96 07 28 3b d5 72 ff 3c 05 18 79 3d e9 f0 c1 3c
       0.0025639287 0.031182686 0.060813922 0.023674445
000300 9f bd cb bc 97 a8 e4 bc 56 87 cf bc dc b5 28 bd
       -0.024870692 -0.027912421 -0.025333088 -0.04118906
000310 f6 9a 40 3c fe 03 e4 3c c8 10 31 bc 9e ed 86 bd
       0.011755696 0.027833935 -0.010807224 -0.06588291
000320 92 18 79 3c 74 82 12 3c 6c c0 93 bc 60 d1 d4 bb
       0.015203612 0.008942235 -0.01803609 -0.006494686
000330 9d 43 4b 3c 13 84 c3 bc 37 8d 1c bd 58 b2 f9 3a
       0.012406257 -0.023866689 -0.03822061 0.0019050343
000340 c2 b1 6c bc 7b 4d bb ba 74 0c 10 3d 08 bd 2e 3d
       -0.014446678 -0.0014290059 0.035168126 0.042660743
000350 4a 6c 5c bd 85 7c 25 bc a4 4c 1e 3d 6f 81 89 bc
       -0.05381421 -0.010100489 0.03864731 -0.016785352
000360 37 e6 2e 3c 86 bd d1 3b 15 a4 5a bc a8 e7 b5 3c
       0.010675005 0.006400767 -0.013344784 0.022205189
000370 fd ff c7 3c 7a f0 b0 3c 6e 33 a2 bc 2e 0a a9 bc
       0.024414057 0.021599043 -0.019799914 -0.020634737
000380 66 83 6b 3d 4d 95 1d 3d 2a d5 27 bd a0 47 0b 3c
       0.05749836 0.038472462 -0.040974773 0.008500963
000390 7a b3 70 bd 46 e0 da ba 5e cc 2f 3c 72 ad 27 bd
       -0.058764912 -0.0016698919 0.010729877 -0.040936895
0003a0 e8 4d 82 bd b0 b9 4e bd 8d f1 bf bb 1a 2b 85 3d
       -0.06362516 -0.050470054 -0.0058576525 0.065023616
0003b0 29 7e 70 bb 84 5c 5a bd 3e cb 67 bd 99 17 35 bd
       -0.003669629 -0.053310886 -0.05659031 -0.044211958
0003c0 26 04 7f bd 03 52 12 3d 78 ab 41 bd 60 be 34 bd
       -0.062259816 0.035722744 -0.047282666 -0.04412687
0003d0 b6 1f 29 3d 32 5d f6 3c fa 59 34 3d 91 1b 7f bd
       0.041290008 0.030073736 0.04403112 -0.06228215
0003e0 90 1b 29 bd 73 fc ef bc 5f 7d 9c 3d 76 a1 07 3d
       -0.04128605 -0.029295182 0.076411 0.033112966
0003f0 3d ec 14 3d 94 34 6f bd 77 6a d7 bc e5 5d 43 bd
       0.036358107 -0.05839975 -0.026295884 -0.047696967

tcn.0.net.0.bias f4 [60]
000000 42 a4 2b bc c4 33 43 3d c9 9a 8d 3b de 73 27 bd
       -0.010476174 0.04765679 0.0043214303 -0.040881984
000010 fc fc 8d 3b 83 8e 89 3c 17 41 2c 39 ea 96 d6 3d
       0.0043331366 0.016791588 0.00016427446 0.10478003
000020 d5 90 0a 3d 65 a8 6e 3d a8 13 a0 3d 5d e1 94 3d
       0.03382953 0.058266062 0.07816249 0.07269547
000030 fb ef 76 3d 8c af 52 bb c6 7d 80 3d d1 70 ca 3c
       0.060287457 -0.003214809 0.062739894 0.024711998
000040 54 1b 7b 3d 29 15 96 3d 65 ed 12 3d 5e cd 6f bd
       0.06130536 0.07328255 0.03587093 -0.058545463
000050 73 7b 89 3d c8 5f 8f 3b ae d6 ad 3d ad 02 07 bd
       0.06712999 0.0043754317 0.084882125 -0.032961536
000060 9c c4 32 3d b5 c3 03 bd 19 1e 07 3c 02 9b 96 bb
       0.043644533 -0.032169063 0.008246922 -0.004596115
000070 c9 28 4a 3d ef 9a 30 3d 68 9d e1 bc 27 85 c3 3d
       0.049355302 0.043116506 -0.027540877 0.09546881
000080 89 85 8a 3c 04 56 1a 3c 19 a5 99 3d 44 06 88 3c
       0.016909378 0.009419922 0.07502193 0.01660455
000090 a6 ab 49 3b 37 12 2a 3d f6 9e 40 bc a7 03 34 3d
       0.0030772476 0.041521277 -0.011756649 0.043948796
0000a0 3b 5a ea 3b 28 93 d0 bc c7 c1 3b bd a0 cd af 3c
       0.0071518696 -0.025460795 -0.045839097 0.021460354
0000b0 a1 fe 45 3d 26 96 45 bc 9a 14 77 3d 29 4c df bc
       0.048338536 -0.012059724 0.06032238 -0.027257996
0000c0 9f cf 1a bd 23 9f 84 bc 86 44 db 3c 0e 31 52 bd
       -0.03779566 -0.016189164 0.026766073 -0.051316313
0000d0 f6 0b cb 3c 97 08 1c bd a7 2f 8d 3d eb 8b 9b 3d
       0.024785977 -0.03809413 0.068938546 0.075950466
0000e0 a6 9a bf 3d 5f a7 ea 3d 29 bb 6b bc c5 5c 13 3d
       0.09355669 0.11457705 -0.014387884 0.035977144

tcn.0.net.0.weight_g f4 [60, 1, 1]
000000 fe c7 07 3f 69 b7 01 3f 90 76 f7 3e fa 72 16 3f
       0.5303954 0.50670487 0.48332644 0.5876919
000010 f3 df 0f 3f 65 23 09 3f 79 f2 14 3f 4d 11 11 3f
       0.56201094 0.5356963 0.58182484 0.56667024
000020 a8 10 fc 3e 9f 04 1a 3f 2d 96 10 3f 37 fe 0d 3f
       0.49231458 0.601633 0.5647915 0.55466026
000030 c1 b5 10 3f e4 03 09 3f e9 ff 0d 3f 3e 12 07 3f
       0.56527334 0.5352156 0.5546861 0.5276221
000040 60 8c 1d 3f 27 c5 16 3f 97 03 02 3f 60 53 0a 3f
       0.6154232 0.5889458 0.5078673 0.5403347
000050 c7 b8 19 3f 83 c8 09 3f a0 68 06 3f 07 8a 01 3f
       0.6004757 0.5382158 0.52503395 0.5060124
000060 22 b6 05 3f 7e 67 08 3f 55 11 0a 3f 51 b5 fd 3e
       0.5223104 0.53282917 0.53932697 0.49552396
000070 6e 17 16 3f ad 30 13 3f e4 0d fd 3e e5 88 1f 3f
       0.586295 0.5749615 0.4942466 0.6231826
000080 3c ec 13 3f 62 f8 08 3f 88 5f 10 3f 18 d2 11 3f
       0.5778234 0.53504 0.5639577 0.569612
000090 5a 3c 0e 3f 28 60 0f 3f 10 a9 04 3f 82 0a 08 3f
       0.5556084 0.560061 0.5182047 0.53141034
0000a0 31 87 14 3f a3 9b 0f 3f 0c d4 10 3f 37 64 03 3f
       0.58018786 0.5609686 0.5657356 0.5132479
0000b0 41 84 04 3f a9 42 1f 3f 97 52 14 3f 70 eb 15 3f
       0.51764303 0.6221109 0.5793852 0.58562374
0000c0 37 e4 06 3f 54 78 15 3f 67 36 0e 3f 76 a2 14 3f
       0.5269198 0.5838673 0.5555176 0.58060396
0000d0 9e 91 10 3f 4e a7 07 3f 4b ff 0e 3f 77 6e 0f 3f
       0.56472194 0.5298966 0.55858296 0.5602793
0000e0 88 b9 0d 3f f0 84 17 3f 92 4e 11 3f 21 bc 11 3f
       0.55361223 0.5918722 0.56760514 0.56927687

tcn.0.net.0.weight_v f4 [60, 60, 5]
000000 a9 ee d1 3c b9 88 75 bc 22 4d 34 bb af 04 2d 3c
       0.025626497 -0.0149862105 -0.0027511795 0.010560199
000010 b5 ba c4 bc ec bb ee ba 5c 79 ba bb 17 84 ed 3c
       -0.02401481 -0.0018213964 -0.0056907367 0.02899365
000020 94 5c af 3c 43 60 c3 bc 27 5c 99 3c 33 cd a7 bc
       0.02140645 -0.023849612 0.0187207 -0.020483589
000030 e5 d6 d9 3c e1 71 9c 3c 2e 84 d2 bc 86 ff 3b 3c
       0.026591728 0.01909727 -0.025697794 0.011474496
000040 87 4f 88 bc 6b 68 c3 3c 50 6e 3c bc 97 1c c3 bc
       -0.016639484 0.023853501 -0.01150091 -0.023817344
000050 b0 90 a0 3c 10 21 69 bb 97 5f e2 b8 90 83 88 3c
       0.019600242 -0.0035572685 -0.00010794325 0.016664296
000060 65 ae a3 bc f4 e4 8a 3c ae 92 4f bc 74 5b 61 bc
       -0.019980619 0.016954876 -0.0126692485 -0.013754714
000070 ea 88 ad 3c ab e4 b5 bc da 1f 3f 3c 70 91 22 bb
       0.02118345 -0.022203764 0.011665309 -0.0024805926
000080 72 5e 01 3d 7b fc ed bb 71 10 ca bc 65 d6 2b 3a
       0.03158421 -0.007262764 -0.024666043 0.00065550796
000090 69 d2 9b bb 3b 13 c0 3c a4 9c 7f bc 02 e6 d3 bc
       -0.0047553075 0.02344667 -0.015601311 -0.025866512
0000a0 80 9d d1 3c 5d ee e3 bc 90 95 e3 bb 8d 5c 9a 3c
       0.025587797 -0.027823621 -0.0069453195 0.01884296
0000b0 85 c5 31 bc ec 88 bc 3c a1 80 8d ba d0 ba b6 3c
       -0.010850315 0.023014508 -0.0010795781 0.022305876
0000c0 8a 2b 16 bb be 0a ce bc ae 8b 00 3d 52 aa e5 ba
       -0.0022914135 -0.025151607 0.03138321 -0.0017522073
0000d0 04 0e aa ba 4b 68 65 3b 75 bb df bb 60 66 8b 3c
       -0.0012974148 0.003500479 -0.0068277665 0.01701659
0000e0 9f e9 e3 bc 3a 16 c2 3a 13 57 39 3c e7 55 dc bc
       -0.02782136 0.001480765 0.011312264 -0.02689643
0000f0 b5 5b 10 3d 7a 2a 23 bc 79 4d fb 3c 70 22 83 3c
       0.03524371 -0.009958858 0.03067659 0.016007632
000100 5c d5 d9 bc d2 1e 59 3c 74 9c fb bb 30 3d b7 3c
       -0.026590995 0.013251977 -0.007678563 0.022368044
000110 c9 6a 83 3c f0 9d e5 bc d3 86 81 3b 3e f1 d3 bb
       0.01604213 -0.028029412 0.00395284 -0.0064679673
000120 11 84 39 bc c5 18 3a bc 9e 3f c2 bc 45 7d 15 3c
       -0.011322991 -0.011358445 -0.023711976 0.009124105
000130 e3 2d 84 ba 42 b4 b1 3c 05 0d 38 bc 48 cc d2 bc
       -0.0010084476 0.021692399 -0.011233573 -0.025732175
000140 65 35 e5 3b 3c 18 d1 bc f5 c5 03 bc 1e 39 a3 3c
       0.0069948905 -0.025524251 -0.008042802 0.019924697
000150 75 c4 c5 bc 3a 5d 3c bb ae 38 a0 bb e7 1e fc 3c
       -0.02414153 -0.002874209 -0.0048895692 0.030776454
000160 e6 ff 1c bc 9e bd 82 bc 82 ea d3 3b 86 a9 eb 3a
       -0.009582495 -0.015959557 0.0064671645 0.0017979599
000170 71 6f c9 3c f9 ad 09 bc 1f b3 bc bc 4e 64 b3 3c
       0.024589272 -0.008403295 -0.02303463 0.021898415
000180 c9 36 7e bc 45 30 ef bb 25 0a 35 bc c4 a9 0c bd
       -0.0155159915 -0.0072994553 -0.011049782 -0.03434159
000190 cf e0 d7 bb f3 17 3b bb 97 a6 8d 3c ca 54 8f 3c
       -0.0065880786 -0.002854821 0.01729135 0.017496485
0001a0 8a 22 04 bd de 11 cf 3c 16 4d 1e bc 1f 03 df 3c
       -0.0322595 0.025277074 -0.009661933 0.027223168
0001b0 88 f9 59 3c 2f 99 b0 bc 91 f2 b6 3c 03 d4 f0 bc
       0.013304122 -0.021557419 0.022332462 -0.02939797
0001c0 c4 9d f0 3c dc 0b 29 bb c0 40 06 bd f4 2c 0b 3c
       0.029372104 -0.0025794422 -0.032776594 0.008494604
0001d0 95 a4 0e bc d4 67 f9 3c f4 88 9b 3c 22 61 cb bc
       -0.008706232 0.030445017 0.018986203 -0.02482659
0001e0 aa fa 1e 3c 9d 28 97 bc 79 49 e8 3c 0e d2 3b 3c
       0.009703318 -0.018451983 0.028355347 0.011463655
0001f0 4c 34 9a bc c8 31 d4 3b 26 7b 5f bb e9 c6 3e ba
       -0.018823765 0.006475661 -0.0034100502 -0.0007277565
000200 43 b1 8c 3b c1 2b 13 bd 03 dc f4 3b 6c 07 21 3b
       0.004293592 -0.0359304 0.0074725165 0.0024571074
000210 5e e2 7e bb 81 0d 27 3c b1 f2 48 bc 4d a7 55 bb
       -0.003889225 0.010196091 -0.012264893 -0.003260094
000220 f8 6d 55 3b b7 bc dd 3c 63 cb 83 3b 6d 8c 13 bd
       0.0032566767 0.027067525 0.0040220483 -0.036022592
000230 28 df 01 3c 20 29 18 bc 45 96 cc bb 97 bd df 3b
       0.00792674 -0.009287149 -0.0062434995 0.006828021
000240 c5 a5 9a bc 22 1e 85 3c 08 d2 bc bb a2 63 e3 3c
       -0.018877873 0.01624972 -0.0057623424 0.02775747
000250 69 d2 b6 3b cd db c8 bc 2a 39 e1 bb 99 e3 4d bc
       0.005579282 -0.024518872 -0.0068732696 -0.012566471
000260 fa 49 22 bc 44 90 10 3c e9 37 e0 bc 9f 0c e1 3c
       -0.009905333 0.008823458 -0.02737041 0.027471839
000270 82 5e 0f bb df ea f0 3c 97 ae e3 bb c6 ec 7c bc
       -0.00218764 0.02940887 -0.006948303 -0.015437311
000280 c6 ea e5 3c c3 bd ac 3b 64 d8 b7 3c 8d 35 a0 bb
       0.02806605 0.005271645 0.02244205 -0.0048891963
000290 c9 6e da bc fd 7a c1 3b e4 4e 5e bc d5 40 85 3c
       -0.026664155 0.005904554 -0.013568614 0.016266266
0002a0 08 04 65 3c a6 46 a1 bc 4e f3 d0 3b dc 8d 1d bc
       0.013978012 -0.019687008 0.0063766604 -0.009616341
0002b0 70 f9 a1 3c c0 36 df bb d9 0a 42 bc ad 6b 13 3c
       0.019772261 -0.0068119466 -0.011843407 0.00899784
0002c0 3a 50 fc bc e8 ab 8b 3c cc ba 85 3c ce 00 15 bd
       -0.030799974 0.017049745 0.016324423 -0.03637772
0002d0 d1 17 c7 3c 04 bd a4 bc c8 64 3f bc 8f 2b e6 ba
       0.024303349 -0.02010966 -0.011681743 -0.0017560589
0002e0 b4 4d 03 bd 74 98 b6 3c c6 b4 50 3a 07 c1 97 3c
       -0.032056525 0.022289492 0.00079615077 0.01852466
0002f0 33 dd 10 3c 78 28 fa bc 99 01 fa 3c b1 7c eb bc
       0.0088418005 -0.030536875 0.03051834 -0.028745981
000300 8b 58 f4 3c 9d 3d 15 3c 64 ff ae bc 6c 9a 91 3c
       0.029827377 0.009108928 -0.021362014 0.01777383
000310 82 93 a8 3a d2 f5 c7 3c 9d 5d 4b bc 9b 2a eb bc
       0.0012861344 0.024409208 -0.012412456 -0.02870684
000320 dc e2 33 3c c5 70 14 bd d7 e6 df 3c 41 14 ca 3b
       0.01097938 -0.036240358 0.027331753 0.0061669652
000330 98 9a 70 bc ca 5e 8f 3c 77 c0 1b 3b f6 82 74 b9
       -0.0146852955 0.017501254 0.002376584 -0.0002331844
000340 cf e3 00 bc 9e 8b 12 bd e4 84 84 3c f9 32 17 bd
       -0.007866814 -0.03577768 0.016176648 -0.036913846
000350 94 2c ba 3c 99 fe 8e 3c bf 64 13 bd e1 99 aa 3c
       0.022726335 0.017455386 -0.03598475 0.020825328
000360 52 5a f8 3a d5 81 86 bc d5 1c 87 3c be 50 87 bc
       0.0018947816 -0.01641933 0.01649324 -0.016517993
000370 77 2f 19 3b 2e f3 fe bb e5 bf 9e 3b 33 46 a6 bb
       0.0023374239 -0.007780454 0.004844653 -0.0050742864
000380 50 5a 64 bc fe bb 5e 3c 2c f4 2b bc 3f 9a 8b 3c
       -0.013937548 0.0135946255 -0.010495227 0.017041324
000390 f8 3a f1 3b ac c6 15 bd e3 26 89 3c a6 51 a4 bb
       0.007361766 -0.03656642 0.016742175 -0.005014616
0003a0 6f 45 a5 bb f9 e5 5c bb 8d d2 d7 bc 57 bb 0e 3d
       -0.0050436775 -0.003370641 -0.026345516 0.03484663
0003b0 1e 46 21 bd 89 d8 c1 3c 2e 97 bd bb 4c a4 ff bc
       -0.03937351 0.023662822 -0.0057858443 -0.031206273
0003c0 77 c0 22 3d 44 e8 e5 bb c6 66 e7 3c 91 8f 52 bc
       0.03973433 -0.0070162136 0.028247248 -0.012851612
0003d0 6a 1c 06 bd 73 78 a9 3c 45 d5 d8 bb 82 69 83 3a
       -0.03274194 0.020687317 -0.0066172206 0.0010025951
0003e0 70 75 41 bc 1e 4e 1a bd d7 c4 36 3c 4b b4 c6 bb
       -0.011807784 -0.037672155 0.011155329 -0.006063973
0003f0 43 52 40 3c 55 d9 fc bb fa c0 a6 bc b5 22 22 3c
       0.011738363 -0.0077163377 -0.02035569 0.00989597

tcn.0.net.4.bias f4 [60]
000000 11 2b da 3b 2b c2 46 bb 15 34 96 3d 43 ce 7f ba
       0.006657966 -0.0030328135 0.073341526 -0.00097582134
000010 fb 77 b6 bd 2b 0c 72 3c 81 8c 9a 3c 5e a2 6a 3d
       -0.08909603 0.014773409 0.018865826 0.05728375
000020 b4 ba 8c 3d 46 b1 93 3d 03 a1 84 bc d7 af 59 3d
       0.06871548 0.072115466 -0.016190058 0.05314621
000030 95 b0 6d 3b 89 e5 6e 33 93 5f ef 3c 10 67 02 3d
       0.0036268581 5.5622454e-08 0.029220378 0.03183657
000040 b7 be 0f 3e 7e eb 0c ba 52 78 fc bc 68 f8 05 bd
       0.14037596 -0.0005375667 -0.030819092 -0.0327076
000050 ef 3a bc 32 5a f3 88 3c 15 ad 8e 3d ba 65 56 bd
       2.191288e-08 0.016717602 0.069666065 -0.052343108
000060 e3 fe 21 bd e7 c7 ab bc 9b 9f 21 3d e7 00 38 bd
       -0.03954972 -0.020969344 0.039458852 -0.044922736
000070 97 2f 09 bd e3 8d 84 3c 5a 35 15 3b 96 1d c5 3c
       -0.03349265 0.016180938 0.0022767396 0.02406196
000080 50 7a 89 3c 21 5d df 3d 42 7b 73 3d f8 27 77 bd
       0.016781956 0.10906435 0.05944372 -0.06034085
000090 e5 6c b9 bc 37 1f a2 bd 62 99 2f 3c 48 a5 e0 3c
       -0.022634933 -0.0791611 0.010717722 0.027422562
0000a0 68 fa e4 bb 07 04 a1 3b 5e 81 9c 3d 19 ba 27 3c
       -0.0069878586 0.00491381 0.07641862 0.01023724
0000b0 84 fa 18 bd 5d c9 86 bb 39 ac 2e 3d 6b 06 76 3d
       -0.037348285 -0.00411336 0.042644713 0.060064714
0000c0 48 7b 15 3e c4 85 c9 3c d4 6d e1 3d 42 65 d8 3d
       0.1459781 0.024599917 0.11007276 0.105661884
0000d0 be fb 81 bd 59 d9 ad 3b 9e 99 ec bc 57 60 86 bb
       -0.06346844 0.005305451 -0.028881844 -0.00410084
0000e0 67 03 81 3d 78 d5 a4 3d ef 5b 99 3b dd 7b 90 bb
       0.06299477 0.080485284 0.004680149 -0.004409297

tcn.0.net.4.weight_g f4 [60, 1, 1]
000000 97 02 03 3f f9 ca c0 3e 0f 3f 04 3f 54 d3 f4 3e
       0.51175827 0.37654856 0.5165872 0.4781748
000010 56 67 0e 3f c0 d5 b6 3e 1e 9c 15 3f 91 06 0d 3f
       0.5562643 0.35709953 0.5844134 0.55088145
000020 92 0a 13 3f a9 f3 17 3f ec e5 0c 3f 05 91 01 3f
       0.57438004 0.5935617 0.5503833 0.5061191
000030 32 20 0c 3f 67 14 da 3d 67 74 0e 3f f1 82 06 3f
       0.54736626 0.10648423 0.55646366 0.5254355
000040 49 57 08 3f de e5 52 3e db 5e b6 3e 84 17 08 3f
       0.53258187 0.205955 0.35619244 0.5316088
000050 68 71 dc 3d 27 17 0e 3f 71 df d8 3e 99 ae 0b 3f
       0.10763818 0.5550408 0.42357972 0.5456329
000060 1a ed 0a 3f 3f 27 00 3f 07 18 0c 3f 7a 5d 08 3f
       0.5426804 0.50059885 0.5472416 0.53267634
000070 84 0c 07 3f 68 b6 14 3f ae 26 14 3f bd ad 19 3f
       0.5275347 0.5809083 0.5787152 0.6003073
000080 c2 34 09 3f 87 4e 00 3f 1f be 11 3f fd 98 0f 3f
       0.5359613 0.50119823 0.56930727 0.56092817
000090 bb 60 f8 3e 08 ff 0f 3f 0f 01 08 3f 0e 59 07 3f
       0.485113 0.5624852 0.53126615 0.5287026
0000a0 13 a0 11 3f e6 1f 0f 3f 9b 90 1f 3f 22 6b 11 3f
       0.5688488 0.5590805 0.62330025 0.56804097
0000b0 f5 d4 0c 3f 7d e0 c0 3e 60 78 04 3f 80 5e 04 3f
       0.55012447 0.3767127 0.5174618 0.51706696
0000c0 93 d5 03 3f a1 b9 0f 3f e0 9f 15 3f 42 eb 08 3f
       0.51497763 0.5614262 0.58447075 0.53483975
0000d0 66 15 05 3f 12 8f 05 3f 19 58 b8 3e 52 bf 05 3f
       0.51985776 0.5217143 0.36004713 0.52245057
0000e0 76 54 00 3f cb ec df 3e 72 9d 1e 3f c0 8f c6 3e
       0.5012888 0.43735346 0.6195899 0.38781548

tcn.0.net.4.weight_v f4 [60, 60, 5]
000000 50 90 24 bd 04 b4 f8 bc 0b 0b 73 3d 7c 5a f6 bc
       -0.04017669 -0.030359276 0.059336703 -0.030072443
000010 be 56 ed bb 9f e5 8e 3b ae 63 86 3d 27 d7 8d 3c
       -0.0072430065 0.004360869 0.06561981 0.017314507
000020 dc 0e af 3b 61 7f 61 bc fd 3b de bc eb 7f 42 bd
       0.0053423475 -0.01376328 -0.027128214 -0.047485273
000030 20 c8 02 bd 65 73 12 3d bf ac 54 3d 5a da 5d bd
       -0.031929135 0.03575458 0.051922556 -0.054163314
000040 a3 c1 37 bc 82 55 a5 bc c4 a5 95 bd 2d 08 2d 3d
       -0.0112156 -0.020182375 -0.07307008 0.042244125
000050 8d c8 c8 3c 06 f6 cf 3b 6b 9f d2 3c 1e 84 6e 3c
       0.024509693 0.006346467 0.025710782 0.014557866
000060 5f 73 05 bd 52 a5 04 3d 51 41 7f bd 80 03 5c bc
       -0.03258073 0.032384224 -0.06231815 -0.013428569
000070 ac c3 9a 3c 4e 69 27 bc 54 38 1a 3c 7c 5c 05 3d
       0.018892132 -0.010217978 0.009412844 0.032558903
000080 e0 1d c0 bc 17 f9 5d 3d 17 f1 08 bd f7 78 4a bb
       -0.023451746 0.05419263 -0.033433046 -0.0030894855
000090 3b 2e 36 3d 94 77 71 bd ae 3a 26 bd bc 19 bf bc
       0.044477683 -0.05895193 -0.040583305 -0.0233277
0000a0 50 ce 08 bc f5 bd 0d 3d 80 59 cf 3a d1 d7 2e 3d
       -0.00834997 0.034604985 0.001581952 0.042686287
0000b0 7f 10 48 3d 98 59 a2 3c e8 66 bf bc dd d6 e1 bc
       0.048843857 0.019818112 -0.0233645 -0.027568275
0000c0 78 5e ea 3a 57 2f f9 bb b0 04 0b bc ec 2c 33 bc
       0.0017880937 -0.0076045203 -0.008485004 -0.010936003
0000d0 e3 0e b3 bd 5c 9f b8 3c c5 f1 89 3c 06 7f 47 bd
       -0.08743074 0.022536926 0.016838918 -0.048705123
0000e0 0f 66 79 bd 50 a2 a3 bb 17 46 62 bc ad b4 00 3c
       -0.060888346 -0.0049937144 -0.013810656 0.007855576
0000f0 53 5c c6 bc 64 be c2 3c 35 36 9f bc 22 d3 6f 3d
       -0.024213945 0.023772426 -0.019435028 0.05855096
000100 31 cf aa bc a2 f1 60 3d 26 ab 1c bc 1c 4b 60 bb
       -0.02085075 0.05491794 -0.009562289 -0.0034224456
000110 5d 96 8c 3c de d2 02 bd 39 8e 9f 3d ec 72 5d 3c
       0.017161543 -0.03193938 0.07790799 0.013516169
000120 fd a9 da bc 9f 2d 2b 3d ad 79 21 bc 29 e9 91 3c
       -0.026692385 0.041791555 -0.00985567 0.017811375
000130 6e 97 aa bc 6b 4a 21 3d ab 7e fb 3c 1f 63 90 bc
       -0.02082416 0.03937761 0.030700048 -0.01762539
000140 1f cf 5b bb a2 dd d7 bb 8d a9 b8 3c e5 95 f4 bc
       -0.0033540202 -0.0065877 0.022541786 -0.029856632
000150 8a 09 a9 bc 2f c7 da bc 6f 2c 0c 3c 65 5c 97 bc
       -0.020634431 -0.026706306 0.008555516 -0.018476674
000160 4f 6d 28 b9 96 ab 24 bb 20 c1 5f 3c 1d c4 cd 3c
       -0.00016062449 -0.0025126687 0.013656884 0.025117928
000170 01 7d 6b bc 76 76 ae 3c a8 db 1b 3c 0b c3 4c 3c
       -0.014373065 0.021296721 0.009512819 0.012497674
000180 d1 30 7a bd a4 56 0c bd 11 31 1f bc bb 4d 2e bc
       -0.06108171 -0.034262314 -0.009716288 -0.01063865
000190 3f 6e 8f 3c 80 80 be bc 38 f0 be bc 8d 25 e8 bb
       0.017508624 -0.023254633 -0.023307905 -0.0070845545
0001a0 04 32 35 bd 8e 6c d3 3b f3 64 cf 3c ec 3f dc bc
       -0.04423715 0.0064521497 0.025316691 -0.02688595
0001b0 0b 6d eb bc 0a 9e 81 bc a6 e7 3c bc df ee 0c 3d
       -0.02873852 -0.01582243 -0.011529839 0.034407493
0001c0 e9 e4 d0 3c 48 3b 64 bd 7a 5f 25 3d 1f 75 22 bd
       0.025499778 -0.055720598 0.040374257 -0.039662477
0001d0 67 46 40 bc 56 8e ed 3b 24 3c 82 bc 1d c5 9b 3c
       -0.011735535 0.007249634 -0.015897818 0.01901489
0001e0 a2 74 f4 bb 08 05 36 3d 7a 0f 4d bb 69 d4 05 3a
       -0.007460193 0.044438392 -0.0031289742 0.0005105199
0001f0 27 f9 04 3d 43 66 d4 3b 0b a1 c4 3b d7 9c cc bc
       0.032464173 0.006481917 0.006000643 -0.02497713
000200 33 50 62 bd fa 72 3e 3c d6 5f af 3c 89 d1 a7 3c
       -0.055252265 0.011624092 0.021408003 0.020485656
000210 5c ad dc 3c b5 e7 0d bd e3 ce 92 3c c1 43 71 bc
       0.026938133 -0.0346448 0.017920917 -0.014725626
000220 f8 a3 80 ba 60 6d 09 3d 03 86 46 3d 07 31 ee bc
       -0.0009814491 0.033551574 0.048467647 -0.029076112
000230 d3 eb d6 3b fd f2 78 bc 27 fe fb bc f6 6f 4c bc
       0.006558874 -0.015194652 -0.030760838 -0.012477865
000240 52 fc 00 bd 3d 4f bf 3b 86 e2 37 bd f7 12 05 3c
       -0.03149063 0.0058383034 -0.044893764 0.008122197
000250 b6 a8 a8 bc a2 8d b3 bc c4 ce 52 bd c2 67 0f 3d
       -0.02058826 -0.021918122 -0.05146672 0.03501106
000260 0d bc 80 3d 70 bc a7 bb 9f e5 56 3c 65 2f c2 bb
       0.06285868 -0.005118899 0.013116269 -0.00592606
000270 f9 79 54 bd bd 7d 8f bc 01 97 14 bd 7d c1 e6 bc
       -0.051874135 -0.017516011 -0.03627682 -0.028168434
000280 99 19 49 3c 74 a2 69 bc 4a 55 3e bc 88 44 36 bd
       0.012274169 -0.014259923 -0.011617014 -0.04449895
000290 16 2e 6a bc 55 3b 40 bc c5 d5 a4 3b 41 a5 ce 3c
       -0.014293214 -0.011732896 0.005030366 0.025225284
0002a0 b4 8d 80 3b c3 a0 b8 3a 3d 97 d5 bc f5 a8 bd 3d
       0.0039231423 0.0014085997 -0.026073093 0.092607416
0002b0 a3 49 da 3c cf 0b 1a 3d 75 5c da bc 86 99 2f bd
       0.02664644 0.037608918 -0.026655415 -0.04287102
0002c0 5d 65 03 bc c8 48 5e 3b 26 c4 08 bc 83 e5 42 3a
       -0.008019772 0.0033917893 -0.008347547 0.00074347126
0002d0 22 32 0a bd c3 93 01 3d ad 83 aa 3c ed 5f 3e bd
       -0.033739217 0.031635057 0.020814741 -0.0464782
0002e0 29 e8 dc bc ca 58 b4 3d 4d 68 c5 bc 23 e8 8a bc
       -0.026966171 0.08805998 -0.024097586 -0.016956395
0002f0 96 07 28 3b d5 72 ff 3c 05 18 79 3d e9 f0 c1 3c
       0.0025639287 0.031182686 0.060813922 0.023674445
000300 9f bd cb bc 97 a8 e4 bc 56 87 cf bc dc b5 28 bd
       -0.024870692 -0.027912421 -0.025333088 -0.04118906
000310 f6 9a 40 3c fe 03 e4 3c c8 10 31 bc 9e ed 86 bd
       0.011755696 0.027833935 -0.010807224 -0.06588291
000320 92 18 79 3c 74 82 12 3c 6c c0 93 bc 60 d1 d4 bb
       0.015203612 0.008942235 -0.01803609 -0.006494686
000330 9d 43 4b 3c 13 84 c3 bc 37 8d 1c bd 58 b2 f9 3a
       0.012406257 -0.023866689 -0.03822061 0.0019050343
000340 c2 b1 6c bc 7b 4d bb ba 74 0c 10 3d 08 bd 2e 3d
       -0.014446678 -0.0014290059 0.035168126 0.042660743
000350 4a 6c 5c bd 85 7c 25 bc a4 4c 1e 3d 6f 81 89 bc
       -0.05381421 -0.010100489 0.03864731 -0.016785352
000360 37 e6 2e 3c 86 bd d1 3b 15 a4 5a bc a8 e7 b5 3c
       0.010675005 0.006400767 -0.013344784 0.022205189
000370 fd ff c7 3c 7a f0 b0 3c 6e 33 a2 bc 2e 0a a9 bc
       0.024414057 0.021599043 -0.019799914 -0.020634737
000380 66 83 6b 3d 4d 95 1d 3d 2a d5 27 bd a0 47 0b 3c
       0.05749836 0.038472462 -0.040974773 0.008500963
000390 7a b3 70 bd 46 e0 da ba 5e cc 2f 3c 72 ad 27 bd
       -0.058764912 -0.0016698919 0.010729877 -0.040936895
0003a0 e8 4d 82 bd b0 b9 4e bd 8d f1 bf bb 1a 2b 85 3d
       -0.06362516 -0.050470054 -0.0058576525 0.065023616
0003b0 29 7e 70 bb 84 5c 5a bd 3e cb 67 bd 99 17 35 bd
       -0.003669629 -0.053310886 -0.05659031 -0.044211958
0003c0 26 04 7f bd 03 52 12 3d 78 ab 41 bd 60 be 34 bd
       -0.062259816 0.035722744 -0.047282666 -0.04412687
0003d0 b6 1f 29 3d 32 5d f6 3c fa 59 34 3d 91 1b 7f bd
       0.041290008 0.030073736 0.04403112 -0.06228215
0003e0 90 1b 29 bd 73 fc ef bc 5f 7d 9c 3d 76 a1 07 3d
       -0.04128605 -0.029295182 0.076411 0.033112966
0003f0 3d ec 14 3d 94 34 6f bd 77 6a d7 bc e5 5d 43 bd
       0.036358107 -0.05839975 -0.026295884 -0.047696967

tcn.2.conv1.bias f4 [60]
000000 8d 1d 38 3d 35 76 07 bd f3 46 80 3c 8c 4e 16 3d
       0.044950057 -0.033071715 0.015658831 0.036696002
000010 af 23 0e bd 41 8b cb bc 2e c0 a6 bc fe 8d 99 3d
       -0.034702 -0.024846675 -0.02035531 0.07497786
000020 98 b5 c9 bd a9 06 2e 3e 7c a0 09 bc b5 70 06 3e
       -0.098490894 0.16994728 -0.008400079 0.13128932
000030 2f 7c 55 3d 7e d0 0c bd b0 e0 7b bc b4 0c 16 3d
       0.052120384 -0.03437852 -0.015373394 0.03663321
000040 f6 c1 bf 3d 22 d4 80 3d 83 21 25 3d 8a a6 bd 3c
       0.09363167 0.06290461 0.040315162 0.023150701
000050 36 4a 4a 3d 67 28 89 bc 96 23 91 3d 37 f7 81 bc
       0.04938718 -0.016742898 0.070868656 -0.015864952
000060 a9 2a 92 3c e3 94 ab 3d 27 dd 12 3d 5f f1 f4 3c
       0.017842608 0.08378007 0.03585544 0.029900251
000070 47 3d 97 3b 8d 1c c9 3b 6c 0e 88 3d 01 0f af 3d
       0.004615459 0.0061374367 0.06643376 0.08547784
000080 61 af bf 3d e9 08 98 bd ec 32 fe bb 4d 7e 1a bc
       0.09359623 -0.074235745 -0.007757535 -0.0094295265
000090 30 c1 66 bd 1e a2 49 bc 03 91 36 3d 61 7c 37 3d
       -0.05633658 -0.012306718 0.044571888 0.04479635
0000a0 c7 95 c6 bc 73 1c 02 bd 67 48 3a bd 36 72 cd 3b
       -0.024241341 -0.031765413 -0.045479205 0.0062697185
0000b0 b9 43 26 3e 76 13 ed bb 83 fc c3 3d aa df 2a 3e
       0.16236772 -0.007234986 0.09569647 0.16686884
0000c0 f9 8c 2a 3e dc 9b 81 bd fc f8 d1 3d a3 08 fb 3d
       0.1665534 -0.06328556 0.10252568 0.12257507
0000d0 9b 7a 19 3d 9e 42 16 3d 1f 2f fa bc bc 72 d9 3d
       0.03747044 0.036684625 -0.030540047 0.10617587
0000e0 8d 01 0d bd 8c 96 95 bd 7c 33 d2 3c de f8 e1 bd
       -0.034425307 -0.07304105 0.025659315 -0.11033796

tcn.2.conv1.weight_g f4 [60, 1, 1]
000000 f8 81 15 3f 8a fb 0c 3f 48 6a 0a 3f e1 f3 19 3f
       0.5840144 0.5507132 0.5406842 0.60137755
000010 e2 03 10 3f d0 36 0f 3f 3f 3c 12 3f e4 24 0c 3f
       0.56255925 0.5594301 0.5712318 0.5474379
000020 19 78 00 3f df 9e 05 3f a8 0a 0a 3f 56 0e 07 3f
       0.50183254 0.52195543 0.5392251 0.5275625
000030 fb c6 0a 3f ea 3a 06 3f 3d eb 0a 3f e6 25 0f 3f
       0.5420987 0.52433646 0.54265195 0.55917203
000040 18 22 0b 3f 18 0b fd 3e 52 92 0e 3f 59 b1 14 3f
       0.543489 0.49422526 0.5569202 0.5808311
000050 7d 98 10 3f f6 b2 0e 3f 84 2e fd 3e 57 cb 08 3f
       0.5648268 0.5574182 0.4944955 0.5343527
000060 02 e9 05 3f 6e cc 07 3f c3 e6 0d 3f de 4c 0f 3f
       0.52308667 0.5304631 0.5543024 0.55976665
000070 9b 1a 09 3f 9e 0f 10 3f 47 59 10 3f 4f 4a 1b 3f
       0.5355622 0.5627383 0.56386226 0.6066026
000080 a1 a2 00 3f aa 94 04 3f d5 0a 18 3f 05 58 05 3f
       0.5024815 0.51789343 0.5939153 0.5208743
000090 36 fa 08 3f 3c da 04 3f a1 ed 06 3f 6a 9a 11 3f
       0.5350679 0.518955 0.5270634 0.5687624
0000a0 25 2b 08 3f 4f f7 09 3f 3b 5e fe 3e 4b be 0c 3f
       0.53190833 0.5389299 0.49681267 0.54977864
0000b0 1e 41 0a 3f 19 f3 0e 3f a6 9f fa 3e f7 f2 0b 3f
       0.5400561 0.5583969 0.48949927 0.5466761
0000c0 d2 9c 0a 3f e2 d3 0c 3f 88 12 0e 3f 13 fa 0a 3f
       0.5414554 0.5501081 0.55497026 0.5428783
0000d0 22 d7 00 3f e7 7d f7 3e 9b bd 0a 3f e5 83 0a 3f
       0.50328267 0.48338243 0.54195565 0.54107505
0000e0 7c 05 08 3f d6 cf 07 3f af 84 16 3f 44 b6 0e 3f
       0.5313337 0.5305151 0.5879621 0.55746865
