raisimGymTorch/raisimGymTorch/algo/ppo/student/models/2022_10_22.pth (torch, 900915 bytes, 74 tensors)

tcn.0.conv1.bias f4 [60]
0	0xbd41292f	-0.047158416
1	0x3d4763bd	0.048679102
2	0x3ca97567	0.020685865
3	0x3c27fa86	0.010252601
4	0x3d615f63	0.05502261
5	0xbc4946ad	-0.012284917
6	0x3c841381	0.016122581
7	0x3d01be70	0.031675756
8	0x3ceced2e	0.02892169
9	0x3c432e21	0.011912853
10	0x3c5f9671	0.013646708
11	0x3d8207bc	0.063491315
12	0xbd1f7aee	-0.038935594
13	0x3d1fce7f	0.03901529
14	0xbcef2625	-0.029192993
15	0x3d56ef14	0.052474096
16	0x3cfa60a3	0.030563658
17	0x3d071264	0.032976523
18	0x3d107c19	0.0352746
19	0xbc2d372c	-0.010572236
20	0xbc568b43	-0.013094726
21	0xbcab1915	-0.020885983
22	0x3d3a06f3	0.045416784
23	0x3c3c3482	0.011487128
24	0x3d89a551	0.06720985
25	0xbca8eab3	-0.020619726
26	0xbd257b70	-0.040400922
27	0x3d207460	0.039173484
28	0x3d74e05d	0.059784282
29	0x3e02c0d3	0.12768869
30	0x3d114d37	0.03547403
31	0xbcee7db5	-0.029112676
32	0xbc2fb4a3	-0.0107242195
33	0x3ca043ef	0.019563643
34	0x3d1efba4	0.038814202
35	0xbb0ff0c4	-0.0021963576
36	0x3c8e957a	0.01740526
37	0xbb88c741	-0.0041741435
38	0xbcead32c	-0.028665148
39	0x3dc5b72f	0.0965408
40	0x3cf82fe2	0.03029627
41	0x3d4d8717	0.05017766
42	0x3e0d2206	0.1378251
43	0x3cf0486f	0.029331414
44	0x3bca5dba	0.006175724
45	0x3c282cdb	0.010264601
46	0xb8ac184e	-8.206126e-05
47	0xbccc052f	-0.024904815
48	0x3cdaf655	0.026728788
49	0x3d878f16	0.06619088
50	0xbca1eb6d	-0.01976558
51	0x3b30ef56	0.0026998124
52	0x3ccafa0e	0.024777438
53	0x3cd33193	0.025780475
54	0xbc4734b6	-0.012158563
55	0x3cff6d7e	0.03118014
56	0x3d5d29b4	0.05399485
57	0xbd6beb0c	-0.057597205
58	0x3d9dc4d7	0.0770356
59	0x3c88ae59	0.016684698

tcn.0.conv1.weight_g f4 [60, 1, 1]
0	0x3f134b35	0.5753663
1	0x3f0c4502	0.547928
2	0x3f085cce	0.5326661
3	0x3f0ed543	0.5579416
4	0x3f0fa2d0	0.5610781
5	0x3f0b9ba1	0.54534346
6	0x3f0cbd14	0.5497601
7	0x3f196efa	0.5993496
8	0x3f0b2b43	0.5436289
9	0x3f0d6861	0.55237395
10	0x3f0ba8a5	0.54554206
11	0x3f10da7d	0.56583387
12	0x3f1263b6	0.57183397
13	0x3f0d3c78	0.55170393
14	0x3f1d8292	0.6152736
15	0x3f0f72bb	0.5603444
16	0x3f055416	0.5208143
17	0x3f077d11	0.5292521
18	0x3f069099	0.5256439
19	0x3f15775f	0.5838527
20	0x3f173a46	0.59073293
21	0x3f124cc3	0.5714838
22	0x3f0f6ca6	0.5602516
23	0x3f1ced33	0.6129944
24	0x3f0fafc6	0.56127584
25	0x3f094f54	0.5363667
26	0x3f086468	0.5327821
27	0x3f0ae7da	0.5426003
28	0x3f0910b7	0.5354113
29	0x3f107695	0.5643094
30	0x3f178e47	0.59201473
31	0x3f06ff37	0.52733177
32	0x3f0a86f3	0.54112166
33	0x3f10b9a0	0.5653324
34	0x3f0c31ba	0.54763377
35	0x3f10d909	0.5658117
36	0x3f0a9a62	0.5414182
37	0x3f116f9e	0.5681094
38	0x3f11f242	0.5701028
39	0x3f18934c	0.5959976
40	0x3f126eeb	0.572005
41	0x3f0d688e	0.5523766
42	0x3f0d4769	0.5518709
43	0x3f174cb1	0.59101397
44	0x3efb2c05	0.49057022
45	0x3efb1c3a	0.49044973
46	0x3f093148	0.5359082
47	0x3f07990e	0.5296792
48	0x3f17299d	0.5904787
49	0x3eff0b09	0.49813107
50	0x3f095cde	0.5365733
51	0x3f0dff53	0.5546772
52	0x3f113138	0.56715727
53	0x3f1288fc	0.5724027
54	0x3f09bdbf	0.53805155
55	0x3f088ae9	0.5333696
56	0x3f0d6a28	0.55240107
57	0x3f10ecc7	0.56611294
58	0x3f13c0d9	0.5771614
59	0x3f0eb044	0.5573771

tcn.0.conv1.weight_v f4 [60, 60, 5]
0	0x3c49ead1	0.012324051
1	0xbd250943	-0.040292036
2	0x3d3c6870	0.045998037
3	0xbd25f701	-0.040518764
4	0x3a9c2c12	0.001191499
5	0x3d3a8b8e	0.045543246
6	0xbcacad7e	-0.021078821
7	0x3d5f676b	0.054541986
8	0x3a8b3018	0.0010619191
9	0x3cf6cef4	0.03012798
10	0xbc58b0d1	-0.01322575
11	0xbcc04ba5	-0.02347357
12	0x3d2ee705	0.042700786
13	0xbcb57bf6	-0.022153836
14	0x3b9f5d19	0.004863393
15	0xbcb350bc	-0.021889083
16	0xbc960893	-0.018314635
17	0x3d2b71ca	0.041856565
18	0x3b362d31	0.0027797932
19	0x3cc3e704	0.023913868
20	0x3d1f507d	0.03889512
21	0x3cd6b4c6	0.026209246
22	0x3d6f8d67	0.05848446
23	0xbcc81f0a	-0.024428863
24	0x3d4d2119	0.050080393
25	0x3c6bc5b2	0.014390396
26	0x3c270ea8	0.010196365
27	0x3d3350a1	0.043778066
28	0xbc8301a1	-0.015991988
29	0x3c7098e3	0.0146848885
30	0xbc8aaaa4	-0.01692707
31	0x3cd09da4	0.025465794
32	0x3d244725	0.04010691
33	0x3ba25db1	0.0049550165
34	0x3cef3d38	0.029203996
35	0x3d0dbcb0	0.034603775
36	0x3c1ede88	0.00969661
37	0x3d216b2f	0.03940886
38	0x3bccd1a7	0.0062505784
39	0xbb8c1a5f	-0.0042756046
40	0x3d15676a	0.036475576
41	0xbd02de89	-0.031950507
42	0x3d3ac4ee	0.045597963
43	0xbd145cd6	-0.036221348
44	0x3cb412fc	0.021981709
45	0x3d1ae406	0.037815116
46	0xbd13cec1	-0.036085848
47	0x3d28c254	0.04120095
48	0x3c79a304	0.01523662
49	0xbcfb5310	-0.030679256
50	0xbbcf28cd	-0.0063220025
51	0xbd215851	-0.039390866
52	0x3d54847a	0.051884152
53	0xbca32279	-0.019913899
54	0x3d127b74	0.035762265
55	0xbc5cf2f7	-0.013485662
56	0xbc239830	-0.009985015
57	0x3d672081	0.056427483
58	0xbcb30adb	-0.021855762
59	0xbb8232ae	-0.0039733266
60	0x3c49b6d8	0.01231166
61	0xbc188578	-0.009309165
62	0x3d4d2397	0.05008277
63	0xbba1bf6a	-0.0049361484
64	0xbc8462e2	-0.016160432
65	0x3bc01510	0.005861886
66	0xbcc2634f	-0.023728995
67	0x3d4132d6	0.04716762
68	0xbcab189a	-0.020885754
69	0x3cc0f1cd	0.0235528
70	0x3ce51006	0.027961742
71	0x3c3dae59	0.011577212
72	0x3d1f248f	0.038853224
73	0xbc60b8d4	-0.013715941
74	0x3c2be1c9	0.010490843
75	0x3cfea5ea	0.031084973
76	0x3d053243	0.032518636
77	0x3d4d0d4f	0.05006152
78	0x3c8ab0e1	0.016930046
79	0xbd1f5df2	-0.038907953
80	0xbbb78dcb	-0.00560162
81	0x3b869715	0.004107366
82	0x3d47ecf4	0.04880996
83	0xbcd288c3	-0.025699979
84	0xbd03ba15	-0.032159884
85	0x3be1a190	0.006885715
86	0xbd0cb4bd	-0.034352053
87	0x3d1e0716	0.038580976
88	0x3c19b827	0.009382284
89	0x3b31bf65	0.0027122137
90	0x3ce272a4	0.027642556
91	0x3c7aa76c	0.015298706
92	0x3d27a50a	0.040928878
93	0x3c673ce7	0.014113641
94	0x3d057373	0.032580804
95	0xbc56219a	-0.013069535
96	0xbcce4141	-0.0251776
97	0x3d21c5c7	0.039495256
98	0xbc559b0e	-0.013037456
99	0xbd1ad88f	-0.037804183
100	0xbbb009e8	-0.0053722747
101	0x3c1846a9	0.00929419
102	0x3d21b689	0.03948072
103	0x3cecefe6	0.028922986
104	0x3d3a50cc	0.04548721
105	0x3d35c296	0.044375025
106	0x3ca7a210	0.02046302
107	0x3d21d571	0.039510194
108	0x3b493819	0.0030703603
109	0x3d1d2742	0.038367517
110	0x3ccc7ff0	0.02496335
111	0xbbd061b7	-0.0063593048
112	0x3d63bc3d	0.05559944
113	0x3b93dd05	0.0045124316
114	0x3cb87017	0.022514386
115	0x3d4d2eca	0.05009345
116	0x3cfc6415	0.030809442
117	0x3d2f42b1	0.04278821
118	0x3d1b4cab	0.037914913
119	0x3bc9fb12	0.006163963
120	0x3c7f1ce5	0.015570854
121	0xba8b1dd8	-0.0010613753
122	0x3d5724e1	0.052525405
123	0x3c098f6b	0.00839601
124	0x3a3480df	0.00068856584
125	0x3ceb7176	0.028740626
126	0xbcd4a5a9	-0.0259579
127	0x3d73cf17	0.05952367
128	0x3c5ef1b1	0.013607428
129	0xbbe07f7e	-0.0068511358
130	0x3d0579be	0.032586806
131	0xbc0010bb	-0.007816489
132	0x3d34c496	0.04413279
133	0x3c8773dc	0.016534738
134	0x3c21fe85	0.009887342
135	0xbc3670b8	-0.011135273
136	0xbcda2b25	-0.026631901
137	0x3d312daf	0.043256458
138	0xb9f77661	-0.0004719971
139	0xbcb19229	-0.02167614
140	0x3ba68d8f	0.005082793
141	0x3c8d07ef	0.017215697
142	0x3d2ffc06	0.042964958
143	0x3c29aea4	0.010356579
144	0x3d28ad7e	0.04118108
145	0xbc035c1d	-0.008017567
146	0x3c3e1f24	0.011604104
147	0x3d3be334	0.045870975
148	0xbc3946d6	-0.0113083925
149	0x3d44ce47	0.048048284
150	0xbcac781d	-0.021053368
151	0xbc7960d4	-0.0152208395
152	0x3d2ef815	0.04271706
153	0x3b5743c7	0.0032846795
154	0x3d666a63	0.056253802
155	0x3c857221	0.016289772
156	0x3cfcd5c5	0.030863652
157	0x3d6e494f	0.05817538
158	0x3ca603f3	0.020265555
159	0xbb932b7b	-0.0044912673
160	0xbc97a5eb	-0.018511733
161	0xbc709b90	-0.0146855265
162	0x3d24ee15	0.040266115
163	0x3c3d0fef	0.011539443
164	0x3d385ed2	0.045012303
165	0x3cb8643e	0.022508737
166	0x3cf9f4ac	0.030512176
167	0x3d308510	0.04309565
168	0xbbdc960b	-0.0067317537
169	0xbd08ac16	-0.03336724
170	0x3b2cbbb0	0.0026356988
171	0xbbb1be5a	-0.005424303
172	0x3d700244	0.05859591
173	0xbcaedc59	-0.021345304
174	0xbd093b88	-0.03350404
175	0x3b4facc3	0.0031688667
176	0x3cfe796a	0.031063754
177	0x3d43b50d	0.047780085
178	0x3c892364	0.016740508
179	0xbcfed8b1	-0.031109186
180	0x3ca32c43	0.019918567
181	0xbd18ca27	-0.037302162
182	0x3d2458c9	0.040123735
183	0xbcd33374	-0.02578137
184	0xbc2d2a49	-0.010569164
185	0xbc46c037	-0.0121307885
186	0xbc1c7d94	-0.0095514245
187	0x3d1e4a99	0.03864536
188	0x3c353566	0.011060094
189	0x3bb0d681	0.0053966646
190	0x3c6dd0d4	0.014515121
191	0xbc189ee6	-0.009315228
192	0x3d23e6d8	0.04001507
193	0x3c68e2ef	0.014214261
194	0xbd0ec154	-0.03485234
195	0xbc612622	-0.013742002
196	0x3c8384ec	0.016054593
197	0x3d6e3f00	0.05816555
198	0xbc5ca690	-0.013467446
199	0xbd1eb29e	-0.03874456
200	0x3c3777ba	0.011197979
201	0xbc5d49f3	-0.0135064
202	0x3d13bfaf	0.036071476
203	0x3c8694c9	0.016428368
204	0xbcdb9e8a	-0.026808996
205	0x3cb9ebee	0.022695508
206	0xbca38cb2	-0.01996455
207	0x3d47fc3d	0.048824538
208	0x3bb417c8	0.005495999
209	0x3d0b4fba	0.03401158
210	0x3d271b3c	0.040797457
211	0xbcf292f0	-0.02961108
212	0x3d402fd4	0.046920612
213	0xbcd8f99e	-0.026486214
214	0x3c9d7f00	0.019225597
215	0x3abf411c	0.0014591548
216	0x3c05eb26	0.00817374
217	0x3d19b25d	0.037523616
218	0xbb98cd21	-0.004663125
219	0xbccf636d	-0.025315965
220	0xbbac2d17	-0.0052543986
221	0x3ce56324	0.028001375
222	0x3d4c7ce8	0.049923807
223	0x3c3a3e1a	0.011367345
224	0x39d5f3ef	0.0004080827
225	0x3cea74a9	0.028620081
226	0xbcf1454b	-0.029451987
227	0x3d563ded	0.05230515
228	0x3ab51acd	0.0013817191
229	0xbd055b4f	-0.03255778
230	0x3ce9a71d	0.028522069
231	0xbcb3aff1	-0.021934481
232	0x3d1d986a	0.03847543
233	0xbcd7c13c	-0.026337259
234	0x3bfc083d	0.0076914118
235	0x3d5ad8d4	0.05342944
236	0x3cc85ebb	0.024459234
237	0x3d5b7498	0.05357799
238	0xbc281121	-0.01025799
239	0xbd040795	-0.032233793
240	0x3cd00829	0.025394516
241	0xbac0045d	-0.0014649738
242	0x3d690ba0	0.056895852
243	0xba957a90	-0.0011404324
244	0x3bc68cdf	0.0060592736
245	0x3d4887cd	0.048957635
246	0x3cea10ef	0.028572528
247	0x3d2b80be	0.041870825
248	0xbd2ea96a	-0.042642035
249	0xbca3adab	-0.019980272
250	0xbc64ec82	-0.0139724035
251	0x3d015c5c	0.03158222
252	0x3d3aa9ed	0.04557221
253	0xbd59c75c	-0.05316864
254	0xbc580e1e	-0.01318696
255	0x3b099f60	0.0020999536

tcn.0.conv2.bias f4 [60]
0	0xbc9e23b1	-0.019304128
1	0xbd6085ee	-0.054815225
2	0x3c39968b	0.011327396
3	0xbcc59616	-0.024119418
4	0x3c957c77	0.018247826
5	0x3b722d3b	0.003695323
6	0xbc6fd7b9	-0.014638835
7	0x3e09894b	0.1343128
8	0xbd5e519d	-0.05427705
9	0xbb1cd704	-0.002393187
10	0x3d8d94ea	0.06913169
11	0xbd514b47	-0.05109718
12	0x3ce9e6c3	0.028552419
13	0x3db7cd58	0.08974713
14	0xbd2e01b7	-0.042482104
15	0xbdc1191d	-0.09428618
16	0xbc07f2cb	-0.008297632
17	0xbd3c73af	-0.046008762
18	0xbd22c33e	-0.03973698
19	0xbd9eadeb	-0.07748016
20	0x3e04d7ee	0.12972996
21	0x3e1a117a	0.1504573
22	0x3ceee6e0	0.029162824
23	0xbdae7e1c	-0.08520147
24	0xbc722a23	-0.014780554
25	0xbc0df1a6	-0.0086635705
26	0x3d4a87ec	0.04944603
27	0x3b446539	0.002996756
28	0x3dc848d7	0.09779518
29	0x3c6cb70e	0.0144479405
30	0x3d365600	0.04451561
31	0xbc6d1d38	-0.014472298
32	0x3b89896f	0.0041972916
33	0xbd47cd89	-0.048779998
34	0xbd0bd030	-0.03413409
35	0x3d029d26	0.03188815
36	0x3b00814a	0.0019608312
37	0xbca18cb6	-0.019720417
38	0xbb195576	-0.0023396886
39	0xbce4f800	-0.027950287
40	0x3cf54425	0.02993972
41	0xbc1ef8e9	-0.0097028995
42	0xbdca1391	-0.09867013
43	0x3de96ad0	0.11397326
44	0xbcfd6099	-0.03092985
45	0xbd3120d1	-0.043244187
46	0x3d1fc41a	0.039005376
47	0xbc283c39	-0.010268264
48	0x3d25eabe	0.04050707
49	0x3dc2d25b	0.09512778
50	0x3c921bdf	0.017835556
51	0xbd6e41f8	-0.05816838
52	0xbe0af41e	-0.13569686
53	0x3d392cd5	0.04520877
54	0x3cafabe1	0.021444263
55	0x3d7474ac	0.05968158
56	0xbcb50f21	-0.02210194
57	0xbd0f3d06	-0.034970306
58	0x3de4a37d	0.111639954
59	0xbdad1eee	-0.08453165

tcn.0.conv2.weight_g f4 [60, 1, 1]
0	0x3f11ea07	0.5699772
1	0x3f121ea0	0.5707798
2	0x3e7a2234	0.2442711
3	0x3ef87200	0.48524475
4	0x3efdd2ee	0.4957499
5	0x3f05573f	0.5208625
6	0x3ea5f80e	0.32415813
7	0x3f0c79f8	0.5487361
8	0x3efc10a6	0.49231452
9	0x3f193306	0.5984348
10	0x3f0bf071	0.5466376
11	0x3f0e6398	0.5562072
12	0x3ed009dd	0.40632525
13	0x3f19900c	0.59985423
14	0x3f0188dc	0.50599456
15	0x3f082de7	0.5319504
16	0x3ee56035	0.44799963
17	0x3eb8b7cf	0.36077735
18	0x3f02f347	0.5115246
19	0x3f054c60	0.52069664
20	0x3f05aea8	0.5221963
21	0x3ef65a5e	0.4811582
22	0x3f09196d	0.5355442
23	0x3f027710	0.50962925
24	0x3eee63bb	0.46560463
25	0x3ebaeb17	0.36507484
26	0x3f0aadbb	0.5417134
27	0x3f0c23bc	0.54742026
28	0x3f0d70c0	0.5525017
29	0x3f1283ce	0.5723237
30	0x3f0eb216	0.5574049
31	0x3ef2cb66	0.47420806
32	0x3f0c8993	0.5489742
33	0x3f015016	0.50512826
34	0x3f0f0a94	0.55875516
35	0x3f14c066	0.58106077
36	0x3eafe2b5	0.3435265
37	0x3ec75d8a	0.38938552
38	0x3f03f34e	0.5154313
39	0x3eff8d77	0.49912617
40	0x3f07143b	0.52765244
41	0x3e8abc62	0.2709685
42	0x3f0da12e	0.55324066
43	0x3f10be09	0.5653997
44	0x3f1049fb	0.56362885
45	0x3f03f202	0.5154115
46	0x3f077e75	0.52927333
47	0x3f0169fb	0.5055234
48	0x3ee63e0a	0.44969207
49	0x3f0cb280	0.5495987
50	0x3efade42	0.48997694
51	0x3ef444b4	0.47708666
52	0x3f06b7b5	0.52624065
53	0x3efea825	0.4973766
54	0x3f128b9f	0.57244295
55	0x3f06e91e	0.5269946
56	0x3ef5824a	0.47950965
57	0x3ef0341f	0.46914765
58	0x3f135d8a	0.57564604
59	0x3f0e8981	0.55678564

tcn.0.conv2.weight_v f4 [60, 60, 5]
0	0xbcaec18e	-0.021332528
1	0x3d6d04d0	0.057865918
2	0x3d450bb7	0.048106875
3	0x3cc2a522	0.023760382
4	0xbc9dfd93	-0.019285953
5	0x3c2ec2c6	0.010666555
6	0x3cdf53d6	0.027261656
7	0xbc9c0695	-0.019046107
8	0x3bc71e10	0.006076582
9	0x3b9fbd6f	0.004874877
10	0xbd4f2141	-0.050568823
11	0x3ca455be	0.020060416
12	0x3d2f708e	0.04283195
13	0x3ca52c9a	0.02016287
14	0xbcea69e6	-0.02861495
15	0xbcab6bd6	-0.020925444
16	0x3d2ca15e	0.04214608
17	0x3c31bb78	0.010847919
18	0xbd6c62b4	-0.057711318
19	0xbd68c57e	-0.05682897
20	0xbcf73568	-0.030176833
21	0xbb9e2fef	-0.0048274915
22	0x3b1c31be	0.002383336
23	0x3d16275b	0.036658626
24	0x3d169b0d	0.03676896
25	0xbd82ac5c	-0.06380531
26	0xbb6724f9	-0.003526984
27	0x3d21bcb2	0.039486594
28	0xbd129b7b	-0.03579281
29	0xbd311603	-0.043233883
30	0x3cc80c20	0.024419844
31	0x3d11c5d0	0.03558904
32	0x3c91b421	0.017786087
33	0xbcff1803	-0.03113938
34	0x3d1d5f2c	0.03842084
35	0xbd20ab06	-0.0392256
36	0xbcb84887	-0.022495521
37	0xbd1a3567	-0.037648585
38	0xbd4132f0	-0.04716772
39	0xbcda56b1	-0.026652666
40	0x3cc3f068	0.023918346
41	0xbce0b14a	-0.027428288
42	0x3c877fd4	0.016540445
43	0x3c5b781c	0.0133953355
44	0xbc23c189	-0.009994873
45	0xbd6f7a00	-0.058465958
46	0xbd5b1824	-0.05348982
47	0xbd663b08	-0.05620864
48	0xbc9817c6	-0.018566024
49	0x3d4239dd	0.047418464
50	0xbca35e33	-0.019942379
51	0xbd584f32	-0.0528099
52	0x3cc430b5	0.023949007
53	0xbd74baf2	-0.059748597
54	0x3cf58c03	0.02997399
55	0xbd36d600	-0.04463768
56	0xbc237b8d	-0.009978187
57	0xbd11321d	-0.035448182
58	0xbd080b60	-0.033213973
59	0xbd767d32	-0.06017799
60	0xbd1d024d	-0.038332272
61	0xbd6e817e	-0.058228962
62	0x3c182bcc	0.009287786
63	0xbd5765d5	-0.05258735
64	0x3b8bf4e4	0.0042711366
65	0x3c457b96	0.012053391
66	0xbcb82895	-0.022480289
67	0x3d406dd8	0.046979755
68	0xbc74d169	-0.014942505
69	0x3c8c9c73	0.017164445
70	0xbd27e7ff	-0.040992733
71	0x3ccb7c0a	0.02483942
72	0x3a4f35d2	0.0007904443
73	0xbd51d8cc	-0.051232144
74	0xbd6d8279	-0.057985757
75	0x3d21d977	0.03951403
76	0x3ccd6a29	0.025075035
77	0xbd78bfff	-0.060729977
78	0xbc6fe989	-0.014643081
79	0x3bdaebeb	0.0066809556
80	0x3cb3f9ed	0.02196976
81	0x3c4a12c0	0.012333572
82	0x3cba3047	0.022728099
83	0xbd0a3b5b	-0.033748012
84	0x3b6fd034	0.0036592605
85	0xbd403aba	-0.046931006
86	0x3c872f1d	0.016501958
87	0x3c4ac977	0.0123771345
88	0x3d4774e6	0.048695467
89	0x3c467be0	0.012114495
90	0x3b95d6c7	0.0045727226
91	0x3cfe3e51	0.031035574
92	0xbd735505	-0.059407253
93	0x3c2de5b7	0.01061385
94	0xbc9cdd05	-0.01914836
95	0xbc7f6b41	-0.015589536
96	0xbbd548ef	-0.0065089385
97	0xbd10a479	-0.035313103
98	0xbcff45a7	-0.031161143
99	0xbd368edf	-0.044569846
100	0x3cdc972a	0.02692755
101	0xbd6ccf7f	-0.05781507
102	0xbd1bd18b	-0.038041633
103	0xbcb2615b	-0.021774938
104	0x3d0ac9cd	0.03388386
105	0x3d66d475	0.05635496
106	0xbbf5a86d	-0.0074968846
107	0xbc219a63	-0.009863469
108	0xbd419cd5	-0.047268707
109	0xbc909240	-0.017647862
110	0xbd21385e	-0.039360397
111	0x3c85d51c	0.01633697
112	0x3b8b9669	0.0042598736
113	0x3d0a4625	0.0337583
114	0x3d129aab	0.035792034
115	0xbd36db49	-0.04464272
116	0x3c9a7aba	0.018857349
117	0x3bba5546	0.005686435
118	0xbd4967d9	-0.049171302
119	0xbc031548	-0.008000679
120	0xbd7b907d	-0.06141709
121	0xbd107e0a	-0.03527645
122	0x3cb138d2	0.02163354
123	0xbbbc615b	-0.0057489104
124	0x3d069d16	0.032864653
125	0x3ab1f4f3	0.0013577029
126	0xb9c92506	-0.00038365292
127	0xbd57b441	-0.052662138
128	0x3d21fdc4	0.03954865
129	0x3ce0f3b1	0.027459951
130	0x3d2efb5a	0.042720176
131	0xbd501580	-0.050801754
132	0x3c6cb544	0.014447514
133	0x3c71bbbb	0.014754231
134	0xbbbb9cf7	-0.005725499
135	0x3c9426ae	0.01808485
136	0xbc0f2fb2	-0.008739399
137	0x3d2cea71	0.04221577
138	0x3b7f575d	0.0038961985
139	0xbce317c2	-0.02772129
140	0x3cc47292	0.023980413
141	0xbc8676ab	-0.016414007
142	0x3c9026a0	0.017596543
143	0xbc78c81a	-0.015184427
144	0x3c4748d7	0.0121633625
145	0xbd6c8d66	-0.057752036
146	0x3cd50484	0.02600313
147	0xbbd0ed21	-0.006375924
148	0x3be55977	0.0069991904
149	0x3e0b43d5	0.13600095
150	0xbce387ce	-0.027774718
151	0x3d0ce954	0.034402207
152	0xbd1e5eb0	-0.03866452
153	0xbd64e231	-0.055879775
154	0x3c7ad572	0.015309678
155	0x3b313bcd	0.00270437
156	0x3c097b99	0.008391284
157	0x3cefc4b3	0.029268598
158	0xbc6dd8ea	-0.014517048
159	0xbca3c600	-0.019991875
160	0x3cb95a19	0.02262597
161	0xbcb4ff84	-0.022094496
162	0x3cce395f	0.025173841
163	0x3d206a6c	0.03916399
164	0xbd81706a	-0.063202694
165	0x3d1e13f9	0.038593266
166	0xbb25196b	-0.0025192152
167	0xbd5cca08	-0.05390361
168	0xbbda6f64	-0.006666111
169	0x3ca1440e	0.019685771
170	0xbc9c598f	-0.019085674
171	0x3d2a8ef6	0.041640244
172	0xbbf61fef	-0.007511131
173	0xbc7c2496	-0.015389582
174	0x3d39b28e	0.0453363
175	0xbd1b16e9	-0.037863646
176	0xbd5f751b	-0.05455504
177	0x3cb284c1	0.021791818
178	0xbd36e491	-0.04465157
179	0x3bbf035b	0.0058292574
180	0xbcabe720	-0.020984232
181	0xbd79f6e0	-0.061026454
182	0x3d0d5eab	0.03451411
183	0x3cf8489a	0.030308057
184	0x3cef36c6	0.029200923
185	0x3d0a4d13	0.03376491
186	0xbd72a62e	-0.059240513
187	0xbd02ab5a	-0.031901695
188	0xbd0ec910	-0.034859717
189	0xbb637dc2	-0.0034712409
190	0xbc5fc4c2	-0.013657751
191	0x3cc303c2	0.023805503
192	0xbd1a0947	-0.037606504
193	0x3bd038df	0.006354436
194	0xbcc42fb9	-0.023948537
195	0xbced0d67	-0.028937055
196	0xbceebb30	-0.029141992
197	0xbd834ca6	-0.06411104
198	0x3d4be7df	0.049781676
199	0xbd3c00af	-0.04589909
200	0xbbe6eb01	-0.0070470576
201	0xbb650a8a	-0.0034948909
202	0xbc907240	-0.017632604
203	0xbd78a1e6	-0.060701273
204	0xbd004992	-0.031320162
205	0x3d1bf197	0.038072195
206	0x3d361e47	0.04446247
207	0x3d524a54	0.051340416
208	0xbd0dfb7c	-0.034663662
209	0x3d34d9f2	0.04415316
210	0x3ca725b3	0.020403719
211	0x3c168db3	0.009189057
212	0xbd275e98	-0.040861696
213	0xbd36446a	-0.04449884
214	0x3bf29f31	0.007404231
215	0x3cadd8d7	0.021221561
216	0xbce6a0e5	-0.028152892
217	0x3d361014	0.044448927
218	0xbd82d99d	-0.06389163
219	0x393beac0	0.00017921161
220	0xbc7fbf75	-0.015609612
221	0xbd6d6b67	-0.057963755
222	0x3d0673db	0.032825332
223	0x3d2d25b6	0.042272292
224	0x3b83440d	0.004005915
225	0x3d0061fd	0.03134345
226	0xbd3c17f5	-0.045921285
227	0x3c5e9c71	0.013587103
228	0x3c562931	0.013071344
229	0xbc8ae8c7	-0.0169567
230	0x3c83af0e	0.016074684
231	0x3cd838d1	0.02639428
232	0xbce90e33	-0.028449154
233	0xbd33cc67	-0.043896105
234	0x3b726817	0.0036988312
235	0x3b70b018	0.0036726054
236	0xbc59c75d	-0.013292161
237	0x3be29adf	0.0069154347
238	0x3d59e5c8	0.053197652
239	0xbcc5be57	-0.024138613
240	0xbc239f40	-0.009986699
241	0xbcc815d6	-0.024424475
242	0xbd77d991	-0.060510222
243	0xbc6bfd5d	-0.014403668
244	0xbd0a8efd	-0.03382777
245	0xbd0a9849	-0.033836637
246	0xbc292e2a	-0.010325948
247	0x3c0ebc0c	0.008711826
248	0xbb99b02e	-0.0046901917
249	0xbd2bc104	-0.04193212
250	0x3ce3c075	0.027801732
251	0x3c94f25d	0.018181974
252	0x3c9c2df9	0.01906489
253	0xbccbb0bd	-0.024864549
254	0xbd5041a5	-0.050843854
255	0xbd100deb	-0.035169523

tcn.0.net.0.bias f4 [60]
0	0xbd41292f	-0.047158416
1	0x3d4763bd	0.048679102
2	0x3ca97567	0.020685865
3	0x3c27fa86	0.010252601
4	0x3d615f63	0.05502261
5	0xbc4946ad	-0.012284917
6	0x3c841381	0.016122581
7	0x3d01be70	0.031675756
8	0x3ceced2e	0.02892169
9	0x3c432e21	0.011912853
10	0x3c5f9671	0.013646708
11	0x3d8207bc	0.063491315
12	0xbd1f7aee	-0.038935594
13	0x3d1fce7f	0.03901529
14	0xbcef2625	-0.029192993
15	0x3d56ef14	0.052474096
16	0x3cfa60a3	0.030563658
17	0x3d071264	0.032976523
18	0x3d107c19	0.0352746
19	0xbc2d372c	-0.010572236
20	0xbc568b43	-0.013094726
21	0xbcab1915	-0.020885983
22	0x3d3a06f3	0.045416784
23	0x3c3c3482	0.011487128
24	0x3d89a551	0.06720985
25	0xbca8eab3	-0.020619726
26	0xbd257b70	-0.040400922
27	0x3d207460	0.039173484
28	0x3d74e05d	0.059784282
29	0x3e02c0d3	0.12768869
30	0x3d114d37	0.03547403
31	0xbcee7db5	-0.029112676
32	0xbc2fb4a3	-0.0107242195
33	0x3ca043ef	0.019563643
34	0x3d1efba4	0.038814202
35	0xbb0ff0c4	-0.0021963576
36	0x3c8e957a	0.01740526
37	0xbb88c741	-0.0041741435
38	0xbcead32c	-0.028665148
39	0x3dc5b72f	0.0965408
40	0x3cf82fe2	0.03029627
41	0x3d4d8717	0.05017766
42	0x3e0d2206	0.1378251
43	0x3cf0486f	0.029331414
44	0x3bca5dba	0.006175724
45	0x3c282cdb	0.010264601
46	0xb8ac184e	-8.206126e-05
47	0xbccc052f	-0.024904815
48	0x3cdaf655	0.026728788
49	0x3d878f16	0.06619088
50	0xbca1eb6d	-0.01976558
51	0x3b30ef56	0.0026998124
52	0x3ccafa0e	0.024777438
53	0x3cd33193	0.025780475
54	0xbc4734b6	-0.012158563
55	0x3cff6d7e	0.03118014
56	0x3d5d29b4	0.05399485
57	0xbd6beb0c	-0.057597205
58	0x3d9dc4d7	0.0770356
59	0x3c88ae59	0.016684698

tcn.0.net.0.weight_g f4 [60, 1, 1]
0	0x3f134b35	0.5753663
1	0x3f0c4502	0.547928
2	0x3f085cce	0.5326661
3	0x3f0ed543	0.5579416
4	0x3f0fa2d0	0.5610781
5	0x3f0b9ba1	0.54534346
6	0x3f0cbd14	0.5497601
7	0x3f196efa	0.5993496
8	0x3f0b2b43	0.5436289
9	0x3f0d6861	0.55237395
10	0x3f0ba8a5	0.54554206
11	0x3f10da7d	0.56583387
12	0x3f1263b6	0.57183397
13	0x3f0d3c78	0.55170393
14	0x3f1d8292	0.6152736
15	0x3f0f72bb	0.5603444
16	0x3f055416	0.5208143
17	0x3f077d11	0.5292521
18	0x3f069099	0.5256439
19	0x3f15775f	0.5838527
20	0x3f173a46	0.59073293
21	0x3f124cc3	0.5714838
22	0x3f0f6ca6	0.5602516
23	0x3f1ced33	0.6129944
24	0x3f0fafc6	0.56127584
25	0x3f094f54	0.5363667
26	0x3f086468	0.5327821
27	0x3f0ae7da	0.5426003
28	0x3f0910b7	0.5354113
29	0x3f107695	0.5643094
30	0x3f178e47	0.59201473
31	0x3f06ff37	0.52733177
32	0x3f0a86f3	0.54112166
33	0x3f10b9a0	0.5653324
34	0x3f0c31ba	0.54763377
35	0x3f10d909	0.5658117
36	0x3f0a9a62	0.5414182
37	0x3f116f9e	0.5681094
38	0x3f11f242	0.5701028
39	0x3f18934c	0.5959976
40	0x3f126eeb	0.572005
41	0x3f0d688e	0.5523766
42	0x3f0d4769	0.5518709
43	0x3f174cb1	0.59101397
44	0x3efb2c05	0.49057022
45	0x3efb1c3a	0.49044973
46	0x3f093148	0.5359082
47	0x3f07990e	0.5296792
48	0x3f17299d	0.5904787
49	0x3eff0b09	0.49813107
50	0x3f095cde	0.5365733
51	0x3f0dff53	0.5546772
52	0x3f113138	0.56715727
53	0x3f1288fc	0.5724027
54	0x3f09bdbf	0.53805155
55	0x3f088ae9	0.5333696
56	0x3f0d6a28	0.55240107
57	0x3f10ecc7	0.56611294
58	0x3f13c0d9	0.5771614
59	0x3f0eb044	0.5573771

tcn.0.net.0.weight_v f4 [60, 60, 5]
0	0x3c49ead1	0.012324051
1	0xbd250943	-0.040292036
2	0x3d3c6870	0.045998037
3	0xbd25f701	-0.040518764
4	0x3a9c2c12	0.001191499
5	0x3d3a8b8e	0.045543246
6	0xbcacad7e	-0.021078821
7	0x3d5f676b	0.054541986
8	0x3a8b3018	0.0010619191
9	0x3cf6cef4	0.03012798
10	0xbc58b0d1	-0.01322575
11	0xbcc04ba5	-0.02347357
12	0x3d2ee705	0.042700786
13	0xbcb57bf6	-0.022153836
14	0x3b9f5d19	0.004863393
15	0xbcb350bc	-0.021889083
16	0xbc960893	-0.018314635
17	0x3d2b71ca	0.041856565
18	0x3b362d31	0.0027797932
19	0x3cc3e704	0.023913868
20	0x3d1f507d	0.03889512
21	0x3cd6b4c6	0.026209246
22	0x3d6f8d67	0.05848446
23	0xbcc81f0a	-0.024428863
24	0x3d4d2119	0.050080393
25	0x3c6bc5b2	0.014390396
26	0x3c270ea8	0.010196365
27	0x3d3350a1	0.043778066
28	0xbc8301a1	-0.015991988
29	0x3c7098e3	0.0146848885
30	0xbc8aaaa4	-0.01692707
31	0x3cd09da4	0.025465794
32	0x3d244725	0.04010691
33	0x3ba25db1	0.0049550165
34	0x3cef3d38	0.029203996
35	0x3d0dbcb0	0.034603775
36	0x3c1ede88	0.00969661
37	0x3d216b2f	0.03940886
38	0x3bccd1a7	0.0062505784
39	0xbb8c1a5f	-0.0042756046
40	0x3d15676a	0.036475576
41	0xbd02de89	-0.031950507
42	0x3d3ac4ee	0.045597963
43	0xbd145cd6	-0.036221348
44	0x3cb412fc	0.021981709
45	0x3d1ae406	0.037815116
46	0xbd13cec1	-0.036085848
47	0x3d28c254	0.04120095
48	0x3c79a304	0.01523662
49	0xbcfb5310	-0.030679256
50	0xbbcf28cd	-0.0063220025
51	0xbd215851	-0.039390866
52	0x3d54847a	0.051884152
53	0xbca32279	-0.019913899
54	0x3d127b74	0.035762265
55	0xbc5cf2f7	-0.013485662
56	0xbc239830	-0.009985015
57	0x3d672081	0.056427483
58	0xbcb30adb	-0.021855762
59	0xbb8232ae	-0.0039733266
60	0x3c49b6d8	0.01231166
61	0xbc188578	-0.009309165
62	0x3d4d2397	0.05008277
63	0xbba1bf6a	-0.0049361484
64	0xbc8462e2	-0.016160432
65	0x3bc01510	0.005861886
66	0xbcc2634f	-0.023728995
67	0x3d4132d6	0.04716762
68	0xbcab189a	-0.020885754
69	0x3cc0f1cd	0.0235528
70	0x3ce51006	0.027961742
71	0x3c3dae59	0.011577212
72	0x3d1f248f	0.038853224
73	0xbc60b8d4	-0.013715941
74	0x3c2be1c9	0.010490843
75	0x3cfea5ea	0.031084973
76	0x3d053243	0.032518636
77	0x3d4d0d4f	0.05006152
78	0x3c8ab0e1	0.016930046
79	0xbd1f5df2	-0.038907953
80	0xbbb78dcb	-0.00560162
81	0x3b869715	0.004107366
82	0x3d47ecf4	0.04880996
83	0xbcd288c3	-0.025699979
84	0xbd03ba15	-0.032159884
85	0x3be1a190	0.006885715
86	0xbd0cb4bd	-0.034352053
87	0x3d1e0716	0.038580976
88	0x3c19b827	0.009382284
89	0x3b31bf65	0.0027122137
90	0x3ce272a4	0.027642556
91	0x3c7aa76c	0.015298706
92	0x3d27a50a	0.040928878
93	0x3c673ce7	0.014113641
94	0x3d057373	0.032580804
95	0xbc56219a	-0.013069535
96	0xbcce4141	-0.0251776
97	0x3d21c5c7	0.039495256
98	0xbc559b0e	-0.013037456
99	0xbd1ad88f	-0.037804183
100	0xbbb009e8	-0.0053722747
101	0x3c1846a9	0.00929419
102	0x3d21b689	0.03948072
103	0x3cecefe6	0.028922986
104	0x3d3a50cc	0.04548721
105	0x3d35c296	0.044375025
106	0x3ca7a210	0.02046302
107	0x3d21d571	0.039510194
108	0x3b493819	0.0030703603
109	0x3d1d2742	0.038367517
110	0x3ccc7ff0	0.02496335
111	0xbbd061b7	-0.0063593048
112	0x3d63bc3d	0.05559944
113	0x3b93dd05	0.0045124316
114	0x3cb87017	0.022514386
115	0x3d4d2eca	0.05009345
116	0x3cfc6415	0.030809442
117	0x3d2f42b1	0.04278821
118	0x3d1b4cab	0.037914913
119	0x3bc9fb12	0.006163963
120	0x3c7f1ce5	0.015570854
121	0xba8b1dd8	-0.0010613753
122	0x3d5724e1	0.052525405
123	0x3c098f6b	0.00839601
124	0x3a3480df	0.00068856584
125	0x3ceb7176	0.028740626
126	0xbcd4a5a9	-0.0259579
127	0x3d73cf17	0.05952367
128	0x3c5ef1b1	0.013607428
129	0xbbe07f7e	-0.0068511358
130	0x3d0579be	0.032586806
131	0xbc0010bb	-0.007816489
132	0x3d34c496	0.04413279
133	0x3c8773dc	0.016534738
134	0x3c21fe85	0.009887342
135	0xbc3670b8	-0.011135273
136	0xbcda2b25	-0.026631901
137	0x3d312daf	0.043256458
138	0xb9f77661	-0.0004719971
139	0xbcb19229	-0.02167614
140	0x3ba68d8f	0.005082793
141	0x3c8d07ef	0.017215697
142	0x3d2ffc06	0.042964958
143	0x3c29aea4	0.010356579
144	0x3d28ad7e	0.04118108
145	0xbc035c1d	-0.008017567
146	0x3c3e1f24	0.011604104
147	0x3d3be334	0.045870975
148	0xbc3946d6	-0.0113083925
149	0x3d44ce47	0.048048284
150	0xbcac781d	-0.021053368
151	0xbc7960d4	-0.0152208395
152	0x3d2ef815	0.04271706
153	0x3b5743c7	0.0032846795
154	0x3d666a63	0.056253802
155	0x3c857221	0.016289772
156	0x3cfcd5c5	0.030863652
157	0x3d6e494f	0.05817538
158	0x3ca603f3	0.020265555
159	0xbb932b7b	-0.0044912673
160	0xbc97a5eb	-0.018511733
161	0xbc709b90	-0.0146855265
162	0x3d24ee15	0.040266115
163	0x3c3d0fef	0.011539443
164	0x3d385ed2	0.045012303
165	0x3cb8643e	0.022508737
166	0x3cf9f4ac	0.030512176
167	0x3d308510	0.04309565
168	0xbbdc960b	-0.0067317537
169	0xbd08ac16	-0.03336724
170	0x3b2cbbb0	0.0026356988
171	0xbbb1be5a	-0.005424303
172	0x3d700244	0.05859591
173	0xbcaedc59	-0.021345304
174	0xbd093b88	-0.03350404
175	0x3b4facc3	0.0031688667
176	0x3cfe796a	0.031063754
177	0x3d43b50d	0.047780085
178	0x3c892364	0.016740508
179	0xbcfed8b1	-0.031109186
180	0x3ca32c43	0.019918567
181	0xbd18ca27	-0.037302162
182	0x3d2458c9	0.040123735
183	0xbcd33374	-0.02578137
184	0xbc2d2a49	-0.010569164
185	0xbc46c037	-0.0121307885
186	0xbc1c7d94	-0.0095514245
187	0x3d1e4a99	0.03864536
188	0x3c353566	0.011060094
189	0x3bb0d681	0.0053966646
190	0x3c6dd0d4	0.014515121
191	0xbc189ee6	-0.009315228
192	0x3d23e6d8	0.04001507
193	0x3c68e2ef	0.014214261
194	0xbd0ec154	-0.03485234
195	0xbc612622	-0.013742002
196	0x3c8384ec	0.016054593
197	0x3d6e3f00	0.05816555
198	0xbc5ca690	-0.013467446
199	0xbd1eb29e	-0.03874456
200	0x3c3777ba	0.011197979
201	0xbc5d49f3	-0.0135064
202	0x3d13bfaf	0.036071476
203	0x3c8694c9	0.016428368
204	0xbcdb9e8a	-0.026808996
205	0x3cb9ebee	0.022695508
206	0xbca38cb2	-0.01996455
207	0x3d47fc3d	0.048824538
208	0x3bb417c8	0.005495999
209	0x3d0b4fba	0.03401158
210	0x3d271b3c	0.040797457
211	0xbcf292f0	-0.02961108
212	0x3d402fd4	0.046920612
213	0xbcd8f99e	-0.026486214
214	0x3c9d7f00	0.019225597
215	0x3abf411c	0.0014591548
216	0x3c05eb26	0.00817374
217	0x3d19b25d	0.037523616
218	0xbb98cd21	-0.004663125
219	0xbccf636d	-0.025315965
220	0xbbac2d17	-0.0052543986
221	0x3ce56324	0.028001375
222	0x3d4c7ce8	0.049923807
223	0x3c3a3e1a	0.011367345
224	0x39d5f3ef	0.0004080827
225	0x3cea74a9	0.028620081
226	0xbcf1454b	-0.029451987
227	0x3d563ded	0.05230515
228	0x3ab51acd	0.0013817191
229	0xbd055b4f	-0.03255778
230	0x3ce9a71d	0.028522069
231	0xbcb3aff1	-0.021934481
232	0x3d1d986a	0.03847543
233	0xbcd7c13c	-0.026337259
234	0x3bfc083d	0.0076914118
235	0x3d5ad8d4	0.05342944
236	0x3cc85ebb	0.024459234
237	0x3d5b7498	0.05357799
238	0xbc281121	-0.01025799
239	0xbd040795	-0.032233793
240	0x3cd00829	0.025394516
241	0xbac0045d	-0.0014649738
242	0x3d690ba0	0.056895852
243	0xba957a90	-0.0011404324
244	0x3bc68cdf	0.0060592736
245	0x3d4887cd	0.048957635
246	0x3cea10ef	0.028572528
247	0x3d2b80be	0.041870825
248	0xbd2ea96a	-0.042642035
249	0xbca3adab	-0.019980272
250	0xbc64ec82	-0.0139724035
251	0x3d015c5c	0.03158222
252	0x3d3aa9ed	0.04557221
253	0xbd59c75c	-0.05316864
254	0xbc580e1e	-0.01318696
255	0x3b099f60	0.0020999536

tcn.0.net.4.bias f4 [60]
0	0xbc9e23b1	-0.019304128
1	0xbd6085ee	-0.054815225
2	0x3c39968b	0.011327396
3	0xbcc59616	-0.024119418
4	0x3c957c77	0.018247826
5	0x3b722d3b	0.003695323
6	0xbc6fd7b9	-0.014638835
7	0x3e09894b	0.1343128
8	0xbd5e519d	-0.05427705
9	0xbb1cd704	-0.002393187
10	0x3d8d94ea	0.06913169
11	0xbd514b47	-0.05109718
12	0x3ce9e6c3	0.028552419
13	0x3db7cd58	0.08974713
14	0xbd2e01b7	-0.042482104
15	0xbdc1191d	-0.09428618
16	0xbc07f2cb	-0.008297632
17	0xbd3c73af	-0.046008762
18	0xbd22c33e	-0.03973698
19	0xbd9eadeb	-0.07748016
20	0x3e04d7ee	0.12972996
21	0x3e1a117a	0.1504573
22	0x3ceee6e0	0.029162824
23	0xbdae7e1c	-0.08520147
24	0xbc722a23	-0.014780554
25	0xbc0df1a6	-0.0086635705
26	0x3d4a87ec	0.04944603
27	0x3b446539	0.002996756
28	0x3dc848d7	0.09779518
29	0x3c6cb70e	0.0144479405
30	0x3d365600	0.04451561
31	0xbc6d1d38	-0.014472298
32	0x3b89896f	0.0041972916
33	0xbd47cd89	-0.048779998
34	0xbd0bd030	-0.03413409
35	0x3d029d26	0.03188815
36	0x3b00814a	0.0019608312
37	0xbca18cb6	-0.019720417
38	0xbb195576	-0.0023396886
39	0xbce4f800	-0.027950287
40	0x3cf54425	0.02993972
41	0xbc1ef8e9	-0.0097028995
42	0xbdca1391	-0.09867013
43	0x3de96ad0	0.11397326
44	0xbcfd6099	-0.03092985
45	0xbd3120d1	-0.043244187
46	0x3d1fc41a	0.039005376
47	0xbc283c39	-0.010268264
48	0x3d25eabe	0.04050707
49	0x3dc2d25b	0.09512778
50	0x3c921bdf	0.017835556
51	0xbd6e41f8	-0.05816838
52	0xbe0af41e	-0.13569686
53	0x3d392cd5	0.04520877
54	0x3cafabe1	0.021444263
55	0x3d7474ac	0.05968158
56	0xbcb50f21	-0.02210194
57	0xbd0f3d06	-0.034970306
58	0x3de4a37d	0.111639954
59	0xbdad1eee	-0.08453165

tcn.0.net.4.weight_g f4 [60, 1, 1]
0	0x3f11ea07	0.5699772
1	0x3f121ea0	0.5707798
2	0x3e7a2234	0.2442711
3	0x3ef87200	0.48524475
4	0x3efdd2ee	0.4957499
5	0x3f05573f	0.5208625
6	0x3ea5f80e	0.32415813
7	0x3f0c79f8	0.5487361
8	0x3efc10a6	0.49231452
9	0x3f193306	0.5984348
10	0x3f0bf071	0.5466376
11	0x3f0e6398	0.5562072
12	0x3ed009dd	0.40632525
13	0x3f19900c	0.59985423
14	0x3f0188dc	0.50599456
15	0x3f082de7	0.5319504
16	0x3ee56035	0.44799963
17	0x3eb8b7cf	0.36077735
18	0x3f02f347	0.5115246
19	0x3f054c60	0.52069664
20	0x3f05aea8	0.5221963
21	0x3ef65a5e	0.4811582
22	0x3f09196d	0.5355442
23	0x3f027710	0.50962925
24	0x3eee63bb	0.46560463
25	0x3ebaeb17	0.36507484
26	0x3f0aadbb	0.5417134
27	0x3f0c23bc	0.54742026
28	0x3f0d70c0	0.5525017
29	0x3f1283ce	0.5723237
30	0x3f0eb216	0.5574049
31	0x3ef2cb66	0.47420806
32	0x3f0c8993	0.5489742
33	0x3f015016	0.50512826
34	0x3f0f0a94	0.55875516
35	0x3f14c066	0.58106077
36	0x3eafe2b5	0.3435265
37	0x3ec75d8a	0.38938552
38	0x3f03f34e	0.5154313
39	0x3eff8d77	0.49912617
40	0x3f07143b	0.52765244
41	0x3e8abc62	0.2709685
42	0x3f0da12e	0.55324066
43	0x3f10be09	0.5653997
44	0x3f1049fb	0.56362885
45	0x3f03f202	0.5154115
46	0x3f077e75	0.52927333
47	0x3f0169fb	0.5055234
48	0x3ee63e0a	0.44969207
49	0x3f0cb280	0.5495987
50	0x3efade42	0.48997694
51	0x3ef444b4	0.47708666
52	0x3f06b7b5	0.52624065
53	0x3efea825	0.4973766
54	0x3f128b9f	0.57244295
55	0x3f06e91e	0.5269946
56	0x3ef5824a	0.47950965
57	0x3ef0341f	0.46914765
58	0x3f135d8a	0.57564604
59	0x3f0e8981	0.55678564

tcn.0.net.4.weight_v f4 [60, 60, 5]
0	0xbcaec18e	-0.021332528
1	0x3d6d04d0	0.057865918
2	0x3d450bb7	0.048106875
3	0x3cc2a522	0.023760382
4	0xbc9dfd93	-0.019285953
5	0x3c2ec2c6	0.010666555
6	0x3cdf53d6	0.027261656
7	0xbc9c0695	-0.019046107
8	0x3bc71e10	0.006076582
9	0x3b9fbd6f	0.004874877
10	0xbd4f2141	-0.050568823
11	0x3ca455be	0.020060416
12	0x3d2f708e	0.04283195
13	0x3ca52c9a	0.02016287
14	0xbcea69e6	-0.02861495
15	0xbcab6bd6	-0.020925444
16	0x3d2ca15e	0.04214608
17	0x3c31bb78	0.010847919
18	0xbd6c62b4	-0.057711318
19	0xbd68c57e	-0.05682897
20	0xbcf73568	-0.030176833
21	0xbb9e2fef	-0.0048274915
22	0x3b1c31be	0.002383336
23	0x3d16275b	0.036658626
24	0x3d169b0d	0.03676896
25	0xbd82ac5c	-0.06380531
26	0xbb6724f9	-0.003526984
27	0x3d21bcb2	0.039486594
28	0xbd129b7b	-0.03579281
29	0xbd311603	-0.043233883
30	0x3cc80c20	0.024419844
31	0x3d11c5d0	0.03558904
32	0x3c91b421	0.017786087
33	0xbcff1803	-0.03113938
34	0x3d1d5f2c	0.03842084
35	0xbd20ab06	-0.0392256
36	0xbcb84887	-0.022495521
37	0xbd1a3567	-0.037648585
38	0xbd4132f0	-0.04716772
39	0xbcda56b1	-0.026652666
40	0x3cc3f068	0.023918346
41	0xbce0b14a	-0.027428288
42	0x3c877fd4	0.016540445
43	0x3c5b781c	0.0133953355
44	0xbc23c189	-0.009994873
45	0xbd6f7a00	-0.058465958
46	0xbd5b1824	-0.05348982
47	0xbd663b08	-0.05620864
48	0xbc9817c6	-0.018566024
49	0x3d4239dd	0.047418464
50	0xbca35e33	-0.019942379
51	0xbd584f32	-0.0528099
52	0x3cc430b5	0.023949007
53	0xbd74baf2	-0.059748597
54	0x3cf58c03	0.02997399
55	0xbd36d600	-0.04463768
56	0xbc237b8d	-0.009978187
57	0xbd11321d	-0.035448182
58	0xbd080b60	-0.033213973
59	0xbd767d32	-0.06017799
60	0xbd1d024d	-0.038332272
61	0xbd6e817e	-0.058228962
62	0x3c182bcc	0.009287786
63	0xbd5765d5	-0.05258735
64	0x3b8bf4e4	0.0042711366
65	0x3c457b96	0.012053391
66	0xbcb82895	-0.022480289
67	0x3d406dd8	0.046979755
68	0xbc74d169	-0.014942505
69	0x3c8c9c73	0.017164445
70	0xbd27e7ff	-0.040992733
71	0x3ccb7c0a	0.02483942
72	0x3a4f35d2	0.0007904443
73	0xbd51d8cc	-0.051232144
74	0xbd6d8279	-0.057985757
75	0x3d21d977	0.03951403
76	0x3ccd6a29	0.025075035
77	0xbd78bfff	-0.060729977
78	0xbc6fe989	-0.014643081
79	0x3bdaebeb	0.0066809556
80	0x3cb3f9ed	0.02196976
81	0x3c4a12c0	0.012333572
82	0x3cba3047	0.022728099
83	0xbd0a3b5b	-0.033748012
84	0x3b6fd034	0.0036592605
85	0xbd403aba	-0.046931006
86	0x3c872f1d	0.016501958
87	0x3c4ac977	0.0123771345
88	0x3d4774e6	0.048695467
89	0x3c467be0	0.012114495
90	0x3b95d6c7	0.0045727226
91	0x3cfe3e51	0.031035574
92	0xbd735505	-0.059407253
93	0x3c2de5b7	0.01061385
94	0xbc9cdd05	-0.01914836
95	0xbc7f6b41	-0.015589536
96	0xbbd548ef	-0.0065089385
97	0xbd10a479	-0.035313103
98	0xbcff45a7	-0.031161143
99	0xbd368edf	-0.044569846
100	0x3cdc972a	0.02692755
101	0xbd6ccf7f	-0.05781507
102	0xbd1bd18b	-0.038041633
103	0xbcb2615b	-0.021774938
104	0x3d0ac9cd	0.03388386
105	0x3d66d475	0.05635496
106	0xbbf5a86d	-0.0074968846
107	0xbc219a63	-0.009863469
108	0xbd419cd5	-0.047268707
109	0xbc909240	-0.017647862
110	0xbd21385e	-0.039360397
111	0x3c85d51c	0.01633697
112	0x3b8b9669	0.0042598736
113	0x3d0a4625	0.0337583
114	0x3d129aab	0.035792034
115	0xbd36db49	-0.04464272
116	0x3c9a7aba	0.018857349
117	0x3bba5546	0.005686435
118	0xbd4967d9	-0.049171302
119	0xbc031548	-0.008000679
120	0xbd7b907d	-0.06141709
121	0xbd107e0a	-0.03527645
122	0x3cb138d2	0.02163354
123	0xbbbc615b	-0.0057489104
124	0x3d069d16	0.032864653
125	0x3ab1f4f3	0.0013577029
126	0xb9c92506	-0.00038365292
127	0xbd57b441	-0.052662138
128	0x3d21fdc4	0.03954865
129	0x3ce0f3b1	0.027459951
130	0x3d2efb5a	0.042720176
131	0xbd501580	-0.050801754
132	0x3c6cb544	0.014447514
133	0x3c71bbbb	0.014754231
134	0xbbbb9cf7	-0.005725499
135	0x3c9426ae	0.01808485
136	0xbc0f2fb2	-0.008739399
137	0x3d2cea71	0.04221577
138	0x3b7f575d	0.0038961985
139	0xbce317c2	-0.02772129
140	0x3cc47292	0.023980413
141	0xbc8676ab	-0.016414007
142	0x3c9026a0	0.017596543
143	0xbc78c81a	-0.015184427
144	0x3c4748d7	0.0121633625
145	0xbd6c8d66	-0.057752036
146	0x3cd50484	0.02600313
147	0xbbd0ed21	-0.006375924
148	0x3be55977	0.0069991904
149	0x3e0b43d5	0.13600095
150	0xbce387ce	-0.027774718
151	0x3d0ce954	0.034402207
152	0xbd1e5eb0	-0.03866452
153	0xbd64e231	-0.055879775
154	0x3c7ad572	0.015309678
155	0x3b313bcd	0.00270437
156	0x3c097b99	0.008391284
157	0x3cefc4b3	0.029268598
158	0xbc6dd8ea	-0.014517048
159	0xbca3c600	-0.019991875
160	0x3cb95a19	0.02262597
161	0xbcb4ff84	-0.022094496
162	0x3cce395f	0.025173841
163	0x3d206a6c	0.03916399
164	0xbd81706a	-0.063202694
165	0x3d1e13f9	0.038593266
166	0xbb25196b	-0.0025192152
167	0xbd5cca08	-0.05390361
168	0xbbda6f64	-0.006666111
169	0x3ca1440e	0.019685771
170	0xbc9c598f	-0.019085674
171	0x3d2a8ef6	0.041640244
172	0xbbf61fef	-0.007511131
173	0xbc7c2496	-0.015389582
174	0x3d39b28e	0.0453363
175	0xbd1b16e9	-0.037863646
176	0xbd5f751b	-0.05455504
177	0x3cb284c1	0.021791818
178	0xbd36e491	-0.04465157
179	0x3bbf035b	0.0058292574
180	0xbcabe720	-0.020984232
181	0xbd79f6e0	-0.061026454
182	0x3d0d5eab	0.03451411
183	0x3cf8489a	0.030308057
184	0x3cef36c6	0.029200923
185	0x3d0a4d13	0.03376491
186	0xbd72a62e	-0.059240513
187	0xbd02ab5a	-0.031901695
188	0xbd0ec910	-0.034859717
189	0xbb637dc2	-0.0034712409
190	0xbc5fc4c2	-0.013657751
191	0x3cc303c2	0.023805503
192	0xbd1a0947	-0.037606504
193	0x3bd038df	0.006354436
194	0xbcc42fb9	-0.023948537
195	0xbced0d67	-0.028937055
196	0xbceebb30	-0.029141992
197	0xbd834ca6	-0.06411104
198	0x3d4be7df	0.049781676
199	0xbd3c00af	-0.04589909
200	0xbbe6eb01	-0.0070470576
201	0xbb650a8a	-0.0034948909
202	0xbc907240	-0.017632604
203	0xbd78a1e6	-0.060701273
204	0xbd004992	-0.031320162
205	0x3d1bf197	0.038072195
206	0x3d361e47	0.04446247
207	0x3d524a54	0.051340416
208	0xbd0dfb7c	-0.034663662
209	0x3d34d9f2	0.04415316
210	0x3ca725b3	0.020403719
211	0x3c168db3	0.009189057
212	0xbd275e98	-0.040861696
213	0xbd36446a	-0.04449884
214	0x3bf29f31	0.007404231
215	0x3cadd8d7	0.021221561
216	0xbce6a0e5	-0.028152892
217	0x3d361014	0.044448927
218	0xbd82d99d	-0.06389163
219	0x393beac0	0.00017921161
220	0xbc7fbf75	-0.015609612
221	0xbd6d6b67	-0.057963755
222	0x3d0673db	0.032825332
223	0x3d2d25b6	0.042272292
224	0x3b83440d	0.004005915
225	0x3d0061fd	0.03134345
226	0xbd3c17f5	-0.045921285
227	0x3c5e9c71	0.013587103
228	0x3c562931	0.013071344
229	0xbc8ae8c7	-0.0169567
230	0x3c83af0e	0.016074684
231	0x3cd838d1	0.02639428
232	0xbce90e33	-0.028449154
233	0xbd33cc67	-0.043896105
234	0x3b726817	0.0036988312
235	0x3b70b018	0.0036726054
236	0xbc59c75d	-0.013292161
237	0x3be29adf	0.0069154347
238	0x3d59e5c8	0.053197652
239	0xbcc5be57	-0.024138613
240	0xbc239f40	-0.009986699
241	0xbcc815d6	-0.024424475
242	0xbd77d991	-0.060510222
243	0xbc6bfd5d	-0.014403668
244	0xbd0a8efd	-0.03382777
245	0xbd0a9849	-0.033836637
246	0xbc292e2a	-0.010325948
247	0x3c0ebc0c	0.008711826
248	0xbb99b02e	-0.0046901917
249	0xbd2bc104	-0.04193212
250	0x3ce3c075	0.027801732
251	0x3c94f25d	0.018181974
252	0x3c9c2df9	0.01906489
253	0xbccbb0bd	-0.024864549
254	0xbd5041a5	-0.050843854
255	0xbd100deb	-0.035169523

tcn.2.conv1.bias f4 [60]
0	0xbbb18882	-0.0054178843
1	0xbb898f6d	-0.004198006
2	0xbd40a6ff	-0.04703426
3	0xbd499619	-0.04921541
4	0x3e449c4a	0.19200245
5	0x3c9e26f2	0.01930568
6	0xbc65bdfe	-0.014022348
7	0x3e09eaae	0.1346843
8	0x3d83b4ca	0.06430967
9	0xbd1e29d4	-0.03861411
10	0x3a1d9618	0.00060114404
11	0x3d408c06	0.047008537
12	0xbd104215	-0.03521927
13	0x3da9f911	0.08299459
14	0x3c4714ff	0.012151002
15	0xbd361832	-0.04445667
16	0xbbf6c3d7	-0.00753067
17	0xbcc0b0e8	-0.023521855
18	0xbd29408b	-0.04132132
19	0x3df3e28a	0.11908443
20	0xbd1230d3	-0.035691094
21	0x3d00d4da	0.03145299
22	0x3d3ddab6	0.046351157
23	0xbd359b2e	-0.044337444
24	0xbd481b04	-0.04885389
25	0xbc24c185	-0.010055904
26	0xbd01d15f	-0.031693812
27	0x3c533b00	0.012892485
28	0xb939222e	-0.00017655708
29	0x3d5c6aae	0.053812675
30	0xbd2ec6a3	-0.042669903
31	0xbc85a3c7	-0.016313447
32	0x3c8f855c	0.017519645
33	0x3b132245	0.0022450846
34	0xbd485e80	-0.048918247
35	0xbc0f6930	-0.008753106
36	0x3cb38b66	0.021917056
37	0xbcce077b	-0.025150051
38	0xbc1d921d	-0.009617356
39	0xbc111fe3	-0.0088577
40	0x3d886a38	0.066608846
41	0x3d1f428b	0.03888182
42	0xbd781a89	-0.06057218
43	0x3cdc203e	0.026870843
44	0xbd3a03c3	-0.045413744
45	0x3d0a304a	0.03373746
46	0x3d1c668a	0.038183726
47	0x3ce3b2e9	0.027795272
48	0x3d184885	0.037178535
49	0xbd485d32	-0.048917003
50	0x3d27f184	0.04100181
51	0x3d12a2fb	0.03579996
52	0x3ba5dee6	0.005061972
53	0xbc461c02	-0.0120916385
54	0x3d0b6947	0.034035947
55	0xbd38ce4e	-0.045118622
56	0x3d3f022e	0.046632938
57	0xbcac2bb6	-0.021016937
58	0x3d15046b	0.036381166
59	0xbc845217	-0.016152425

tcn.2.conv1.weight_g f4 [60, 1, 1]
0	0x3f10f983	0.56630725
1	0x3f15d666	0.5853027
2	0x3f018229	0.50589234
3	0x3f07a379	0.52983814
4	0x3edea4f8	0.43485236
5	0x3f025ea8	0.50925684
6	0x3f09ffd6	0.53906
7	0x3f0a18c3	0.53944033
8	0x3edd34ba	0.4320429
9	0x3f0f758c	0.5603874
10	0x3f0d40b3	0.5517685
11	0x3f145dc1	0.5795556
12	0x3f0f814b	0.5605666
13	0x3f0eb8d4	0.55750775
14	0x3f066c6f	0.52509207
15	0x3ef004e3	0.46878728
16	0x3f147e4e	0.58005226
17	0x3f0a922c	0.5412929
18	0x3f112550	0.5669756
19	0x3f00d811	0.5032969
20	0x3f0d8160	0.55275536
21	0x3f0fc7b7	0.56164116
22	0x3f0319eb	0.5121142
23	0x3f053b95	0.5204404
24	0x3f085aff	0.5326385
25	0x3ebeed5a	0.3729046
26	0x3eb65be6	0.35616988
27	0x3f0ae591	0.5425654
28	0x3f09f9c0	0.53896713
29	0x3f10afa0	0.5651798
30	0x3f0fee1a	0.5622269
31	0x3f0c40f3	0.54786605
32	0x3f0443c0	0.5166588
33	0x3f0faafa	0.56120265
34	0x3f0ef26c	0.55838656
35	0x3ef7102f	0.48254535
36	0x3f10e2b1	0.56595904
37	0x3f014222	0.50491536
38	0x3f0ea28c	0.55716777
39	0x3f08c3d7	0.5342383
40	0x3f09d507	0.5384068
41	0x3ee5e5fc	0.44902027
42	0x3f00f5d8	0.5037513
43	0x3eed4844	0.46344197
44	0x3f0d0e06	0.55099523
45	0x3f0c76c3	0.54868716
46	0x3f0ca70e	0.54942405
47	0x3f094da5	0.536341
48	0x3f0810a5	0.531504
49	0x3f01700c	0.50561595
50	0x3f0cb542	0.5496408
51	0x3efdca73	0.4956852
52	0x3f0e7466	0.5564636
53	0x3f07f09b	0.5310151
54	0x3f01eb55	0.50749713
55	0x3f0cd83a	0.55017436
56	0x3ecbca12	0.39802605
57	0x3f10f623	0.56625575
58	0x3f08a479	0.53375965
59	0x3f0f5e36	0.5600313

tcn.2.conv1.weight_v f4 [60, 60, 5]
0	0xbd228258	-0.039675087
1	0xbcabbd8a	-0.020964403
2	0xbc674258	-0.014114939
3	0x3cd5b92b	0.026089272
4	0xbc27fd3c	-0.010253247
5	0xbc69e125	-0.01427487
6	0xbcf0f1e4	-0.029412217
7	0x3d22e512	0.03976924
8	0x3d7a8077	0.06115767
9	0x3c829a7e	0.015942808
10	0x3c4fa05e	0.012672512
11	0x3c91c027	0.01779182
12	0xbbdb82ff	-0.0066989656
13	0xbd09ca5a	-0.033640243
14	0xbd1565d7	-0.036474075
15	0x3b2ac436	0.0026056892
16	0x3d307f64	0.04309024
17	0xbd426099	-0.047455404
18	0x3c125996	0.008932492
19	0x3cd59e76	0.026076537
20	0x3d6dab3b	0.058024626
21	0x3d530bf3	0.051525068
22	0xbc237240	-0.00997597
23	0x3cb66b2f	0.022267906
24	0xbc11fc11	-0.008910195
25	0xbcf1e697	-0.0295289
26	0x3ce0dc5f	0.027448831
27	0xbd216133	-0.039399337
28	0x3d2cf187	0.042222526
29	0xbd09ea8f	-0.033670958
30	0xbcb5d514	-0.02219633
31	0xbcba5483	-0.022745376
32	0x3ca9eb78	0.020742163
33	0xbc8ccfa9	-0.017188864
34	0xbcd37d48	-0.025816575
35	0x3d356cb5	0.044293124
36	0x3b41f20c	0.0029593734
37	0xbd2ae4b1	-0.041722003
38	0x3bf6430e	0.0075153178
39	0xbd2c1fb7	-0.042022433
40	0x3c9c2f3c	0.019065492
41	0xbc7ed274	-0.015553106
42	0x3d46a536	0.0484974
43	0x3c6edac0	0.014578521
44	0x3af6c0d7	0.0018825781
45	0x3cb7312d	0.022362316
46	0xbc161a02	-0.009161474
47	0x3d51290b	0.051064532
48	0xbc9603de	-0.01831239
49	0x3ccc9e22	0.024977747
50	0x3d49d453	0.049274754
51	0xbd30d79d	-0.043174375
52	0x3ca55c73	0.020185685
53	0xbc7c5c74	-0.015402902
54	0x3ce519ef	0.027966468
55	0x3cb182b8	0.021668777
56	0x3cb5f0a3	0.022209471
57	0xbc571410	-0.013127342
58	0x3d7d8176	0.06189104
59	0xbd02a2b4	-0.031893447
60	0xbca1bbe0	-0.019742906
61	0x3c13290d	0.008981955
62	0x3d0a1fb1	0.03372163
63	0x3cfa1aaa	0.030530293
64	0xbd0d708e	-0.03453117
65	0x3c889c16	0.01667599
66	0xbd2ca552	-0.04214985
67	0x3be7dd8e	0.007075972
68	0xbd2f4e94	-0.042799547
69	0x3bc5d380	0.0060371757
70	0x3d40da79	0.04708335
71	0x3cab740e	0.020929363
72	0xbd10e311	-0.035372797
73	0x3ced7f10	0.028991252
74	0x3d5cc5e7	0.053899672
75	0x3d094d35	0.033520896
76	0xbcc5ab33	-0.024129486
77	0x3d3de228	0.046358258
78	0x3d4973ee	0.049182825
79	0x3cf466ee	0.029834237
80	0xbc5fbd3f	-0.01365596
81	0x3d5cbfb6	0.053893767
82	0xbcace1b7	-0.021103723
83	0xbd357c6f	-0.044308122
84	0xbcb4e048	-0.022079602
85	0xbd25b379	-0.04045436
86	0xbd1d5e15	-0.0384198
87	0x3c5785f2	0.013154494
88	0x3cf2881a	0.029605914
89	0x3ce7dada	0.028302599
90	0x3cea9919	0.028637456
91	0x3c8442db	0.01614516
92	0x3cd12830	0.025531858
93	0x3d7fa5f5	0.06241413
94	0xbccd766e	-0.025080886
95	0x3d5e022b	0.054201286
96	0xbb8fa1fe	-0.0043833246
97	0xbc8d6fe9	-0.017265277
98	0x3d10b51e	0.035328977
99	0xbceb508d	-0.028724933
100	0x3d6404b3	0.055668544
101	0xbcf83194	-0.030297078
102	0xbbc3fc85	-0.0059810304
103	0x3bf3bfaa	0.0074386196
104	0xbc943cf0	-0.018095464
105	0x3d31a868	0.043373495
106	0x3d6dfc14	0.05810173
107	0x3d08bfb3	0.033385944
108	0x3d68d505	0.056843776
109	0x3d598d1e	0.053113095
110	0xbcdd8d1c	-0.027044825
111	0xbcfb7010	-0.030693084
112	0xbd41932b	-0.04725949
113	0x3d622e49	0.055219922
114	0x3cbf6207	0.023362173
115	0x3c6e068a	0.014527926
116	0x3d468737	0.048468795
117	0x3d3d2023	0.046173226
118	0x3cefa30f	0.029252557
119	0x3b997188	0.0046827234
120	0xbca975c3	-0.020686036
121	0x3d5bbe2a	0.05364815
122	0x3d6663f6	0.056247674
123	0xbc977fe6	-0.018493604
124	0x3d15b301	0.036547665
125	0xbcb5024d	-0.022095824
126	0x3cf74417	0.030183835
127	0xbd15b261	-0.03654707
128	0x3d5d9cb5	0.054104526
129	0x3d3b859f	0.045781728
130	0x3cdbc0ab	0.02682527
131	0x3c89cf0d	0.016822362
132	0x3bd91f98	0.0066260807
133	0xbd11595e	-0.035485618
134	0x3b90f371	0.0044235517
135	0x3d507583	0.050893318
136	0x3d1605cb	0.03662662
137	0xbcd4a1dc	-0.025956087
138	0xbba52577	-0.0050398665
139	0xbcb060e7	-0.021530582
140	0xbcc8e5a4	-0.024523564
141	0xbd3f2e6a	-0.046675123
142	0x3d465440	0.04842019
143	0x3c8bb18f	0.01705244
144	0xbb905a6e	-0.0044053113
145	0xbc9c5360	-0.019082725
146	0x3ce204c7	0.027590169
147	0xbc6efc9b	-0.014586593
148	0xbd4ebee0	-0.050475
149	0x3c0d92fd	0.008641002
150	0x3d5a5683	0.05330516
151	0x3cdaec4d	0.026724005
152	0x3d5d3497	0.05400523
153	0x3ca9a51c	0.020708613
154	0x3d224c36	0.03962346
155	0xbc6c4f28	-0.014423169
156	0xbd007569	-0.03136197
157	0x3d6d6670	0.05795902
158	0x3c93f6d8	0.01806204
159	0x3bb6892b	0.005570551
160	0x3d21321a	0.03935442
161	0xbcb74a45	-0.022374282
162	0x3d229eaa	0.039702095
163	0xbc7d79e0	-0.015470952
164	0x3d12fc0c	0.035884902
165	0x3d7939ec	0.060846254
166	0xbc838fef	-0.016059844
167	0xbbe02f8d	-0.006841606
168	0x3d33a5ff	0.043859478
169	0xbcf2097b	-0.029545536
170	0xbcff3c83	-0.031156784
171	0x3d26ddc5	0.04073884
172	0x3ce9e6d4	0.02855245
173	0xbcdb5b86	-0.02677704
174	0xbca5ecb1	-0.020254465
175	0xbbf0ad82	-0.0073449025
176	0xba04b65d	-0.00050625746
177	0x3d1aefaa	0.037826218
178	0x3c8dec53	0.017324602
179	0xbd4c9e5d	-0.049955714
180	0xbd0ae8bf	-0.03391337
181	0x3d201f81	0.039092544
182	0xbc983634	-0.018580534
183	0x3d73cac2	0.059519537
184	0x3d16861d	0.036748994
185	0x3d567f39	0.052367423
186	0x3cb85bd5	0.022504726
187	0xbcba3a3b	-0.022732845
188	0x3d6ef7f1	0.058341924
189	0xbcdddb6e	-0.027082171
190	0xbc7691ef	-0.015049442
191	0xbd14cac5	-0.03632619
192	0xbcdc21c1	-0.026871564
193	0x3c8af6bb	0.016963353
194	0x3d29f04f	0.04148894
195	0xbd44c068	-0.048035055
196	0x3d236137	0.039887633
197	0xbd0d9e73	-0.034574937
198	0xbcb9571d	-0.022624547
199	0x3d6b06b5	0.057379443
200	0x3d0681ec	0.032838747
201	0x3cd6f6ca	0.026240725
202	0x3cced5e3	0.025248474
203	0x3b86bbfa	0.004111764
204	0x39867a6d	0.00025649686
205	0x3d32c192	0.043641634
206	0x3c1210bf	0.008915125
207	0x3c67f510	0.014157549
208	0x3c843da0	0.016142666
209	0x3c895f32	0.016769025
210	0xbd43cd34	-0.04780312
211	0x3d2fe9c3	0.042947542
212	0xbbc37402	-0.005964757
213	0xbc8e5bd7	-0.017377777
214	0xbc8503f9	-0.016237246
215	0x3ce7c881	0.02829385
216	0x3ce1e32f	0.02757415
217	0xbd5616b4	-0.052267745
218	0xbd3b6230	-0.045747936
219	0xbd636121	-0.05551255
220	0xbcfd7c47	-0.03094305
221	0xbb6d0c90	-0.0036170818
222	0x3d454ae0	0.04816711
223	0x3ce8f73f	0.028438209
224	0x3c0a8fd9	0.0084571475
225	0x3d229533	0.03969307
226	0xbcf8a92b	-0.030354103
227	0xbd2e55eb	-0.042562407
228	0x3cb878f7	0.022518618
229	0xbcb109d3	-0.02161113
230	0x3bae2f47	0.0053156945
231	0x3a51d2ce	0.00080041296
232	0x3c0dddd7	0.008658848
233	0xbd122c04	-0.035686508
234	0xbcc815d8	-0.024424478
235	0x3b980ec8	0.004640434
236	0x3c97a8d1	0.018513115
237	0x3c3bc302	0.011460068
238	0x3d24083b	0.04004691
239	0xbbc20233	-0.0059206723
240	0x3d32a942	0.043618448
241	0xbd0eb113	-0.03483684
242	0x3c98a6b8	0.018634185
243	0x3d17458e	0.036931567
244	0x3ba294b0	0.0049615726
245	0x3c0a8972	0.008455621
246	0x3d8bb378	0.0682134
247	0xbc6c30cd	-0.014415932
248	0xbc97c937	-0.018528564
249	0x3a5c00c8	0.00083924504
250	0xbd070462	-0.032963164
251	0x3c7ec66e	0.015550239
252	0x3d603139	0.054734442
253	0xbd47e3b7	-0.04880115
254	0x3c990a92	0.018681798
255	0x3d1a5af2	0.03768439
