raisimGymTorch/raisimGymTorch/algo/ppo/student/models/2022_10_23_TCN_tanh.pth (torch, 900915 bytes, 74 tensors)

tcn.0.conv1.bias f4 [60]
000000 d5 c9 25 3b 61 69 6e 3d 72 b4 e7 3c a3 76 b7 bd
       0.0025297303 0.058205966 0.028284285 -0.08958175
000010 c2 15 23 3d bf 00 b7 3d a3 ca c6 3a 1c 76 1a be
       0.03981567 0.08935689 0.0015166592 -0.15084118
000020 6e 97 d2 3c 6f 4e 45 3d 15 2a 93 bc fb 7c ed bb
       0.025706973 0.048170503 -0.017964402 -0.007247565
000030 f7 39 f4 bd d9 02 e3 3c 31 ac 31 3e 9e 5a 04 bd
       -0.119251184 0.027711319 0.17350842 -0.03231298
000040 de 54 17 3c b9 ab 37 3d 08 14 11 bc 1f fb f1 3c
       0.0092365425 0.0448415 -0.0088548735 0.02953869
000050 b5 3a cb 3c 04 5e 40 3e d3 4d 6d 3d 5a aa 74 3e
       0.024808267 0.18785864 0.057935547 0.23893109
000060 de 3c 22 be 47 19 21 bd 16 d1 31 bd bf 4f 25 3e
       -0.15843531 -0.039330747 -0.04341229 0.16143702
000070 2d 0d eb bc a9 1c 99 3d 6d c4 00 be 55 8d 4b 3d
       -0.028692806 0.074761696 -0.1257493 0.04969533
000080 fc 54 5b 3d 20 07 37 3d 44 3c 4a 3b ca a9 c2 3d
       0.053547844 0.04468453 0.0030858675 0.09505041
000090 f2 37 f9 bb 63 5e 7e bd 4b c3 c1 3c e5 22 73 bc
       -0.007605546 -0.062101733 0.023652693 -0.0148398625
0000a0 d2 19 19 3d 16 68 1f 3d 14 ba 55 bd b6 1a 41 bd
       0.03737814 0.038917623 -0.05217941 -0.047144614
0000b0 1c 89 95 3d 00 54 94 bd 06 e9 8e bd 5c dc 4d 3d
       0.07301542 -0.07242584 -0.069780394 0.05025898
0000c0 3c 79 8f 3d cd bb 08 be 31 d0 9c 3b ac 34 bd bd
       0.070055455 -0.1335289 0.0047855605 -0.09238562
0000d0 c2 34 92 3d f2 4c 71 bd 89 3c 04 3e 17 a0 d0 bd
       0.07138969 -0.05891127 0.12913717 -0.10186785
0000e0 f9 97 c1 bd a3 36 3e 3d da 05 e5 3d d7 71 3a 3d
       -0.094528146 0.046438824 0.11182757 0.045518722

tcn.0.conv1.weight_g f4 [60, 1, 1]
000000 53 b4 0a 3f c7 5e 17 3f 72 da f7 3e f6 63 0e 3f
       0.541814 0.59128994 0.48408848 0.5562128
000010 a3 04 02 3f 4b 9f 03 3f 36 b6 e6 3e e7 dd fa 3e
       0.50788325 0.51414937 0.4506089 0.48997423
000020 18 39 05 3f 11 0d fd 3e 87 e2 14 3f 05 4a 04 3f
       0.52040243 0.4942403 0.58158153 0.51675445
000030 a8 9f 04 3f ae d7 16 3f 24 df fb 3e ef 1a 0d 3f
       0.51806116 0.5892285 0.4919368 0.5511922
000040 48 56 e9 3e 8e 9d fb 3e 4d 1f 17 3f 4d 5a fb 3e
       0.4557364 0.49143642 0.59032136 0.49092332
000050 8e 36 04 3f b2 a5 ef 3e ef 45 0d 3f 10 88 df 3e
       0.51645744 0.46806103 0.55184835 0.43658495
000060 b6 2f ff 3e 69 41 04 3f 78 e0 11 3f b3 52 01 3f
       0.49841088 0.5166231 0.5698314 0.50516814
000070 21 7b fa 3e c4 4b 07 3f 1a 22 07 3f 9f ae 05 3f
       0.48922065 0.52849984 0.5278641 0.52219576
000080 e0 db 16 3f fd ba 00 3f c0 b7 0c 3f ba 0b 0c 3f
       0.5892925 0.5028532 0.5496788 0.54705393
000090 59 c5 18 3f 6a 21 0e 3f 7a 5c 0c 3f 11 8c 10 3f
       0.5967613 0.55519736 0.5482861 0.56463724
0000a0 fd 12 10 3f 02 cf 09 3f 17 2f 11 3f 68 db 0d 3f
       0.56278974 0.53831494 0.5671248 0.5541291
0000b0 3c 90 11 3f 1e 59 10 3f 88 ae 15 3f 20 32 06 3f
       0.5686071 0.5638598 0.5846944 0.52420235
0000c0 5f f8 0d 3f 02 1c 15 3f c5 c8 0b 3f 4a e4 13 3f
       0.5545711 0.5824586 0.54603225 0.57770216
0000d0 df d4 0f 3f ae 88 09 3f 42 7c 11 3f 10 4a 14 3f
       0.5618419 0.5372418 0.5683023 0.5792551
0000e0 c7 1a 03 3f 9a a2 18 3f ac 24 00 3f 64 cf 05 3f
       0.51212734 0.5962311 0.50055957 0.5226958

tcn.0.conv1.weight_v f4 [60, 60, 5]
000000 e3 12 a1 3a e2 bf 13 bd ee 3b e3 3c 94 7e e5 bc
       0.0012288954 -0.036071666 0.027738538 -0.028014459
000010 1e d5 4f bd 11 54 66 3c 02 39 6e bd 46 54 09 3d
       -0.050740354 0.014058129 -0.058159836 0.033527635
000020 a4 8a ec bc 29 13 34 bc c8 cc 20 bd 16 7b 05 bd
       -0.028874703 -0.010990896 -0.039257795 -0.032588087
000030 98 ab ec 3c 2a ed db 3b 98 bc 4b bd 74 4d 47 bd
       0.028890416 0.006711622 -0.049740404 -0.04865785
000040 28 5d 75 bd 8c 3c 01 3d ea cd 62 bc b4 79 27 bd
       -0.059903294 0.031551883 -0.013843039 -0.04088755
000050 90 ce 2e bd ac fc d8 bc 6b b1 a7 3c 37 89 bc 3c
       -0.042677462 -0.02648767 0.020470342 0.023014648
000060 cc 86 23 bd 2c 9f 25 3b a2 f0 06 3c 35 ec 6a 3b
       -0.039923474 0.0025271876 0.008236082 0.0035846357
000070 56 68 1f bd 73 45 10 bd 20 e0 84 3a a9 10 07 bc
       -0.038917862 -0.035222482 0.0010137595 -0.008243718
000080 aa a1 30 3d 75 82 00 3d 40 6f 58 bd 78 60 8c 3c
       0.043122925 0.031374414 -0.05284047 0.017135844
000090 76 11 4e bd ea 54 71 3c 36 0b 3c bc dd 96 4b bd
       -0.05030962 0.014729718 -0.011477282 -0.04970442
0000a0 7a 4f 57 bd 48 00 5d bd 87 27 10 3d 97 ed cf 3c
       -0.05256603 -0.053955346 0.035193946 0.025381846
0000b0 cd 41 29 bd 3b ee 33 bd c3 4e 5c bd f0 1d fc 3c
       -0.04132252 -0.043928366 -0.05378605 0.030775994
0000c0 11 70 eb 3c bf e0 f6 bc 28 86 1b bd 6e c6 99 bb
       0.02873996 -0.030136464 -0.03796974 -0.004692844
0000d0 f4 ff d3 3c 7e a5 05 3d bf fc 48 bd 58 05 94 3b
       0.025878884 0.03262853 -0.049069162 0.0045172386
0000e0 9c 16 a4 bc eb 3e 9d 3c 92 dd 0d bd 03 9a 30 bd
       -0.020030312 0.01919504 -0.034635134 -0.043115627
0000f0 79 71 8e bc b9 6b 89 3a d2 bb 42 3d c1 56 ae 3b
       -0.017388092 0.0010484374 0.0475424 0.0053204005
000100 d6 ff 10 bc a4 37 b4 3b 50 51 03 bd 23 a0 41 3d
       -0.008850059 0.005499797 -0.032059968 0.04727186
000110 08 6b 01 3c b7 da c0 bb 1e 2d ce 3b a1 61 6a 3b
       0.007899053 -0.005885448 0.0062919995 0.0035763758
000120 c3 2e 2a 3d b5 d0 04 3d 58 08 ba bc 15 e4 f6 bb
       0.0415485 0.0324256 -0.022709057 -0.0075345137
000130 39 96 0b b9 03 6c 5c 3a 8e a7 fb bc 62 4c c9 bc
       -0.00013312035 0.0008408429 -0.030719545 -0.024572555
000140 73 f8 c8 3b 7b 63 67 3c e0 89 da 3c 19 70 00 bd
       0.006133133 0.014122839 0.026677072 -0.031356905
000150 44 7c 1d bc fd 8c 44 bb 44 08 2f 3b d9 d2 f2 3c
       -0.009612147 -0.0029991262 0.0026707808 0.029641556
000160 d5 6d ef bc 5b 0d a3 bc 9a 5a c1 3c de a6 08 bd
       -0.029227177 -0.01990383 0.023602773 -0.033362262
000170 1c 72 a4 3c 43 40 fa 3c 35 a6 0c bc 5a 7c 0d bc
       0.020073943 0.03054822 -0.008584549 -0.008635605
000180 6e 49 fe bc be e4 d0 3c 7b 0c 99 bc 06 1a 5c 3b
       -0.031040873 0.025499698 -0.018682709 0.0033584847
000190 9b a5 1f bc a3 a2 1f bd b4 10 db 3c 00 93 6a b9
       -0.009744073 -0.03897346 0.026741363 -0.00022370741
0001a0 61 aa b9 bb ce 08 1f 3c 31 b6 25 bd d5 58 9b 3c
       -0.0056660627 0.009706689 -0.040456954 0.018963257
0001b0 a1 5f 54 bc d7 02 b9 bc db 41 b3 3b 89 a6 0d bd
       -0.012962253 -0.022584362 0.005470497 -0.03458265
0001c0 40 b1 a6 bb 45 5c a6 3a a4 9f ba bb 6a a4 6b 3c
       -0.005087048 0.0012692293 -0.0056953 0.014382461
0001d0 f6 2d 55 3c b9 62 b5 3c b2 a7 17 39 db e3 4b bb
       0.013011446 0.022141801 0.00014462954 -0.0031111154
0001e0 d1 b7 63 bc 5c 42 dc bc 25 c8 1d 3c a6 ee ee bb
       -0.013898806 -0.026887111 0.009630238 -0.0072916327
0001f0 e2 ee 8a bc f7 fc 11 bb 2e 86 35 bd cb 9d 58 3b
       -0.016959611 -0.0022276023 -0.044317417 0.0033053036
000200 27 bd e8 3c fb 97 6a 3c cc 56 90 3c 3a 2a cc bb
       0.028410507 0.0143184615 0.017619513 -0.0062306197
000210 ac 74 91 3c 4c 6e 88 3c 87 c8 d2 3b fe 93 32 bd
       0.017755829 0.016654156 0.006432596 -0.043598168
000220 c8 af 20 bd 0e 96 07 3d 96 fe 71 bc df 9a 22 3a
       -0.039230138 0.033102088 -0.014770171 0.0006202887
000230 73 ce 8a 3b 6f 10 fd bc 4f dd 40 3d 52 78 15 bc
       0.0042360364 -0.030891625 0.047086056 -0.009122925
000240 b7 89 1f 3c 89 d0 ad 3c 72 70 03 bd 64 da d4 3c
       0.009737424 0.021217601 -0.032089658 0.025983043
000250 66 06 10 bd 40 d1 49 bc 69 c6 48 3c cb 98 3e 3c
       -0.035162352 -0.0123179555 0.012254336 0.011633108
000260 18 ce ab 3c db 55 87 bc fb 6f 5f bc f3 48 f4 bc
       0.020972297 -0.016520431 -0.013637538 -0.029819941
000270 ec db 95 3c 60 10 02 3d b4 ed 1b 3d 39 f3 23 bd
       0.018293343 0.031753898 0.03806849 -0.040026877
000280 76 1d 93 ba 60 d1 80 3c 20 8a 1b 3d 50 5a e0 bc
       -0.001122399 0.015724838 0.037973523 -0.027386814
000290 c7 3a 9b bb 6b 15 43 bd 5c 33 83 bc 3a 22 22 3d
       -0.0047372314 -0.047627848 -0.016015701 0.039583422
0002a0 bd 91 80 bb 49 57 ea bc c5 86 ac b9 b3 f5 3e 3b
       -0.0039236234 -0.028606074 -0.00032906808 0.0029138147
0002b0 0e 7a 24 3d 06 28 13 3c 7e 37 8a bb 62 e1 9b bc
       0.040155463 0.00898171 -0.004218041 -0.01902837
0002c0 63 23 e6 39 d0 9d 5f 3d 4d 4b 33 bb 51 ff a2 bc
       0.00043895384 0.05459386 -0.0027358115 -0.019897135
0002d0 1f 1a 4d bc 05 ce d4 3c c5 51 05 3d f1 b1 71 3b
       -0.012518435 0.025977144 0.032548685 0.0036879743
0002e0 ed 72 e6 bb 37 55 97 bc 47 2f a3 bb 15 a5 20 3d
       -0.007032743 -0.01847325 -0.004980001 0.039219934
0002f0 ca 0d 86 bc 14 9c 11 bd 9f cd 14 bd c4 df e4 3c
       -0.016363997 -0.03554924 -0.036328908 0.027938731
000300 c4 7f 52 3c 79 b0 a3 bc c0 1d c6 bc a6 e9 f2 bc
       0.0128478445 -0.01998161 -0.024184108 -0.029652428
000310 98 9f 15 3c 59 55 9a 3c d1 84 bc bc 9d 54 2e 3a
       0.009132288 0.018839525 -0.02301255 0.00066501816
000320 c5 fc be bc d4 3c 16 3c 87 a2 3b 3c c4 40 e2 bc
       -0.02331389 0.009169776 0.011452324 -0.027618773
000330 77 8b 1c bd e8 31 e9 bc b2 5e bf 3c 04 d1 18 3d
       -0.03821894 -0.02846618 0.023360584 0.037308708
000340 21 69 94 bc 82 f4 02 3b 5e 9e 1e 3c f5 87 d8 3c
       -0.018116536 0.0019982164 0.009681312 0.026432017
000350 bc 22 a3 3b 8c 51 a6 bc b4 2d 81 bc cb a6 ce 3c
       0.004978506 -0.020302556 -0.015768863 0.025226017
000360 30 cc b3 3c bb bf 3e 3d e8 a8 b8 3b f1 42 38 bd
       0.02194795 0.046569567 0.0056353696 -0.044985715
000370 3e e5 40 bd e1 11 1a bc 2c bf dd 3c 55 4f 60 3c
       -0.047093622 -0.009403677 0.027068697 0.013690789
000380 cf 69 f6 bb 3b 17 cf 3a 04 99 6a bc a1 75 4a 3d
       -0.0075199376 0.001579977 -0.014318708 0.049428586
000390 6d 59 1c 3d 97 4b ab 3a b5 91 40 bc 10 b4 3d bd
       0.03817122 0.0013068792 -0.011753489 -0.0463143
0003a0 65 87 00 3d ec 5d 24 3d 74 c7 e5 bc 79 26 1b bd
       0.031379122 0.040128633 -0.028049208 -0.037878487
0003b0 7e ea b8 ba b4 a1 13 3d 7c e0 1e 3d 71 3c cd bc
       -0.001410797 0.036042884 0.038788304 -0.025053235
0003c0 10 0a 5c bd 00 85 38 bd 64 73 b9 3c 72 27 11 bb
       -0.053720534 -0.045048714 0.02263803 -0.0022148755
0003d0 fc 85 4c bd b9 c9 40 bd a5 d0 88 bc fd 5e 59 3d
       -0.049932465 -0.047067378 -0.016701052 0.053069104
0003e0 aa a6 9b 3c d3 48 8e bc 33 2c 59 3b de 06 7e 3c
       0.01900037 -0.01736871 0.0033137917 0.015504567
0003f0 6b 1f 4f 3d ba db 92 3c 97 3b 49 bd 58 cc 3e bd
       0.050567072 0.01792704 -0.049129095 -0.046581596

tcn.0.conv2.bias f4 [60]
000000 ae 01 90 3d 21 a1 01 3c 64 00 47 3c fd 92 82 bd
       0.070315704 0.007911951 0.012146089 -0.06375692
000010 a8 a9 97 bc ba 52 f2 bc 5e cf 0c bc e7 58 58 3d
       -0.018513516 -0.029580463 -0.008594362 0.05281916
000020 87 75 cc bc e2 57 39 bd 51 cf ff 3c 48 a3 d7 3a
       -0.024958385 -0.045249827 0.031226786 0.001645186
000030 c8 67 1c 3d 5b 88 ba 3a a9 98 34 3d 04 e0 1f 3c
       0.03818491 0.0014231311 0.0440909 0.009757999
000040 02 04 e7 3c f9 a8 1d 3d 43 82 cb bb 00 6c b1 bc
       0.028200153 0.038491223 -0.0062105968 -0.021657944
000050 10 87 0b bd da ef 1e bd 94 38 fd bc 4d ef 62 bc
       -0.034064353 -0.03880296 -0.030910768 -0.013850999
000060 17 0d 44 bd 42 26 a5 3d 21 f3 a0 3d 63 78 4d 3d
       -0.047864046 0.08063938 0.07858873 0.050163638
000070 ce 32 dc 3a 3b 5f e1 3c 8b 52 27 3d f5 d5 c8 3c
       0.0016799809 0.02751123 0.040850203 0.024516085
000080 67 ab d1 3d 4c e5 8a 3c 29 60 20 bd 6d 04 f2 3c
       0.102377705 0.01695504 -0.039154205 0.029543126
000090 fc bf 7a bc 4c 3e a2 3d 66 2e 10 3d 20 fc 3a 3d
       -0.015304562 0.079220384 0.0352005 0.0456506
0000a0 9e cd e6 bc 42 1c a6 3c ff 68 d2 bc e7 e5 3f 3d
       -0.028174218 0.020277146 -0.025684832 0.04685011
0000b0 fc a3 52 bc 60 6f 5c bd 6f b8 10 bc 6d 33 3c bd
       -0.01285648 -0.053817153 -0.008833035 -0.04594748
0000c0 87 a7 99 3d 12 24 a6 ba b5 09 bf bb 6a 26 c3 3d
       0.075026564 -0.0012675545 -0.0058300146 0.09528811
0000d0 11 cc 92 3c 53 63 6a bb 77 7f d8 3d 9b d5 4d bd
       0.017919572 -0.0035764768 0.10571187 -0.05025254
0000e0 4b 50 83 bc ca 37 36 3d 39 83 fd bc ab df 01 bc
       -0.016029498 0.0444868 -0.03094636 -0.007926862

tcn.0.conv2.weight_g f4 [60, 1, 1]
000000 ba 44 3b 3f 8c a4 b0 3e e3 2c 80 3e 78 9b d6 3e
       0.73151743 0.3450054 0.25034246 0.41915488
000010 a1 11 f0 3e ff 1f c6 3e 01 c0 e2 3e 01 5b cf 3e
       0.4688845 0.38696286 0.44287112 0.40499118
000020 22 a5 85 3e 17 b4 9f 3e 52 bc d5 3e 4a 67 99 3e
       0.2610255 0.31192085 0.4174524 0.29961616
000030 75 72 4b 3e 9a f4 d0 3e 14 96 d1 3e a3 d4 a5 3e
       0.1986788 0.40811616 0.40934813 0.3238879
000040 b5 0a 8f 3e d8 49 5b 3e c5 95 75 3e b5 06 b6 3e
       0.27937856 0.21414888 0.23982914 0.35551992
000050 01 de e8 3e e2 3a d2 3e 5c 17 f1 3e bd 37 e7 3e
       0.45481876 0.4106055 0.47088134 0.45159712
000060 a1 4a d7 3e 90 7e b6 3e 05 af ac 3e a4 40 a8 3e
       0.42049125 0.35643435 0.3372728 0.32861817
000070 b4 8e be 3e 7a e0 c2 3e 30 44 d6 3e 87 2b bf 3e
       0.3721825 0.38061887 0.41848898 0.37337896
000080 3e 54 c9 3e 37 79 ed 3e f6 14 c3 3e 2c 29 8d 3e
       0.39322084 0.46381542 0.3810193 0.27570474
000090 27 69 aa 3e ae 84 ca 3e 14 2a b5 3e d4 42 d8 3e
       0.3328335 0.39554352 0.35383666 0.42238486
0000a0 7f c5 64 3e 35 a3 e9 3e dd 86 96 3e bf 98 b1 3e
       0.22340964 0.4563233 0.29399768 0.3468685
0000b0 f2 d2 a5 3e eb 6d d2 3e 66 a5 83 3e 25 42 c4 3e
       0.323875 0.41099486 0.25712126 0.38331714
0000c0 76 44 df 3e 3b dc 8a 3e c2 3a 32 3e ef f8 e6 3e
       0.4360692 0.27121148 0.17405227 0.45111796
0000d0 8d ee 9f 3e 9a 37 62 3e 69 11 d4 3e 45 fd 00 3f
       0.31236687 0.22091523 0.41419533 0.5038646
0000e0 39 42 d8 3e 5d e1 f9 3e cf 85 4e 3e 73 1c cb 3e
       0.42238024 0.4880475 0.20168231 0.39670143

tcn.0.conv2.weight_v f4 [60, 60, 5]
000000 0d 30 a5 3d 30 ac 45 bd 62 fc c2 3c 68 f5 e1 bc
       0.080658056 -0.048259914 0.023801986 -0.02758284
000010 4e 7d 7e 3c d8 26 04 3d 9a a6 2c bd 15 5d 91 bb
       0.015532805 0.032263607 -0.04215107 -0.004436145
000020 77 d4 e1 bc 2d da 26 bd 6d 7a 5b 3c 1d 48 25 3c
       -0.027567131 -0.040735412 0.013395888 0.010087994
000030 f7 e5 38 3d 4e fd a7 bc 2c 92 84 b9 d4 ab 6d 3d
       0.045141187 -0.020506527 -0.00025285908 0.058025196
000040 3f 58 a4 bc 07 80 34 3d ad f4 54 bd 00 39 28 bd
       -0.02006161 0.04406741 -0.051991154 -0.041069984
000050 67 b4 06 3d 62 af 29 3d ba ed 3b bd 5d 5c cc 3c
       0.03288689 0.041427024 -0.04588101 0.024946386
000060 c9 c1 7d bb b6 e4 a3 3c 7f 5b 20 bd 0e e3 9d 3c
       -0.0038720241 0.020006519 -0.039149757 0.019273307
000070 5d 70 1e 3d cf ac 07 3c 59 70 95 3b 6a de 26 ba
       0.038681377 0.008280947 0.004560512 -0.000636554
000080 ae 3b 0a bd 2e c4 03 bc 2e 99 6a 3c 33 d0 66 bd
       -0.03374832 -0.008042378 0.014318747 -0.056350898
000090 75 43 77 bc 22 f1 3e 3d 2b eb ae bc 22 d5 95 bc
       -0.015091767 0.04661668 -0.021352371 -0.018290106
0000a0 35 a5 31 3b 3a 6e 2a bd 72 91 e7 3c fc 4d 43 bc
       0.0027106528 -0.041609026 0.028267596 -0.011920448
0000b0 a2 53 2c 3d 74 df 07 3c b0 0d 87 3c e5 52 e3 3b
       0.042071946 0.0082930215 0.016486019 0.006937372
0000c0 07 9c e7 bc df 40 02 3d 21 2d 80 ba 98 e3 7d 3d
       -0.028272642 0.031800147 -0.0009779074 0.06198463
0000d0 45 35 35 3d 47 f6 31 3b 09 7c 74 3c 5f d3 94 3b
       0.044240255 0.002715485 0.01492215 0.004541799
0000e0 94 d1 20 bd 31 ef d5 bc f9 4a fd bb 33 f1 82 bd
       -0.03926237 -0.026115032 -0.0077298847 -0.06393661
0000f0 90 ab 30 bc a9 93 25 3c ab 7e 29 bd e4 69 20 bd
       -0.010783091 0.010106006 -0.041380566 -0.039163485
000100 66 41 d4 bc 5d 77 90 bc dd b9 ad bc 09 69 4c bd
       -0.02591009 -0.017635042 -0.02120679 -0.049904857
000110 1f 97 e5 bc 21 b0 35 bd b4 23 ef 3c 88 d6 62 bd
       -0.028026162 -0.044357423 0.02919183 -0.055380374
000120 d5 6b 1b bc a9 cf 03 3d e6 37 0c bc 85 c7 59 bc
       -0.009486158 0.032180462 -0.008558249 -0.013292198
000130 9f 53 7e bd 61 3d c5 bc 2d c1 77 3c c4 33 11 3d
       -0.062091466 -0.02407712 0.01512174 0.03544976
000140 43 c2 23 bd 48 72 36 3d 3b 07 0b 3c 33 94 12 bd
       -0.039980184 0.04454258 0.008485611 -0.035785865
000150 31 d8 de bc e2 4d 8d ba e8 5d 40 bd e2 a2 fc ba
       -0.027202697 -0.0010780657 -0.046964556 -0.0019274617
000160 96 33 d1 bc 98 d8 7f 3c b8 2b 91 3c 60 d8 06 3d
       -0.025537293 0.015615605 0.017721042 0.032921195
000170 48 63 27 3d 03 7f 11 bd 06 43 8b bd 5e ac 46 bd
       0.040866166 -0.03552152 -0.06799893 -0.048504226
000180 02 b1 10 3d f0 56 63 3c db 13 6e 3d 08 52 de 3c
       0.035325058 0.013875708 0.058124404 0.027138725
000190 7b 25 ce 3a 07 47 ff bc 5a 54 d8 bc bc b6 f2 bc
       0.0015727723 -0.031161798 -0.02640741 -0.02962815
0001a0 d3 50 a0 bc da a5 81 3d 36 3a b4 bc 26 66 ec 3c
       -0.01956979 0.06330462 -0.022000413 0.028857302
0001b0 3e 2e 23 bd ef b7 da 3c 4b a0 0f 3d f9 ee d3 bc
       -0.03983902 0.026699034 0.035064977 -0.025870787
0001c0 25 1c 27 bc 93 80 1c 3d 95 0a 53 3d 0f 0f 25 3d
       -0.010199581 0.038208555 0.051523764 0.040297564
0001d0 37 b6 13 bd 19 6f 20 3c 49 df e1 b9 13 60 e5 bb
       -0.036062445 0.009792113 -0.00043081705 -0.0069999783
0001e0 41 5c b3 bb f3 8b 21 bd 4a 00 d7 3c bd 67 31 bd
       -0.005473644 -0.039440107 0.026245255 -0.043311823
0001f0 bf 73 d3 bc 16 f8 22 3d ff 0d eb bc 2b 46 c3 3c
       -0.025812028 0.039787374 -0.028693197 0.02383717
000200 03 e1 40 3b ef 7d 98 3c 2f 05 0b bd a2 ba 06 3d
       0.0029430992 0.018614737 -0.03394049 0.03289283
000210 cd 41 42 3d df fe 8c 3c 04 4e 9b bd 20 15 3d 3d
       0.047426034 0.017211376 -0.0758324 0.046162724
000220 1b da ea bc 6e ad bd 3c f0 d9 bb 3c 5d 00 0f bd
       -0.028668454 0.023153987 0.02293107 -0.034912456
000230 07 6d 06 3d 2b 68 d0 bc 65 d2 af bc df eb 95 bc
       0.03281882 -0.025440296 -0.021462629 -0.018300949
000240 d9 70 d4 3c 85 1d 1c bc 8f 3b 0e 3d ab 09 0d 3d
       0.025932716 -0.009528522 0.03472477 0.03443305
000250 17 f9 ea bc 8c 5d 19 3d 01 ba 96 bd b2 6f fe bc
       -0.028683228 0.03744273 -0.07359696 -0.03105912
000260 fe 98 3a bd 90 b0 0b 3d ae ae b4 3c 38 d8 33 bd
       -0.04555606 0.03410393 0.02205595 -0.043907374
000270 5b 15 53 3c c7 be 40 bd db 19 fe 3c 30 b2 3a 3d
       0.0128835095 -0.04705694 0.031018188 0.04558009
000280 a5 05 d4 3c 35 b1 0d 3d 4a 85 83 3d a4 0d f4 3c
       0.025881598 0.034592826 0.06421907 0.02979166
000290 a2 7c 44 bd d9 34 94 bb 5b 06 7f ba 14 f7 03 bd
       -0.04797042 -0.0045229015 -0.0009728425 -0.032218054
0002a0 98 1d 43 3d 64 7c 74 3d a8 62 64 3d c4 a4 03 bc
       0.047635645 0.05968894 0.05575815 -0.008034889
0002b0 9f d3 7d 3b 90 a1 85 3c c3 e2 23 3d b1 bc 66 3a
       0.0038730872 0.01631239 0.04001118 0.0008801921
0002c0 c8 f8 68 bc 4a 43 f1 bb cc 63 72 3c fe 1c b1 3d
       -0.01421947 -0.007362758 0.014794301 0.08648108
0002d0 e6 6f 0c bd ba 90 1a 3d 54 4b 44 bd 74 6a 9a bd
       -0.034286402 0.03773568 -0.0479234 -0.075398356
0002e0 ec 36 01 bc 1e cf 3d bd bb 6b 8c 3c 12 93 c3 bc
       -0.00788663 -0.0463401 0.017141214 -0.02387384
0002f0 26 55 cd 3b e6 8e 64 bd 00 7d 69 3c 93 d3 52 3d
       0.006266254 -0.05580034 0.014250994 0.051471304
000300 74 f5 51 bd ca 91 02 3d a2 2d dd bc 18 6e 55 3d
       -0.051259473 0.031877317 -0.026999298 0.052106947
000310 bb 72 0c 3d 93 a6 15 3c 20 85 fc 3c 0a 0c 2c 3d
       0.034289103 0.009133953 0.030825198 0.04200367
000320 b5 09 48 bd 65 f1 c9 3c 9b 6d 98 bc 30 39 34 3d
       -0.048837382 0.024651239 -0.018606951 0.04399985
000330 f5 5e 0e bd 20 be 32 bc 0c 65 3a 3c 74 1b 45 3d
       -0.034758527 -0.010909587 0.0113766305 0.048121884
000340 75 7c ed 3c bc 05 9f 3c 56 04 02 bc af ff 51 bd
       0.02899001 0.019411914 -0.007935604 -0.05126923
000350 72 47 34 bd cb 70 74 3c 29 62 b8 bc 50 a7 18 bd
       -0.044013448 0.01491947 -0.022507744 -0.037268937
000360 b9 0c 24 3c a7 62 ca bc c3 fd 44 bd a5 a5 55 bd
       0.010012799 -0.024705244 -0.04809357 -0.052159924
000370 08 60 86 3d 19 84 a1 bb 64 3e 3a bb 5f 6c 83 3d
       0.06561285 -0.0049290773 -0.0028418535 0.064171545
000380 6c c7 94 3d 47 d2 6f bd fb 19 52 bd a2 ff 09 bd
       0.07264599 -0.058550145 -0.05129431 -0.033691056
000390 83 94 65 ba 4e 39 ab bc 0b 60 31 3d 42 68 ce bc
       -0.00087577867 -0.020901348 0.043304484 -0.025196198
0003a0 69 a4 60 bd f3 f3 69 bd 09 95 ad bc e3 c1 43 3a
       -0.054844294 -0.057117414 -0.02118923 0.0007467551
0003b0 49 0e ee bb 44 3f 3c 3d 2d c2 62 bd 41 48 47 bc
       -0.0072648865 0.045958772 -0.05536096 -0.012163223
0003c0 ea be 18 3d ef 4d 4b 3d 5c cb 5c 3d d3 c2 8b bd
       0.037291445 0.04963487 0.053904876 -0.06824269
0003d0 15 0a 83 3b 19 e8 22 3d ca f7 f5 bc 63 10 b3 bd
       0.0039990046 0.039772127 -0.030025382 -0.0874336
0003e0 75 b7 33 bd 9d 8c 53 3b fa d7 1f 3d 1b f9 a3 3c
       -0.04387613 0.0032279857 0.03902433 0.020016244
0003f0 d4 12 e3 bc d0 e5 11 3d 0e b9 1a 3d 3f 40 13 bd
       -0.027718939 0.035619557 0.03777414 -0.03594994

tcn.0.net.0.bias f4 [60]
000000 d5 c9 25 3b 61 69 6e 3d 72 b4 e7 3c a3 76 b7 bd
       0.0025297303 0.058205966 0.028284285 -0.08958175
000010 c2 15 23 3d bf 00 b7 3d a3 ca c6 3a 1c 76 1a be
       0.03981567 0.08935689 0.0015166592 -0.15084118
000020 6e 97 d2 3c 6f 4e 45 3d 15 2a 93 bc fb 7c ed bb
       0.025706973 0.048170503 -0.017964402 -0.007247565
000030 f7 39 f4 bd d9 02 e3 3c 31 ac 31 3e 9e 5a 04 bd
       -0.119251184 0.027711319 0.17350842 -0.03231298
000040 de 54 17 3c b9 ab 37 3d 08 14 11 bc 1f fb f1 3c
       0.0092365425 0.0448415 -0.0088548735 0.02953869
000050 b5 3a cb 3c 04 5e 40 3e d3 4d 6d 3d 5a aa 74 3e
       0.024808267 0.18785864 0.057935547 0.23893109
000060 de 3c 22 be 47 19 21 bd 16 d1 31 bd bf 4f 25 3e
       -0.15843531 -0.039330747 -0.04341229 0.16143702
000070 2d 0d eb bc a9 1c 99 3d 6d c4 00 be 55 8d 4b 3d
       -0.028692806 0.074761696 -0.1257493 0.04969533
000080 fc 54 5b 3d 20 07 37 3d 44 3c 4a 3b ca a9 c2 3d
       0.053547844 0.04468453 0.0030858675 0.09505041
000090 f2 37 f9 bb 63 5e 7e bd 4b c3 c1 3c e5 22 73 bc
       -0.007605546 -0.062101733 0.023652693 -0.0148398625
0000a0 d2 19 19 3d 16 68 1f 3d 14 ba 55 bd b6 1a 41 bd
       0.03737814 0.038917623 -0.05217941 -0.047144614
0000b0 1c 89 95 3d 00 54 94 bd 06 e9 8e bd 5c dc 4d 3d
       0.07301542 -0.07242584 -0.069780394 0.05025898
0000c0 3c 79 8f 3d cd bb 08 be 31 d0 9c 3b ac 34 bd bd
       0.070055455 -0.1335289 0.0047855605 -0.09238562
0000d0 c2 34 92 3d f2 4c 71 bd 89 3c 04 3e 17 a0 d0 bd
       0.07138969 -0.05891127 0.12913717 -0.10186785
0000e0 f9 97 c1 bd a3 36 3e 3d da 05 e5 3d d7 71 3a 3d
       -0.094528146 0.046438824 0.11182757 0.045518722

tcn.0.net.0.weight_g f4 [60, 1, 1]
000000 53 b4 0a 3f c7 5e 17 3f 72 da f7 3e f6 63 0e 3f
       0.541814 0.59128994 0.48408848 0.5562128
000010 a3 04 02 3f 4b 9f 03 3f 36 b6 e6 3e e7 dd fa 3e
       0.50788325 0.51414937 0.4506089 0.48997423
000020 18 39 05 3f 11 0d fd 3e 87 e2 14 3f 05 4a 04 3f
       0.52040243 0.4942403 0.58158153 0.51675445
000030 a8 9f 04 3f ae d7 16 3f 24 df fb 3e ef 1a 0d 3f
       0.51806116 0.5892285 0.4919368 0.5511922
000040 48 56 e9 3e 8e 9d fb 3e 4d 1f 17 3f 4d 5a fb 3e
       0.4557364 0.49143642 0.59032136 0.49092332
000050 8e 36 04 3f b2 a5 ef 3e ef 45 0d 3f 10 88 df 3e
       0.51645744 0.46806103 0.55184835 0.43658495
000060 b6 2f ff 3e 69 41 04 3f 78 e0 11 3f b3 52 01 3f
       0.49841088 0.5166231 0.5698314 0.50516814
000070 21 7b fa 3e c4 4b 07 3f 1a 22 07 3f 9f ae 05 3f
       0.48922065 0.52849984 0.5278641 0.52219576
000080 e0 db 16 3f fd ba 00 3f c0 b7 0c 3f ba 0b 0c 3f
       0.5892925 0.5028532 0.5496788 0.54705393
000090 59 c5 18 3f 6a 21 0e 3f 7a 5c 0c 3f 11 8c 10 3f
       0.5967613 0.55519736 0.5482861 0.56463724
0000a0 fd 12 10 3f 02 cf 09 3f 17 2f 11 3f 68 db 0d 3f
       0.56278974 0.53831494 0.5671248 0.5541291
0000b0 3c 90 11 3f 1e 59 10 3f 88 ae 15 3f 20 32 06 3f
       0.5686071 0.5638598 0.5846944 0.52420235
0000c0 5f f8 0d 3f 02 1c 15 3f c5 c8 0b 3f 4a e4 13 3f
       0.5545711 0.5824586 0.54603225 0.57770216
0000d0 df d4 0f 3f ae 88 09 3f 42 7c 11 3f 10 4a 14 3f
       0.5618419 0.5372418 0.5683023 0.5792551
0000e0 c7 1a 03 3f 9a a2 18 3f ac 24 00 3f 64 cf 05 3f
       0.51212734 0.5962311 0.50055957 0.5226958

tcn.0.net.0.weight_v f4 [60, 60, 5]
000000 e3 12 a1 3a e2 bf 13 bd ee 3b e3 3c 94 7e e5 bc
       0.0012288954 -0.036071666 0.027738538 -0.028014459
000010 1e d5 4f bd 11 54 66 3c 02 39 6e bd 46 54 09 3d
       -0.050740354 0.014058129 -0.058159836 0.033527635
000020 a4 8a ec bc 29 13 34 bc c8 cc 20 bd 16 7b 05 bd
       -0.028874703 -0.010990896 -0.039257795 -0.032588087
000030 98 ab ec 3c 2a ed db 3b 98 bc 4b bd 74 4d 47 bd
       0.028890416 0.006711622 -0.049740404 -0.04865785
000040 28 5d 75 bd 8c 3c 01 3d ea cd 62 bc b4 79 27 bd
       -0.059903294 0.031551883 -0.013843039 -0.04088755
000050 90 ce 2e bd ac fc d8 bc 6b b1 a7 3c 37 89 bc 3c
       -0.042677462 -0.02648767 0.020470342 0.023014648
000060 cc 86 23 bd 2c 9f 25 3b a2 f0 06 3c 35 ec 6a 3b
       -0.039923474 0.0025271876 0.008236082 0.0035846357
000070 56 68 1f bd 73 45 10 bd 20 e0 84 3a a9 10 07 bc
       -0.038917862 -0.035222482 0.0010137595 -0.008243718
000080 aa a1 30 3d 75 82 00 3d 40 6f 58 bd 78 60 8c 3c
       0.043122925 0.031374414 -0.05284047 0.017135844
000090 76 11 4e bd ea 54 71 3c 36 0b 3c bc dd 96 4b bd
       -0.05030962 0.014729718 -0.011477282 -0.04970442
0000a0 7a 4f 57 bd 48 00 5d bd 87 27 10 3d 97 ed cf 3c
       -0.05256603 -0.053955346 0.035193946 0.025381846
0000b0 cd 41 29 bd 3b ee 33 bd c3 4e 5c bd f0 1d fc 3c
       -0.04132252 -0.043928366 -0.05378605 0.030775994
0000c0 11 70 eb 3c bf e0 f6 bc 28 86 1b bd 6e c6 99 bb
       0.02873996 -0.030136464 -0.03796974 -0.004692844
0000d0 f4 ff d3 3c 7e a5 05 3d bf fc 48 bd 58 05 94 3b
       0.025878884 0.03262853 -0.049069162 0.0045172386
0000e0 9c 16 a4 bc eb 3e 9d 3c 92 dd 0d bd 03 9a 30 bd
       -0.020030312 0.01919504 -0.034635134 -0.043115627
0000f0 79 71 8e bc b9 6b 89 3a d2 bb 42 3d c1 56 ae 3b
       -0.017388092 0.0010484374 0.0475424 0.0053204005
000100 d6 ff 10 bc a4 37 b4 3b 50 51 03 bd 23 a0 41 3d
       -0.008850059 0.005499797 -0.032059968 0.04727186
000110 08 6b 01 3c b7 da c0 bb 1e 2d ce 3b a1 61 6a 3b
       0.007899053 -0.005885448 0.0062919995 0.0035763758
000120 c3 2e 2a 3d b5 d0 04 3d 58 08 ba bc 15 e4 f6 bb
       0.0415485 0.0324256 -0.022709057 -0.0075345137
000130 39 96 0b b9 03 6c 5c 3a 8e a7 fb bc 62 4c c9 bc
       -0.00013312035 0.0008408429 -0.030719545 -0.024572555
000140 73 f8 c8 3b 7b 63 67 3c e0 89 da 3c 19 70 00 bd
       0.006133133 0.014122839 0.026677072 -0.031356905
000150 44 7c 1d bc fd 8c 44 bb 44 08 2f 3b d9 d2 f2 3c
       -0.009612147 -0.0029991262 0.0026707808 0.029641556
000160 d5 6d ef bc 5b 0d a3 bc 9a 5a c1 3c de a6 08 bd
       -0.029227177 -0.01990383 0.023602773 -0.033362262
000170 1c 72 a4 3c 43 40 fa 3c 35 a6 0c bc 5a 7c 0d bc
       0.020073943 0.03054822 -0.008584549 -0.008635605
000180 6e 49 fe bc be e4 d0 3c 7b 0c 99 bc 06 1a 5c 3b
       -0.031040873 0.025499698 -0.018682709 0.0033584847
000190 9b a5 1f bc a3 a2 1f bd b4 10 db 3c 00 93 6a b9
       -0.009744073 -0.03897346 0.026741363 -0.00022370741
0001a0 61 aa b9 bb ce 08 1f 3c 31 b6 25 bd d5 58 9b 3c
       -0.0056660627 0.009706689 -0.040456954 0.018963257
0001b0 a1 5f 54 bc d7 02 b9 bc db 41 b3 3b 89 a6 0d bd
       -0.012962253 -0.022584362 0.005470497 -0.03458265
0001c0 40 b1 a6 bb 45 5c a6 3a a4 9f ba bb 6a a4 6b 3c
       -0.005087048 0.0012692293 -0.0056953 0.014382461
0001d0 f6 2d 55 3c b9 62 b5 3c b2 a7 17 39 db e3 4b bb
       0.013011446 0.022141801 0.00014462954 -0.0031111154
0001e0 d1 b7 63 bc 5c 42 dc bc 25 c8 1d 3c a6 ee ee bb
       -0.013898806 -0.026887111 0.009630238 -0.0072916327
0001f0 e2 ee 8a bc f7 fc 11 bb 2e 86 35 bd cb 9d 58 3b
       -0.016959611 -0.0022276023 -0.044317417 0.0033053036
000200 27 bd e8 3c fb 97 6a 3c cc 56 90 3c 3a 2a cc bb
       0.028410507 0.0143184615 0.017619513 -0.0062306197
000210 ac 74 91 3c 4c 6e 88 3c 87 c8 d2 3b fe 93 32 bd
       0.017755829 0.016654156 0.006432596 -0.043598168
000220 c8 af 20 bd 0e 96 07 3d 96 fe 71 bc df 9a 22 3a
       -0.039230138 0.033102088 -0.014770171 0.0006202887
000230 73 ce 8a 3b 6f 10 fd bc 4f dd 40 3d 52 78 15 bc
       0.0042360364 -0.030891625 0.047086056 -0.009122925
000240 b7 89 1f 3c 89 d0 ad 3c 72 70 03 bd 64 da d4 3c
       0.009737424 0.021217601 -0.032089658 0.025983043
000250 66 06 10 bd 40 d1 49 bc 69 c6 48 3c cb 98 3e 3c
       -0.035162352 -0.0123179555 0.012254336 0.011633108
000260 18 ce ab 3c db 55 87 bc fb 6f 5f bc f3 48 f4 bc
       0.020972297 -0.016520431 -0.013637538 -0.029819941
000270 ec db 95 3c 60 10 02 3d b4 ed 1b 3d 39 f3 23 bd
       0.018293343 0.031753898 0.03806849 -0.040026877
000280 76 1d 93 ba 60 d1 80 3c 20 8a 1b 3d 50 5a e0 bc
       -0.001122399 0.015724838 0.037973523 -0.027386814
000290 c7 3a 9b bb 6b 15 43 bd 5c 33 83 bc 3a 22 22 3d
       -0.0047372314 -0.047627848 -0.016015701 0.039583422
0002a0 bd 91 80 bb 49 57 ea bc c5 86 ac b9 b3 f5 3e 3b
       -0.0039236234 -0.028606074 -0.00032906808 0.0029138147
0002b0 0e 7a 24 3d 06 28 13 3c 7e 37 8a bb 62 e1 9b bc
       0.040155463 0.00898171 -0.004218041 -0.01902837
0002c0 63 23 e6 39 d0 9d 5f 3d 4d 4b 33 bb 51 ff a2 bc
       0.00043895384 0.05459386 -0.0027358115 -0.019897135
0002d0 1f 1a 4d bc 05 ce d4 3c c5 51 05 3d f1 b1 71 3b
       -0.012518435 0.025977144 0.032548685 0.0036879743
0002e0 ed 72 e6 bb 37 55 97 bc 47 2f a3 bb 15 a5 20 3d
       -0.007032743 -0.01847325 -0.004980001 0.039219934
0002f0 ca 0d 86 bc 14 9c 11 bd 9f cd 14 bd c4 df e4 3c
       -0.016363997 -0.03554924 -0.036328908 0.027938731
000300 c4 7f 52 3c 79 b0 a3 bc c0 1d c6 bc a6 e9 f2 bc
       0.0128478445 -0.01998161 -0.024184108 -0.029652428
000310 98 9f 15 3c 59 55 9a 3c d1 84 bc bc 9d 54 2e 3a
       0.009132288 0.018839525 -0.02301255 0.00066501816
000320 c5 fc be bc d4 3c 16 3c 87 a2 3b 3c c4 40 e2 bc
       -0.02331389 0.009169776 0.011452324 -0.027618773
000330 77 8b 1c bd e8 31 e9 bc b2 5e bf 3c 04 d1 18 3d
       -0.03821894 -0.02846618 0.023360584 0.037308708
000340 21 69 94 bc 82 f4 02 3b 5e 9e 1e 3c f5 87 d8 3c
       -0.018116536 0.0019982164 0.009681312 0.026432017
000350 bc 22 a3 3b 8c 51 a6 bc b4 2d 81 bc cb a6 ce 3c
       0.004978506 -0.020302556 -0.015768863 0.025226017
000360 30 cc b3 3c bb bf 3e 3d e8 a8 b8 3b f1 42 38 bd
       0.02194795 0.046569567 0.0056353696 -0.044985715
000370 3e e5 40 bd e1 11 1a bc 2c bf dd 3c 55 4f 60 3c
       -0.047093622 -0.009403677 0.027068697 0.013690789
000380 cf 69 f6 bb 3b 17 cf 3a 04 99 6a bc a1 75 4a 3d
       -0.0075199376 0.001579977 -0.014318708 0.049428586
000390 6d 59 1c 3d 97 4b ab 3a b5 91 40 bc 10 b4 3d bd
       0.03817122 0.0013068792 -0.011753489 -0.0463143
0003a0 65 87 00 3d ec 5d 24 3d 74 c7 e5 bc 79 26 1b bd
       0.031379122 0.040128633 -0.028049208 -0.037878487
0003b0 7e ea b8 ba b4 a1 13 3d 7c e0 1e 3d 71 3c cd bc
       -0.001410797 0.036042884 0.038788304 -0.025053235
0003c0 10 0a 5c bd 00 85 38 bd 64 73 b9 3c 72 27 11 bb
       -0.053720534 -0.045048714 0.02263803 -0.0022148755
0003d0 fc 85 4c bd b9 c9 40 bd a5 d0 88 bc fd 5e 59 3d
       -0.049932465 -0.047067378 -0.016701052 0.053069104
0003e0 aa a6 9b 3c d3 48 8e bc 33 2c 59 3b de 06 7e 3c
       0.01900037 -0.01736871 0.0033137917 0.015504567
0003f0 6b 1f 4f 3d ba db 92 3c 97 3b 49 bd 58 cc 3e bd
       0.050567072 0.01792704 -0.049129095 -0.046581596

tcn.0.net.4.bias f4 [60]
000000 ae 01 90 3d 21 a1 01 3c 64 00 47 3c fd 92 82 bd
       0.070315704 0.007911951 0.012146089 -0.06375692
000010 a8 a9 97 bc ba 52 f2 bc 5e cf 0c bc e7 58 58 3d
       -0.018513516 -0.029580463 -0.008594362 0.05281916
000020 87 75 cc bc e2 57 39 bd 51 cf ff 3c 48 a3 d7 3a
       -0.024958385 -0.045249827 0.031226786 0.001645186
000030 c8 67 1c 3d 5b 88 ba 3a a9 98 34 3d 04 e0 1f 3c
       0.03818491 0.0014231311 0.0440909 0.009757999
000040 02 04 e7 3c f9 a8 1d 3d 43 82 cb bb 00 6c b1 bc
       0.028200153 0.038491223 -0.0062105968 -0.021657944
000050 10 87 0b bd da ef 1e bd 94 38 fd bc 4d ef 62 bc
       -0.034064353 -0.03880296 -0.030910768 -0.013850999
000060 17 0d 44 bd 42 26 a5 3d 21 f3 a0 3d 63 78 4d 3d
       -0.047864046 0.08063938 0.07858873 0.050163638
000070 ce 32 dc 3a 3b 5f e1 3c 8b 52 27 3d f5 d5 c8 3c
       0.0016799809 0.02751123 0.040850203 0.024516085
000080 67 ab d1 3d 4c e5 8a 3c 29 60 20 bd 6d 04 f2 3c
       0.102377705 0.01695504 -0.039154205 0.029543126
000090 fc bf 7a bc 4c 3e a2 3d 66 2e 10 3d 20 fc 3a 3d
       -0.015304562 0.079220384 0.0352005 0.0456506
0000a0 9e cd e6 bc 42 1c a6 3c ff 68 d2 bc e7 e5 3f 3d
       -0.028174218 0.020277146 -0.025684832 0.04685011
0000b0 fc a3 52 bc 60 6f 5c bd 6f b8 10 bc 6d 33 3c bd
       -0.01285648 -0.053817153 -0.008833035 -0.04594748
0000c0 87 a7 99 3d 12 24 a6 ba b5 09 bf bb 6a 26 c3 3d
       0.075026564 -0.0012675545 -0.0058300146 0.09528811
0000d0 11 cc 92 3c 53 63 6a bb 77 7f d8 3d 9b d5 4d bd
       0.017919572 -0.0035764768 0.10571187 -0.05025254
0000e0 4b 50 83 bc ca 37 36 3d 39 83 fd bc ab df 01 bc
       -0.016029498 0.0444868 -0.03094636 -0.007926862

tcn.0.net.4.weight_g f4 [60, 1, 1]
000000 ba 44 3b 3f 8c a4 b0 3e e3 2c 80 3e 78 9b d6 3e
       0.73151743 0.3450054 0.25034246 0.41915488
000010 a1 11 f0 3e ff 1f c6 3e 01 c0 e2 3e 01 5b cf 3e
       0.4688845 0.38696286 0.44287112 0.40499118
000020 22 a5 85 3e 17 b4 9f 3e 52 bc d5 3e 4a 67 99 3e
       0.2610255 0.31192085 0.4174524 0.29961616
000030 75 72 4b 3e 9a f4 d0 3e 14 96 d1 3e a3 d4 a5 3e
       0.1986788 0.40811616 0.40934813 0.3238879
000040 b5 0a 8f 3e d8 49 5b 3e c5 95 75 3e b5 06 b6 3e
       0.27937856 0.21414888 0.23982914 0.35551992
000050 01 de e8 3e e2 3a d2 3e 5c 17 f1 3e bd 37 e7 3e
       0.45481876 0.4106055 0.47088134 0.45159712
000060 a1 4a d7 3e 90 7e b6 3e 05 af ac 3e a4 40 a8 3e
       0.42049125 0.35643435 0.3372728 0.32861817
000070 b4 8e be 3e 7a e0 c2 3e 30 44 d6 3e 87 2b bf 3e
       0.3721825 0.38061887 0.41848898 0.37337896
000080 3e 54 c9 3e 37 79 ed 3e f6 14 c3 3e 2c 29 8d 3e
       0.39322084 0.46381542 0.3810193 0.27570474
000090 27 69 aa 3e ae 84 ca 3e 14 2a b5 3e d4 42 d8 3e
       0.3328335 0.39554352 0.35383666 0.42238486
0000a0 7f c5 64 3e 35 a3 e9 3e dd 86 96 3e bf 98 b1 3e
       0.22340964 0.4563233 0.29399768 0.3468685
0000b0 f2 d2 a5 3e eb 6d d2 3e 66 a5 83 3e 25 42 c4 3e
       0.323875 0.41099486 0.25712126 0.38331714
0000c0 76 44 df 3e 3b dc 8a 3e c2 3a 32 3e ef f8 e6 3e
       0.4360692 0.27121148 0.17405227 0.45111796
0000d0 8d ee 9f 3e 9a 37 62 3e 69 11 d4 3e 45 fd 00 3f
       0.31236687 0.22091523 0.41419533 0.5038646
0000e0 39 42 d8 3e 5d e1 f9 3e cf 85 4e 3e 73 1c cb 3e
       0.42238024 0.4880475 0.20168231 0.39670143

tcn.0.net.4.weight_v f4 [60, 60, 5]
000000 0d 30 a5 3d 30 ac 45 bd 62 fc c2 3c 68 f5 e1 bc
       0.080658056 -0.048259914 0.023801986 -0.02758284
000010 4e 7d 7e 3c d8 26 04 3d 9a a6 2c bd 15 5d 91 bb
       0.015532805 0.032263607 -0.04215107 -0.004436145
000020 77 d4 e1 bc 2d da 26 bd 6d 7a 5b 3c 1d 48 25 3c
       -0.027567131 -0.040735412 0.013395888 0.010087994
000030 f7 e5 38 3d 4e fd a7 bc 2c 92 84 b9 d4 ab 6d 3d
       0.045141187 -0.020506527 -0.00025285908 0.058025196
000040 3f 58 a4 bc 07 80 34 3d ad f4 54 bd 00 39 28 bd
       -0.02006161 0.04406741 -0.051991154 -0.041069984
000050 67 b4 06 3d 62 af 29 3d ba ed 3b bd 5d 5c cc 3c
       0.03288689 0.041427024 -0.04588101 0.024946386
000060 c9 c1 7d bb b6 e4 a3 3c 7f 5b 20 bd 0e e3 9d 3c
       -0.0038720241 0.020006519 -0.039149757 0.019273307
000070 5d 70 1e 3d cf ac 07 3c 59 70 95 3b 6a de 26 ba
       0.038681377 0.008280947 0.004560512 -0.000636554
000080 ae 3b 0a bd 2e c4 03 bc 2e 99 6a 3c 33 d0 66 bd
       -0.03374832 -0.008042378 0.014318747 -0.056350898
000090 75 43 77 bc 22 f1 3e 3d 2b eb ae bc 22 d5 95 bc
       -0.015091767 0.04661668 -0.021352371 -0.018290106
0000a0 35 a5 31 3b 3a 6e 2a bd 72 91 e7 3c fc 4d 43 bc
       0.0027106528 -0.041609026 0.028267596 -0.011920448
0000b0 a2 53 2c 3d 74 df 07 3c b0 0d 87 3c e5 52 e3 3b
       0.042071946 0.0082930215 0.016486019 0.006937372
0000c0 07 9c e7 bc df 40 02 3d 21 2d 80 ba 98 e3 7d 3d
       -0.028272642 0.031800147 -0.0009779074 0.06198463
0000d0 45 35 35 3d 47 f6 31 3b 09 7c 74 3c 5f d3 94 3b
       0.044240255 0.002715485 0.01492215 0.004541799
0000e0 94 d1 20 bd 31 ef d5 bc f9 4a fd bb 33 f1 82 bd
       -0.03926237 -0.026115032 -0.0077298847 -0.06393661
0000f0 90 ab 30 bc a9 93 25 3c ab 7e 29 bd e4 69 20 bd
       -0.010783091 0.010106006 -0.041380566 -0.039163485
000100 66 41 d4 bc 5d 77 90 bc dd b9 ad bc 09 69 4c bd
       -0.02591009 -0.017635042 -0.02120679 -0.049904857
000110 1f 97 e5 bc 21 b0 35 bd b4 23 ef 3c 88 d6 62 bd
       -0.028026162 -0.044357423 0.02919183 -0.055380374
000120 d5 6b 1b bc a9 cf 03 3d e6 37 0c bc 85 c7 59 bc
       -0.009486158 0.032180462 -0.008558249 -0.013292198
000130 9f 53 7e bd 61 3d c5 bc 2d c1 77 3c c4 33 11 3d
       -0.062091466 -0.02407712 0.01512174 0.03544976
000140 43 c2 23 bd 48 72 36 3d 3b 07 0b 3c 33 94 12 bd
       -0.039980184 0.04454258 0.008485611 -0.035785865
000150 31 d8 de bc e2 4d 8d ba e8 5d 40 bd e2 a2 fc ba
       -0.027202697 -0.0010780657 -0.046964556 -0.0019274617
000160 96 33 d1 bc 98 d8 7f 3c b8 2b 91 3c 60 d8 06 3d
       -0.025537293 0.015615605 0.017721042 0.032921195
000170 48 63 27 3d 03 7f 11 bd 06 43 8b bd 5e ac 46 bd
       0.040866166 -0.03552152 -0.06799893 -0.048504226
000180 02 b1 10 3d f0 56 63 3c db 13 6e 3d 08 52 de 3c
       0.035325058 0.013875708 0.058124404 0.027138725
000190 7b 25 ce 3a 07 47 ff bc 5a 54 d8 bc bc b6 f2 bc
       0.0015727723 -0.031161798 -0.02640741 -0.02962815
0001a0 d3 50 a0 bc da a5 81 3d 36 3a b4 bc 26 66 ec 3c
       -0.01956979 0.06330462 -0.022000413 0.028857302
0001b0 3e 2e 23 bd ef b7 da 3c 4b a0 0f 3d f9 ee d3 bc
       -0.03983902 0.026699034 0.035064977 -0.025870787
0001c0 25 1c 27 bc 93 80 1c 3d 95 0a 53 3d 0f 0f 25 3d
       -0.010199581 0.038208555 0.051523764 0.040297564
0001d0 37 b6 13 bd 19 6f 20 3c 49 df e1 b9 13 60 e5 bb
       -0.036062445 0.009792113 -0.00043081705 -0.0069999783
0001e0 41 5c b3 bb f3 8b 21 bd 4a 00 d7 3c bd 67 31 bd
       -0.005473644 -0.039440107 0.026245255 -0.043311823
0001f0 bf 73 d3 bc 16 f8 22 3d ff 0d eb bc 2b 46 c3 3c
       -0.025812028 0.039787374 -0.028693197 0.02383717
000200 03 e1 40 3b ef 7d 98 3c 2f 05 0b bd a2 ba 06 3d
       0.0029430992 0.018614737 -0.03394049 0.03289283
000210 cd 41 42 3d df fe 8c 3c 04 4e 9b bd 20 15 3d 3d
       0.047426034 0.017211376 -0.0758324 0.046162724
000220 1b da ea bc 6e ad bd 3c f0 d9 bb 3c 5d 00 0f bd
       -0.028668454 0.023153987 0.02293107 -0.034912456
000230 07 6d 06 3d 2b 68 d0 bc 65 d2 af bc df eb 95 bc
       0.03281882 -0.025440296 -0.021462629 -0.018300949
000240 d9 70 d4 3c 85 1d 1c bc 8f 3b 0e 3d ab 09 0d 3d
       0.025932716 -0.009528522 0.03472477 0.03443305
000250 17 f9 ea bc 8c 5d 19 3d 01 ba 96 bd b2 6f fe bc
       -0.028683228 0.03744273 -0.07359696 -0.03105912
000260 fe 98 3a bd 90 b0 0b 3d ae ae b4 3c 38 d8 33 bd
       -0.04555606 0.03410393 0.02205595 -0.043907374
000270 5b 15 53 3c c7 be 40 bd db 19 fe 3c 30 b2 3a 3d
       0.0128835095 -0.04705694 0.031018188 0.04558009
000280 a5 05 d4 3c 35 b1 0d 3d 4a 85 83 3d a4 0d f4 3c
       0.025881598 0.034592826 0.06421907 0.02979166
000290 a2 7c 44 bd d9 34 94 bb 5b 06 7f ba 14 f7 03 bd
       -0.04797042 -0.0045229015 -0.0009728425 -0.032218054
0002a0 98 1d 43 3d 64 7c 74 3d a8 62 64 3d c4 a4 03 bc
       0.047635645 0.05968894 0.05575815 -0.008034889
0002b0 9f d3 7d 3b 90 a1 85 3c c3 e2 23 3d b1 bc 66 3a
       0.0038730872 0.01631239 0.04001118 0.0008801921
0002c0 c8 f8 68 bc 4a 43 f1 bb cc 63 72 3c fe 1c b1 3d
       -0.01421947 -0.007362758 0.014794301 0.08648108
0002d0 e6 6f 0c bd ba 90 1a 3d 54 4b 44 bd 74 6a 9a bd
       -0.034286402 0.03773568 -0.0479234 -0.075398356
0002e0 ec 36 01 bc 1e cf 3d bd bb 6b 8c 3c 12 93 c3 bc
       -0.00788663 -0.0463401 0.017141214 -0.02387384
0002f0 26 55 cd 3b e6 8e 64 bd 00 7d 69 3c 93 d3 52 3d
       0.006266254 -0.05580034 0.014250994 0.051471304
000300 74 f5 51 bd ca 91 02 3d a2 2d dd bc 18 6e 55 3d
       -0.051259473 0.031877317 -0.026999298 0.052106947
000310 bb 72 0c 3d 93 a6 15 3c 20 85 fc 3c 0a 0c 2c 3d
       0.034289103 0.009133953 0.030825198 0.04200367
000320 b5 09 48 bd 65 f1 c9 3c 9b 6d 98 bc 30 39 34 3d
       -0.048837382 0.024651239 -0.018606951 0.04399985
000330 f5 5e 0e bd 20 be 32 bc 0c 65 3a 3c 74 1b 45 3d
       -0.034758527 -0.010909587 0.0113766305 0.048121884
000340 75 7c ed 3c bc 05 9f 3c 56 04 02 bc af ff 51 bd
       0.02899001 0.019411914 -0.007935604 -0.05126923
000350 72 47 34 bd cb 70 74 3c 29 62 b8 bc 50 a7 18 bd
       -0.044013448 0.01491947 -0.022507744 -0.037268937
000360 b9 0c 24 3c a7 62 ca bc c3 fd 44 bd a5 a5 55 bd
       0.010012799 -0.024705244 -0.04809357 -0.052159924
000370 08 60 86 3d 19 84 a1 bb 64 3e 3a bb 5f 6c 83 3d
       0.06561285 -0.0049290773 -0.0028418535 0.064171545
000380 6c c7 94 3d 47 d2 6f bd fb 19 52 bd a2 ff 09 bd
       0.07264599 -0.058550145 -0.05129431 -0.033691056
000390 83 94 65 ba 4e 39 ab bc 0b 60 31 3d 42 68 ce bc
       -0.00087577867 -0.020901348 0.043304484 -0.025196198
0003a0 69 a4 60 bd f3 f3 69 bd 09 95 ad bc e3 c1 43 3a
       -0.054844294 -0.057117414 -0.02118923 0.0007467551
0003b0 49 0e ee bb 44 3f 3c 3d 2d c2 62 bd 41 48 47 bc
       -0.0072648865 0.045958772 -0.05536096 -0.012163223
0003c0 ea be 18 3d ef 4d 4b 3d 5c cb 5c 3d d3 c2 8b bd
       0.037291445 0.04963487 0.053904876 -0.06824269
0003d0 15 0a 83 3b 19 e8 22 3d ca f7 f5 bc 63 10 b3 bd
       0.0039990046 0.039772127 -0.030025382 -0.0874336
0003e0 75 b7 33 bd 9d 8c 53 3b fa d7 1f 3d 1b f9 a3 3c
       -0.04387613 0.0032279857 0.03902433 0.020016244
0003f0 d4 12 e3 bc d0 e5 11 3d 0e b9 1a 3d 3f 40 13 bd
       -0.027718939 0.035619557 0.03777414 -0.03594994

tcn.2.conv1.bias f4 [60]
000000 e5 a3 da 3c 7f 9d 9b bc 7e 67 33 3d 41 a8 8a 3d
       0.02668948 -0.018995998 0.04379987 0.06770373
000010 76 21 69 bc 99 ab 38 bd ea dc a3 3c 0b 80 63 3d
       -0.014229169 -0.045085523 0.020002801 0.055542033
000020 84 29 6b 3d bd 79 23 bc b0 30 34 bc 75 f5 07 bd
       0.05741264 -0.009977755 -0.010997936 -0.03319307
000030 78 86 13 bd 16 7a ba ba 5c 1b d5 3c bd eb 3d bc
       -0.03601691 -0.0014227058 0.026014023 -0.011591849
000040 9a f2 99 bc 6c 7b ab bc 3e 72 52 3d a5 57 7c 3d
       -0.01879244 -0.020932876 0.05137848 0.06160702
000050 6d 45 04 3e e5 77 c9 bc 75 7c 44 bc 67 a0 ba 3c
       0.12917109 -0.024593303 -0.0119925635 0.022781564
000060 4d d2 61 bd aa 03 98 3c 39 88 ef bc 44 3b 59 bc
       -0.0551322 0.018556435 -0.02923976 -0.013258759
000070 f5 0e fa 3d 88 b7 cf 3d 18 02 1a bd 4c ee 01 3d
       0.12209884 0.10142428 -0.037599653 0.0317214
000080 6f 59 ad bc 55 48 f8 3c 75 24 fa 3c a1 41 aa b9
       -0.02116081 0.030307928 0.030534962 -0.00032473824
000090 25 41 c2 3b 1d a0 ed bb bd 53 ac 3c b8 9a 8b 3d
       0.005928176 -0.007251753 0.021036023 0.0681662
0000a0 ee 82 00 3d 4c a5 89 ba 4c d0 d0 3c 82 e5 89 3c
       0.031374864 -0.0010501533 0.025489949 0.01683307
0000b0 e5 78 a2 3c 4c b2 2a bc e6 8b cb 3c ae 34 a7 3c
       0.019833038 -0.010418486 0.024846982 0.020410862
0000c0 75 d0 00 3d bb 73 b9 bc 6b ec 2f 3d 68 4c e4 bb
       0.0314488 -0.022638192 0.042950075 -0.006967116
0000d0 2d dd d8 3a 85 f1 b6 3b bd 35 0c bd 4f 2d 11 3d
       0.0016545408 0.0055829906 -0.034230936 0.0354436
0000e0 c7 58 eb 3c 2e 24 2e 3e 8e 1f 5e 3d e8 86 9e bc
       0.028728856 0.17005989 0.05422931 -0.019351438

tcn.2.conv1.weight_g f4 [60, 1, 1]
000000 47 89 b7 3e cd 3e ba 3e 4e 5c 4f 3e 1f 38 ee 3e
       0.35846922 0.36376038 0.20250055 0.46527192
000010 d2 36 ab 3e 57 7c 9d 3e 73 e9 b8 3e 9b f3 ac 3e
       0.33440262 0.30758926 0.36115608 0.33779606
000020 12 ce ba 3e f0 1a c9 3e 84 fa 73 3e 10 1f 86 3e
       0.36485344 0.39278364 0.23826033 0.26195574
000030 65 1e c8 3e c9 6b db 3e 9b 10 bb 3e 49 b5 67 3e
       0.3908569 0.4285567 0.36536106 0.22627749
000040 70 89 ca 3e 30 3f 8d 3e 46 e4 b7 3e d4 ad cb 3e
       0.39557981 0.2758727 0.35916346 0.39781058
000050 4b f8 e3 3e 2a 26 a2 3e 21 7d 97 3e a6 25 a4 3e
       0.4452537 0.31669742 0.29587653 0.32059973
000060 bd 0a e9 3e fd 16 c3 3e ac ce 8d 3e af 82 b0 3e
       0.45516005 0.38103476 0.2769674 0.34474704
000070 03 c3 e6 3e ae 51 c1 3e 63 3f 9d 3e 86 63 dd 3e
       0.45070657 0.3775763 0.30712423 0.43239993
000080 5c 20 ed 3e 92 cc f0 3e 66 84 9c 3e 2e 28 b9 3e
       0.4631375 0.47031075 0.30569762 0.36163467
000090 5f 7b c5 3e a7 bf a6 3e f6 fa fe 3e 4e 75 f5 3e
       0.38570687 0.32568094 0.49800843 0.4794106
0000a0 ea 3c 5b 3e b8 9b e7 3e a6 6e d6 3e 18 06 c5 3e
       0.21409956 0.4523599 0.41881293 0.38481212
0000b0 69 79 98 3e d7 28 cc 3e 44 cd b8 3e 5b ea ef 3e
       0.2978013 0.39874908 0.36094105 0.46858487
0000c0 34 36 bd 3e e2 fd 91 3e 87 30 f2 3e a5 2f 06 3f
       0.36955416 0.2851401 0.47302648 0.5241645
0000d0 29 92 fe 3e 89 ac e5 3e ac d2 e6 3e 71 f1 df 3e
       0.49720886 0.44858196 0.45082605 0.43738893
0000e0 28 e7 5e 3e 91 e1 ef 3e ea db 98 3e 12 13 84 3e
       0.21767867 0.4685178 0.2985528 0.257958
