raisimGymTorch/raisimGymTorch/algo/ppo/student/models/2022_10_17.pt (torch, 900915 bytes, 74 tensors)

tcn.0.conv1.bias f4 [60]
00000000: b84d efbc 82dd 653d 6094 033d d9cc 083d
00000010: 3d1c 64bd b169 dc3c 928b 50bd 615e 533c
00000020: ef1b d0bc eee8 063d 6515 403c 30d5 61bd
00000030: 956c f8bb 2893 a5bb c777 fa3c d3cb ffbc
00000040: bbaf 28bd f4ff 3e3d 6aeb dc3c 3b9e a7bc
00000050: 29cb 05bc c91a 713d d7d7 5b3c 17a5 713d
00000060: 2774 753d a541 623d 4330 1dbd daa3 22bd
00000070: d061 e63c 5538 223d a595 033d cf21 ca3b
00000080: af8c 2c3d 4218 83bc 9c86 5c3c f0bb 213d
00000090: c106 a6bc c55d 2dbc b9d7 1a3c 6991 1cbc
000000a0: 6f3b 243d c629 853c da63 5a3d b526 803c
000000b0: a2e0 9dbb fc04 34bd a8c7 283d 867e c4bc
000000c0: c72d 543c 992d 973b 57b2 0fbd 125e 08bd
000000d0: c280 2e3c e6cb 4a3d f7a9 30bc fc92 8a3d
000000e0: 1a95 3dbc f144 23bd 9416 be3c cbf8 fbbc
-0.029211864 0.05611945 0.032123923 0.033398483 -0.055690993 0.026905866 -0.050914355 0.01290092
-0.025403945 0.032936983 0.011723851 -0.055134952 -0.0075813034 -0.005052943 0.030574692 -0.03122512
-0.041183215 0.046630815 0.026967723 -0.020461192 -0.008166113 0.058863435 0.013418159 0.058995333
0.059925225 0.055238385 -0.038376104 -0.039707042 0.028122813 0.039604504 0.032125134 0.006168581
0.042126354 -0.016002778 0.013459828 0.03948587 -0.020266892 -0.010581438 0.009450846 -0.009556153
0.040095743 0.01625527 0.053317882 0.015643457 -0.004818038 -0.043950066 0.041206032 -0.023986112
0.012950367 0.00461359 -0.035082188 -0.033292837 0.010650815 0.04951086 -0.01078271 0.06766316
-0.011571193 -0.03986067 0.023204125 -0.030758282

tcn.0.conv1.weight_g f4 [60, 1, 1]
00000000: be98 103f b6bd 103f 39f9 0d3f 3383 0e3f
00000010: 08be 0f3f af35 173f d0fb 0c3f 1446 0f3f
00000020: 569c 113f 274a 0e3f 26ae 143f 0c77 163f
00000030: f0ec 163f a7c9 183f 4e28 1b3f 1648 1c3f
00000040: 45af 0d3f 579a 123f bd5c 103f 230e 193f
00000050: c76c 103f 99d9 0f3f c2d1 173f 0fe2 123f
00000060: 8930 183f c8f1 143f 954d 113f 3ada 143f
00000070: 38ee 0d3f 6f1c 143f c0d7 093f 1f17 0d3f
00000080: 488f 153f 3563 143f 01bf 143f aa4c 1a3f
00000090: 6d19 163f fa50 183f ef33 113f e99c 173f
000000a0: 3552 153f f9f1 143f 4137 123f 8d0c 163f
000000b0: 04ed 173f 12e5 083f 6432 123f 5e39 0f3f
000000c0: c443 0c3f 8197 123f 50ab 123f b5ff 113f
000000d0: 4c3c 103f 12b1 103f 3a77 123f a0eb 153f
000000e0: 6eb7 133f 5a64 143f 4a9e 0d3f ebea 143f
0.56483066 0.56539476 0.5545841 0.55668944 0.5614934 0.5906629 0.55071735 0.55966306
0.56879175 0.555819 0.5807823 0.587754 0.5895529 0.596827 0.60608375 0.61047494
0.55345565 0.57266754 0.5639151 0.59787196 0.5641598 0.561914 0.5930444 0.5737619
0.5944906 0.5818143 0.56759006 0.5814549 0.5544162 0.57855886 0.53844833 0.55113405
0.58421755 0.5796388 0.5810395 0.6027323 0.58632547 0.5949856 0.5671987 0.592238
0.5832856 0.5818172 0.5711556 0.586129 0.5934603 0.53474534 0.5710814 0.5594691
0.547909 0.57262427 0.5729265 0.570308 0.56342006 0.5652019 0.57213175 0.5856266
0.57701766 0.57965624 0.55319655 0.58170956

tcn.0.conv1.weight_v f4 [60, 60, 5]
00000000: 6064 853c ca22 bbbb d0b3 53bc c87d 05bb
00000010: 7d09 0b3d 5eed 8bbc c1e6 79bc eaef 8d3c
00000020: d5d7 203d a453 113d e938 8b3b 37c5 3a3c
00000030: 9885 753c 7ad4 653c 56c0 603c 8ecf bcbc
00000040: 2997 933b 3111 15bd 455d b8bc 4eed 6f3c
00000050: 27cd 233d 3bf2 293c 23e0 013d 77ed 553d
00000060: 6972 27bc bdbe 573d d051 833b 5344 903c
00000070: 3c43 3b3d f395 5e3a c595 573d 9f71 a0ba
00000080: 3c9a 27bc c4dd 20bc 37fb 65bc b7ea 343d
00000090: d18d 44ba a66a 98bc 90ca 553c 02a2 203d
000000a0: 2657 2ebd ed07 dbbb 3120 8d3c 3fc5 fc3c
000000b0: e426 b1bb 718d df3c 15b2 2abb 0e0f a63c
000000c0: 99ff 143d f60c e3bb 231c 153d f959 0abd
000000d0: 0920 d53c 4097 243c 1438 213d e5fb 88bc
000000e0: 737f 013d 69bb c6bc 807f 403d ce4c 373d
000000f0: c0d2 a23c 056a 14bc 90e9 f9bc 989d 26bd
00000100: 338b 553b be3e 9e3c 4e69 9dbc 40b4 bdbc
00000110: 70f3 5b3d 8dc5 8a3c 0d69 243d d21b bbba
00000120: 5dcd 40bd 04e8 0fbd 3965 5a3c 22cf 1ebd
00000130: 39b4 a4bc 2c50 503c a8d0 96bc 1364 333d
00000140: aed5 f83c 1f92 1b3d 5ab8 64bd 8601 b2bb
00000150: 590c 25bb a4b7 11bd 4dd4 15bd b6fa aebc
00000160: ab05 feba 18c3 c83c 0450 223d ca4e b43c
00000170: e684 16bd 695f 29bd b024 da3b dee1 c4bc
00000180: e90c 0fbd f197 13bd 7328 173c 3692 4dbd
00000190: 8a0d 153d f3f6 71bc e1c3 b0bc 39f6 7abc
000001a0: da84 253d 6d8a 23bc 0da0 133d 0931 24bd
000001b0: 665e 1dbd 194e 6ebb 9647 28bd 8b63 983a
000001c0: 722c 5abd 73c1 383d b2cb 56bc 39c3 5d3d
000001d0: 02c4 fa3a 1153 5ebd 39fd a0bc 9a36 8dbb
000001e0: 4802 2b3d de13 8bba 9524 7f3c c6b5 1c3d
000001f0: 5d6f ad3c 7eda 133c b87c b33c 8f0e 3cbd
00000200: fa99 693d a0da 1cbd 0a75 cd3c 45ec 1fbd
00000210: 9b78 4bbd bf9d 8a3c 0f96 43bc 24cf 62bc
00000220: 89cd 0dbc 2080 8339 d490 0abd 92f1 993c
00000230: ac96 2cbd b4da eb3c 08bb 273b 8455 653d
00000240: c2e7 98bc e0cd 903c 968b cb3b 27ce a2bc
00000250: 7c0c 203d 79d1 39bd e1b1 043d 8371 1139
00000260: 4c03 88ba be6f 323d c516 0fbd 365c 563d
00000270: 989a 0ebd cbae 1abd e4e3 543d bede 2539
00000280: b3da bcb9 0ac4 b4bc 2e18 0cbd f6b2 b73c
00000290: c6a0 b03a 089f 2bbd fd17 cabc 0616 dbbc
000002a0: 5d7c cd3c 7d79 2dbd 8dae b13c 83d2 903b
000002b0: 38aa 23bd e98a 2dbb 27bd 38bd c6a4 83bc
000002c0: 7cec ed3c 03e8 6dbd bec0 1dbd b730 42bc
000002d0: 37fd a83c 9280 d9ba da0b 31bc a3d4 2c3d
000002e0: 6170 dbbc fe88 623d 1cc2 54bc 3c01 6ebc
000002f0: 8057 3f3d dcdf 33bd ccda dd3c 7017 1e3c
00000300: 6adc 45bc a69d 283d 0c6f f9bc 34da 0d3d
00000310: 947c 193d 9918 953b 1720 bd3c fe33 ba3c
00000320: caf7 c3bc cc4d dbbc dbde 3abd 7ef1 e63b
00000330: 27b6 19bd 797c c6bc 8cef 85ba b7dc 74bd
00000340: 2017 273c 30ba 80bc b846 f1bc 3765 d83c
00000350: 3dee b23c a619 16bd caeb 8fbc 17ac 693b
00000360: 04af 493c 6c1c 34bc b4c9 c2bc 241e 35bd
00000370: 664d 38bd 22cb 09bd 5797 0abd 3134 bd3c
00000380: 527b 34bd 57e8 27bd 6977 32bc 8e85 b9bc
00000390: eb8c 03bc 01e3 213d 1890 9e3c ddaa 683c
000003a0: 8226 f93c 1860 f83c b43a 0d3d 815f e8bc
000003b0: accc 0cbd 8e19 b1bc ae29 27bd 820b 143d
000003c0: 9a27 f0bc ce4e 243d 9c1e d5bc c55a 033d
000003d0: ca63 0fbd c39a 553d b1a8 d9bc 2dec 9dbc
000003e0: 3e79 243d f00f 58bd 363d 8f38 4d91 643b
000003f0: bc82 55bd c8a6 4f3d 9a17 7abc 991c debc
0.016283214 -0.0057109343 -0.012921289 -0.002036916 0.033944596 -0.017080959 -0.01525277 0.017326314
0.039268333 0.035480157 0.0042487276 0.011399559 0.0149854645 0.014027709 0.013717731 -0.023048189
0.0045041037 -0.036393348 -0.022505412 0.01464398 0.03999057 0.010372694 0.031707894 0.052228417
-0.010220149 0.052672137 0.0040075555 0.017610705 0.045718417 0.0008490972 0.052633066 -0.0012240893
-0.010229643 -0.009818498 -0.014036945 0.044169154 -0.0007497939 -0.018605541 0.013048783 0.039217003
-0.04256358 -0.0066842944 0.017227264 0.030855773 -0.0054062475 0.027289124 -0.0026046087 0.02027085
0.03637657 -0.0069290353 0.036403786 -0.03377721 0.026016252 0.010045826 0.03936012 -0.016721675
0.031615686 -0.024259286 0.046996593 0.04475098 0.019875884 -0.00905848 -0.03050688 -0.040677637
0.003258419 0.019317027 -0.019215252 -0.023157239 0.053698957 0.016939903 0.040139247 -0.0014275259
-0.04707085 -0.035133377 0.013329797 -0.038771756 -0.020105468 0.012714427 -0.018410042 0.04379661
0.030375328 0.03798115 -0.055839874 -0.0054323105 -0.0025184362 -0.035575524 -0.03657942 -0.021359783
-0.0019380351 0.02450709 0.03962709 0.022010226 -0.036747836 -0.041350756 0.0066572055 -0.024033483
-0.03492442 -0.036033574 0.009225952 -0.050188266 0.036389865 -0.01476835 -0.021577777 -0.015317493
0.0404099 -0.009981734 0.03604131 -0.040085826 -0.038420103 -0.0036362468 -0.041083895 0.0011626346
-0.053265043 0.045106363 -0.013110088 0.054141257 0.0019131901 -0.054278437 -0.019651996 -0.0043094875
0.041750222 -0.0010610779 0.015572687 0.03825929 0.021171266 0.009024261 0.021910056 -0.04591232
0.05703161 -0.038294435 0.025080223 -0.039043684 -0.049675565 0.016920922 -0.011937632 -0.0138433315
-0.00865496 0.00025081728 -0.033829525 0.018791948 -0.04213588 0.02879081 0.0025593657 0.055989757
-0.018665198 0.017676294 0.0062117083 -0.019873692 0.039074406 -0.045365784 0.0323962 0.00013870564
-0.0010376959 0.043563597 -0.034933824 0.052334033 -0.0348154 -0.03776435 0.051975146 0.00015818604
-0.00036021098 -0.022066135 -0.034202747 0.022424202 0.0013475649 -0.04189971 -0.024669642 -0.0267439
0.025083715 -0.04235219 0.021689678 0.004419626 -0.039957255 -0.0026480502 -0.045102265 -0.016069781
0.029043429 -0.05808259 -0.03851389 -0.011852435 0.020628555 -0.0016594103 -0.010806048 0.042194974
-0.026786985 0.055306427 -0.012985732 -0.0145266615 0.046714306 -0.04391466 0.02708187 0.009649143
-0.012076477 0.04116597 -0.03044846 0.034631923 0.037472323 0.0045500514 0.02308659 0.02272987
-0.023921866 -0.026770495 -0.045622688 0.007047831 -0.03752723 -0.024229275 -0.0010218485 -0.059780803
0.0101983845 -0.015713781 -0.029452667 0.02641545 0.021842116 -0.036645554 -0.017568488 0.0035655552
0.012309793 -0.010993104 -0.02377782 -0.044218197 -0.044995688 -0.03364099 -0.033835735 0.023096176
-0.04406292 -0.04099306 -0.010892727 -0.022646692 -0.008029203 0.03952313 0.019355819 0.014200893
0.03041387 0.030319259 0.03447981 -0.028365852 -0.034374878 -0.02161863 -0.040811233 0.036143787
-0.029315758 0.040114217 -0.026015572 0.032068986 -0.035007276 0.052149545 -0.026569696 -0.019277656
0.040154688 -0.052749574 6.830173e-05 0.0034876645 -0.05212663 0.050696164 -0.015264416 -0.027113246

tcn.0.conv2.bias f4 [60]
00000000: c60d 2d3d 0aca 21bc 3b08 133d 35c8 3e3d
00000010: 7a7b a93d a1d1 a23d 4eac 4d3d cabb 913d
00000020: 139e fe3c cadd e83c cca5 f73c b2df 643c
00000030: 38ce 8d3b 20d1 66bb fbf3 203d 96cc 893b
00000040: 38f8 67bc d422 1ebd 3029 83bc 765a 833b
00000050: eabb afbc 3cc3 0cbd e540 813d b135 4e3b
00000060: a9a5 91bc e0e0 25bc 3d6a 8d3d cb0c 283d
00000070: b25e f33c 7c6f 643c 857c 11bd acca 98bd
00000080: b330 0abd 1f75 6d3d e040 c2bc e9c1 c2bc
00000090: c51a 683d 0dcb 3abd 774c 463d 3093 09bd
000000a0: b63a 323c ad86 713d 9284 1abd 24de 5abd
000000b0: cd54 143d e8fc fa3c ba5f 5e3d 7771 153d
000000c0: 3ebe 38bd b825 7c3a d9a1 07bd 6fb7 7fbd
000000d0: 74b3 40bd 1bd6 483d d9d1 0c3d 7c3f 313d
000000e0: da6b f8bc 02e1 6abc ac87 c9bb 6878 1abd
0.042249463 -0.00987483 0.03589652 0.04657765 0.082755044 0.0795014 0.05021315 0.07115896
0.031081235 0.02842607 0.030230425 0.013969349 0.0043275617 -0.0035219863 0.039295178 0.0042052967
-0.014158301 -0.038607433 -0.01601085 0.0040085865 -0.02145191 -0.034365878 0.06311206 0.0031465108
-0.017779188 -0.010124415 0.06905029 0.041027825 0.02970824 0.013942596 -0.03551914 -0.074605316
-0.03373785 0.057973024 -0.023712575 -0.023774104 0.056666154 -0.0456038 0.048412766 -0.033587635
0.010878256 0.058966327 -0.037724085 -0.053434506 0.036213685 0.030638173 0.05429051 0.03648516
-0.045103304 0.00096186576 -0.033113334 -0.062430795 -0.04704614 0.049032312 0.034379814 0.043273434
-0.030324865 -0.014335873 -0.0061502066 -0.037712485

tcn.0.conv2.weight_g f4 [60, 1, 1]
00000000: 6039 103f efd0 0c3f a864 093f 36de 0d3f
00000010: 3a6b 163f d1e3 0b3f a338 1a3f bc05 0a3f
00000020: b3e1 0f3f e7c2 183f 62fa 113f f255 123f
00000030: 7a2d 153f b3f3 113f 8582 193f 70e6 123f
00000040: c9d2 113f db92 0f3f bd04 1b3f 30e3 103f
00000050: f7a2 0d3f 5178 103f 42ab 083f 5097 103f
00000060: 7f9c 0f3f 4ede 133f 06ae 053f 2a8e 123f
00000070: d759 0b3f 6a4b 063f b9f2 0a3f 77be 053f
00000080: aa3c 0f3f 239d 0e3f 2555 163f 642b 0e3f
00000090: c32a 0b3f c80a 153f 3479 103f 300a 143f
000000a0: 420b 163f 6837 163f ecdf 0e3f 1fce 0b3f
000000b0: ec15 123f 217b 0a3f 1091 0e3f de61 1c3f
000000c0: fd6f 0b3f 262b 173f 2e01 0e3f c9c1 0f3f
000000d0: 2685 0a3f cd5e 1b3f d652 103f 5f6d 0a3f
000000e0: cb6f 1b3f 80bd 183f 8dfa 0e3f d6b3 093f
0.5633755 0.5500631 0.53669214 0.5541719 0.58757365 0.54644495 0.6024267 0.53915
0.56203765 0.596724 0.5702268 0.5716239 0.58272517 0.5701248 0.5996478 0.5738287
0.5696226 0.5608346 0.60554105 0.5659666 0.5532679 0.5643359 0.5338632 0.56480885
0.5609817 0.57761085 0.52218664 0.57248175 0.5443396 0.5245882 0.54276615 0.5224375
0.5595194 0.5570852 0.5872367 0.5553496 0.54362124 0.58219576 0.5643494 0.57828045
0.5861093 0.58678293 0.5581043 0.5461139 0.570647 0.5409413 0.556901 0.61086833
0.54467756 0.59050214 0.5547055 0.5615507 0.5410942 0.6069153 0.563764 0.5407314
0.6071746 0.59664154 0.5585106 0.5379003

tcn.0.conv2.weight_v f4 [60, 60, 5]
00000000: ce4f 143d 264a 8e3c f5fa 06bd 7c07 c4bc
00000010: d126 413c 1117 63bd a9ef 033d afbe 1e3d
00000020: 1c94 cebc c6a9 c9bc a778 2ebc e809 41bd
00000030: 3069 253d a87e 5fbd 3191 583d 2c3c 323d
00000040: 1e2e 7f3c 4302 e73b 0fec 8ebc fe92 153d
00000050: adf2 17bd 46bb dd3c 7e75 0c3d 5393 56bd
00000060: 17f9 21bd bd4a be3c bce5 6fbd 8dc2 3b3d
00000070: b168 c0bb bb7c 31bb 0983 69bc c1d6 06bd
00000080: 9b85 8b3c bad4 7ebc fd28 9b3c 8721 a4bb
00000090: 6a7d 0b3c b796 19bd 7d9c 22bd d1eb 603c
000000a0: 096f 51bd 9d15 3c3d e8ac acbc 31cf 4a3d
000000b0: 4474 f0bc 1fc6 083d 83a0 973c 9bac 953b
000000c0: e48f 56bd cb2d bb3b c749 5c3d 6337 ed3c
000000d0: 6008 3f3d 4422 09bd 8d5d 62bb 2856 f63c
000000e0: 5664 893c 1de1 88bc 4c45 0abd e9d8 0d3d
000000f0: b91f 8ebc 87e6 5fbc 954a 8dbc 6412 073d
00000100: 1880 59bd fefd d7bc b185 4a3d d008 14bd
00000110: 0e45 0bbd 6b16 f33c c49b 303b 113f 37bc
00000120: e34b d2bc 121e 3cbd 96f4 423b 8091 80bc
00000130: 7d79 3fbc 938c 183d 3f1c 2b3c 3ef1 3e3d
00000140: e600 8dbc 38f5 c0bc 6c55 56bd 1cb3 09bc
00000150: d127 5b3d a7e3 63bd 7c06 c5bc 7fc1 323d
00000160: d568 4d3d 54f6 31bd 1d6f 4a3c ea84 32bd
00000170: 17c9 f1bc 3700 ce3b 4db2 4ebc 89e3 fa3c
00000180: 6639 cbbc ea2b fa3c 161b 073d 526c 683c
00000190: 9fd0 1a3d eeac e73b be91 aebc a13b 323d
000001a0: c0c7 723c 7fc9 e5bc 1a49 4bbd b838 54bb
000001b0: d4d6 3ebd 564e c1bc 198a 233d 2663 c3bc
000001c0: 467f 6fbd 0ba1 6ebd 1825 3d3d d04c 8a3b
000001d0: 6ec9 afbb 822d febc f7a4 91bc b11c d93c
000001e0: 19bc 45bd e4a3 a43b ae86 c23c 7449 25bd
000001f0: 4301 06bd 0fe7 5dbc 6d97 9e3c 7725 6e3c
00000200: 1651 40bd f146 42bd 0b1e 0f3d f13c 443d
00000210: c48c 1c3d 0539 3b3c 8a43 2ebd 3418 62bd
00000220: 6734 303d 4319 193c d4ea 8a3b 95dd e9bb
00000230: 3d1d 153d cc46 143c cb03 f0bc 6aaf 20bc
00000240: c68b 6e3c 43a0 623d 2af2 153d 1865 213d
00000250: 35d5 283d 6c17 38bd 0357 a93c d3a5 65bd
00000260: bad1 8039 4807 833c ade3 b23c aa01 bcbc
00000270: a36e c13c 9823 35bd 3b4c 323d 2fdd bdbb
00000280: 7fa8 4c3b 78a0 023c 0857 6ebd e112 613b
00000290: 9a2b 3bba 0aba 003b 0b1d 61bd 7a14 03bd
000002a0: 3ce0 26bc 6f35 aabc 6a7b 0ebd 2470 1cbc
000002b0: fffd 71bc 37ef 423c 0b68 02bc f523 063d
000002c0: a60a 1b3d 8f07 60bd 6074 f93c 7d89 4dbc
000002d0: 7fe9 cfba 9dfd 91bc ee4a 14ba 895e 50bc
000002e0: c201 e23c 8aa1 24bd dc55 70bd c3f7 c43b
000002f0: 8031 fcbc d89b 59bd 06e8 8cbb a49f ff3b
00000300: cdd9 73bd 7a77 afbc 3022 b1bb dc36 d13c
00000310: fff4 403d f6f0 35bc 56e9 42bb 4e97 313d
00000320: 169b 91bc 8a61 01bd bc20 40bd b7d6 04bd
00000330: da54 3b3d 8b90 433d 434b 6dbc 269a 56bd
00000340: 3504 5dbd 0023 c13b 7c02 403d 4082 4e3d
00000350: 2ae1 743b bd3a ff3c ffc3 ffbc 6732 603c
00000360: 0fe8 523d b274 353d d836 41bd 9b09 f9bc
00000370: bf1d e13c 2670 833b 3d93 3d3d dd1a 2cbc
00000380: 7e82 573d 419a 233d f63f ac3c 6a77 573b
00000390: 7c98 39bd 6fb7 5c3d 3e82 4cbd 9e91 2ebd
000003a0: 7596 d43c fdd2 b53c d1c9 a33b b162 01bc
000003b0: c7bf 1e3d 1bf9 19bd 9d6e 3e3d 7e7b 2b3d
000003c0: fcd0 2f3d 2025 2ebd 4612 6dbb f1b7 87ba
000003d0: bb9c e9bc c2e7 8dbc d878 1ebd ea0b 2b3d
000003e0: 77b3 113c aad2 6d3c d170 17bd a0ac 79bc
000003f0: a506 3c3a 3981 e63c e17d ef3c b046 87bc
0.03620892 0.017369341 -0.032954175 -0.02392935 0.01178904 -0.05544192 0.03221098 0.03875607
-0.025217108 -0.024617087 -0.010648883 -0.047128588 0.040383518 -0.05456415 0.05287284 0.043514416
0.01557496 0.00704983 -0.017446546 0.036517136 -0.037096668 0.027066838 0.034291737 -0.052386593
-0.03954419 0.023228997 -0.0585687 0.045839835 -0.005871855 -0.0027082402 -0.014252433 -0.03291965
0.017031481 -0.015553648 0.018940443 -0.0050088796 0.008513788 -0.03749725 -0.03970002 0.013728098
-0.051131282 0.04591905 -0.021078542 0.049514 -0.029352315 0.033392068 0.018509155 0.0045676953
-0.05238332 0.005712246 0.053781297 0.028957075 0.046638846 -0.033479944 -0.0034540624 0.03007038
0.016771477 -0.016708905 -0.033757493 0.03463069 -0.01734911 -0.013665802 -0.017247478 0.032976523
-0.053100675 -0.02636623 0.049443904 -0.036141217 -0.034001403 0.029673776 0.0026948312 -0.01118447
-0.025670951 -0.045927115 0.0029747835 -0.01569438 -0.01168668 0.037243437 0.010443746 0.046616785
-0.017212342 -0.02355443 -0.05232756 -0.008404519 0.05350477 -0.055637028 -0.024050944 0.043641564
0.050148804 -0.043447807 0.012355593 -0.043583788 -0.029514832 0.0062866467 -0.012615752 0.030626075
-0.024807643 0.030538518 0.032984816 0.014185982 0.037796613 0.0070701754 -0.02130973 0.043513898
0.014818132 -0.028050182 -0.049630262 -0.003238244 -0.046591595 -0.023596924 0.039926622 -0.023850989
-0.058470987 -0.05825905 0.046177953 0.0042205825 -0.0053645885 -0.03102756 -0.017778857 0.026502939
-0.048275087 0.00502442 0.02374586 -0.040353253 -0.032716047 -0.013543858 0.019359315 0.0145352995
-0.04695233 -0.047430936 0.03494076 0.04790968 0.038220182 0.011427169 -0.04254488 -0.055198863
0.043018725 0.009344402 0.0042394195 -0.0071370103 0.036404837 0.009050082 -0.029298684 -0.009807447
0.014559692 0.05532862 0.0366079 0.03940305 0.041218955 -0.04494421 0.020671373 -0.056066345
0.0002457032 0.015994683 0.02183708 -0.022950012 0.023612326 -0.044223398 0.04352973 -0.0057941894
0.0031228361 0.007972829 -0.05818847 0.0034343528 -0.0007139981 0.0019642138 -0.05495934 -0.03200195
-0.010185298 -0.020777432 -0.034785666 -0.009548221 -0.01477003 0.011897854 -0.007959376 0.032749135
0.037851952 -0.05469471 0.030451 -0.012544987 -0.0015862434 -0.017821128 -0.00056569173 -0.012717851
0.027588729 -0.04019312 -0.058675632 0.006010981 -0.030785322 -0.05312714 -0.0043001203 0.007801013
-0.059533883 -0.021419276 -0.005405687 0.025538854 0.047108646 -0.011104813 -0.002974113 0.043357186
-0.017774146 -0.03158716 -0.046906218 -0.03243133 0.045735218 0.04774527 -0.014483276 -0.0523931
-0.05395909 0.005894065 0.04687737 0.050417185 0.0037365654 0.031155938 -0.031221388 0.013683892
0.05149084 0.044300742 -0.047171444 -0.030400088 0.027480004 0.004011172 0.046282995 -0.010504452
0.05261468 0.03994203 0.021026593 0.0032877573 -0.045311436 0.053885873 -0.049928896 -0.04261934
0.02595065 0.022195334 0.0049984236 -0.007897065 0.038757112 -0.03759108 0.046492208 0.04186582
0.042923912 -0.042515874 -0.0036174222 -0.0010354501 -0.028517118 -0.017322425 -0.038689464 0.04175941
0.008892885 0.014515558 -0.036972824 -0.015238911 0.0007172621 0.02813779 0.029234828 -0.016513199

tcn.0.net.0.bias f4 [60]
00000000: b84d efbc 82dd 653d 6094 033d d9cc 083d
00000010: 3d1c 64bd b169 dc3c 928b 50bd 615e 533c
00000020: ef1b d0bc eee8 063d 6515 403c 30d5 61bd
00000030: 956c f8bb 2893 a5bb c777 fa3c d3cb ffbc
00000040: bbaf 28bd f4ff 3e3d 6aeb dc3c 3b9e a7bc
00000050: 29cb 05bc c91a 713d d7d7 5b3c 17a5 713d
00000060: 2774 753d a541 623d 4330 1dbd daa3 22bd
00000070: d061 e63c 5538 223d a595 033d cf21 ca3b
00000080: af8c 2c3d 4218 83bc 9c86 5c3c f0bb 213d
00000090: c106 a6bc c55d 2dbc b9d7 1a3c 6991 1cbc
000000a0: 6f3b 243d c629 853c da63 5a3d b526 803c
000000b0: a2e0 9dbb fc04 34bd a8c7 283d 867e c4bc
000000c0: c72d 543c 992d 973b 57b2 0fbd 125e 08bd
000000d0: c280 2e3c e6cb 4a3d f7a9 30bc fc92 8a3d
000000e0: 1a95 3dbc f144 23bd 9416 be3c cbf8 fbbc
-0.029211864 0.05611945 0.032123923 0.033398483 -0.055690993 0.026905866 -0.050914355 0.01290092
-0.025403945 0.032936983 0.011723851 -0.055134952 -0.0075813034 -0.005052943 0.030574692 -0.03122512
-0.041183215 0.046630815 0.026967723 -0.020461192 -0.008166113 0.058863435 0.013418159 0.058995333
0.059925225 0.055238385 -0.038376104 -0.039707042 0.028122813 0.039604504 0.032125134 0.006168581
0.042126354 -0.016002778 0.013459828 0.03948587 -0.020266892 -0.010581438 0.009450846 -0.009556153
0.040095743 0.01625527 0.053317882 0.015643457 -0.004818038 -0.043950066 0.041206032 -0.023986112
0.012950367 0.00461359 -0.035082188 -0.033292837 0.010650815 0.04951086 -0.01078271 0.06766316
-0.011571193 -0.03986067 0.023204125 -0.030758282

tcn.0.net.0.weight_g f4 [60, 1, 1]
00000000: be98 103f b6bd 103f 39f9 0d3f 3383 0e3f
00000010: 08be 0f3f af35 173f d0fb 0c3f 1446 0f3f
00000020: 569c 113f 274a 0e3f 26ae 143f 0c77 163f
00000030: f0ec 163f a7c9 183f 4e28 1b3f 1648 1c3f
00000040: 45af 0d3f 579a 123f bd5c 103f 230e 193f
00000050: c76c 103f 99d9 0f3f c2d1 173f 0fe2 123f
00000060: 8930 183f c8f1 143f 954d 113f 3ada 143f
00000070: 38ee 0d3f 6f1c 143f c0d7 093f 1f17 0d3f
00000080: 488f 153f 3563 143f 01bf 143f aa4c 1a3f
00000090: 6d19 163f fa50 183f ef33 113f e99c 173f
000000a0: 3552 153f f9f1 143f 4137 123f 8d0c 163f
000000b0: 04ed 173f 12e5 083f 6432 123f 5e39 0f3f
000000c0: c443 0c3f 8197 123f 50ab 123f b5ff 113f
000000d0: 4c3c 103f 12b1 103f 3a77 123f a0eb 153f
000000e0: 6eb7 133f 5a64 143f 4a9e 0d3f ebea 143f
0.56483066 0.56539476 0.5545841 0.55668944 0.5614934 0.5906629 0.55071735 0.55966306
0.56879175 0.555819 0.5807823 0.587754 0.5895529 0.596827 0.60608375 0.61047494
0.55345565 0.57266754 0.5639151 0.59787196 0.5641598 0.561914 0.5930444 0.5737619
0.5944906 0.5818143 0.56759006 0.5814549 0.5544162 0.57855886 0.53844833 0.55113405
0.58421755 0.5796388 0.5810395 0.6027323 0.58632547 0.5949856 0.5671987 0.592238
0.5832856 0.5818172 0.5711556 0.586129 0.5934603 0.53474534 0.5710814 0.5594691
0.547909 0.57262427 0.5729265 0.570308 0.56342006 0.5652019 0.57213175 0.5856266
0.57701766 0.57965624 0.55319655 0.58170956

tcn.0.net.0.weight_v f4 [60, 60, 5]
00000000: 6064 853c ca22 bbbb d0b3 53bc c87d 05bb
00000010: 7d09 0b3d 5eed 8bbc c1e6 79bc eaef 8d3c
00000020: d5d7 203d a453 113d e938 8b3b 37c5 3a3c
00000030: 9885 753c 7ad4 653c 56c0 603c 8ecf bcbc
00000040: 2997 933b 3111 15bd 455d b8bc 4eed 6f3c
00000050: 27cd 233d 3bf2 293c 23e0 013d 77ed 553d
00000060: 6972 27bc bdbe 573d d051 833b 5344 903c
00000070: 3c43 3b3d f395 5e3a c595 573d 9f71 a0ba
00000080: 3c9a 27bc c4dd 20bc 37fb 65bc b7ea 343d
00000090: d18d 44ba a66a 98bc 90ca 553c 02a2 203d
000000a0: 2657 2ebd ed07 dbbb 3120 8d3c 3fc5 fc3c
000000b0: e426 b1bb 718d df3c 15b2 2abb 0e0f a63c
000000c0: 99ff 143d f60c e3bb 231c 153d f959 0abd
000000d0: 0920 d53c 4097 243c 1438 213d e5fb 88bc
000000e0: 737f 013d 69bb c6bc 807f 403d ce4c 373d
000000f0: c0d2 a23c 056a 14bc 90e9 f9bc 989d 26bd
00000100: 338b 553b be3e 9e3c 4e69 9dbc 40b4 bdbc
00000110: 70f3 5b3d 8dc5 8a3c 0d69 243d d21b bbba
00000120: 5dcd 40bd 04e8 0fbd 3965 5a3c 22cf 1ebd
00000130: 39b4 a4bc 2c50 503c a8d0 96bc 1364 333d
00000140: aed5 f83c 1f92 1b3d 5ab8 64bd 8601 b2bb
00000150: 590c 25bb a4b7 11bd 4dd4 15bd b6fa aebc
00000160: ab05 feba 18c3 c83c 0450 223d ca4e b43c
00000170: e684 16bd 695f 29bd b024 da3b dee1 c4bc
00000180: e90c 0fbd f197 13bd 7328 173c 3692 4dbd
00000190: 8a0d 153d f3f6 71bc e1c3 b0bc 39f6 7abc
000001a0: da84 253d 6d8a 23bc 0da0 133d 0931 24bd
000001b0: 665e 1dbd 194e 6ebb 9647 28bd 8b63 983a
000001c0: 722c 5abd 73c1 383d b2cb 56bc 39c3 5d3d
000001d0: 02c4 fa3a 1153 5ebd 39fd a0bc 9a36 8dbb
000001e0: 4802 2b3d de13 8bba 9524 7f3c c6b5 1c3d
000001f0: 5d6f ad3c 7eda 133c b87c b33c 8f0e 3cbd
00000200: fa99 693d a0da 1cbd 0a75 cd3c 45ec 1fbd
00000210: 9b78 4bbd bf9d 8a3c 0f96 43bc 24cf 62bc
00000220: 89cd 0dbc 2080 8339 d490 0abd 92f1 993c
00000230: ac96 2cbd b4da eb3c 08bb 273b 8455 653d
00000240: c2e7 98bc e0cd 903c 968b cb3b 27ce a2bc
00000250: 7c0c 203d 79d1 39bd e1b1 043d 8371 1139
00000260: 4c03 88ba be6f 323d c516 0fbd 365c 563d
00000270: 989a 0ebd cbae 1abd e4e3 543d bede 2539
00000280: b3da bcb9 0ac4 b4bc 2e18 0cbd f6b2 b73c
00000290: c6a0 b03a 089f 2bbd fd17 cabc 0616 dbbc
000002a0: 5d7c cd3c 7d79 2dbd 8dae b13c 83d2 903b
000002b0: 38aa 23bd e98a 2dbb 27bd 38bd c6a4 83bc
000002c0: 7cec ed3c 03e8 6dbd bec0 1dbd b730 42bc
000002d0: 37fd a83c 9280 d9ba da0b 31bc a3d4 2c3d
000002e0: 6170 dbbc fe88 623d 1cc2 54bc 3c01 6ebc
000002f0: 8057 3f3d dcdf 33bd ccda dd3c 7017 1e3c
00000300: 6adc 45bc a69d 283d 0c6f f9bc 34da 0d3d
00000310: 947c 193d 9918 953b 1720 bd3c fe33 ba3c
00000320: caf7 c3bc cc4d dbbc dbde 3abd 7ef1 e63b
00000330: 27b6 19bd 797c c6bc 8cef 85ba b7dc 74bd
00000340: 2017 273c 30ba 80bc b846 f1bc 3765 d83c
00000350: 3dee b23c a619 16bd caeb 8fbc 17ac 693b
00000360: 04af 493c 6c1c 34bc b4c9 c2bc 241e 35bd
00000370: 664d 38bd 22cb 09bd 5797 0abd 3134 bd3c
00000380: 527b 34bd 57e8 27bd 6977 32bc 8e85 b9bc
00000390: eb8c 03bc 01e3 213d 1890 9e3c ddaa 683c
000003a0: 8226 f93c 1860 f83c b43a 0d3d 815f e8bc
000003b0: accc 0cbd 8e19 b1bc ae29 27bd 820b 143d
000003c0: 9a27 f0bc ce4e 243d 9c1e d5bc c55a 033d
000003d0: ca63 0fbd c39a 553d b1a8 d9bc 2dec 9dbc
000003e0: 3e79 243d f00f 58bd 363d 8f38 4d91 643b
000003f0: bc82 55bd c8a6 4f3d 9a17 7abc 991c debc
0.016283214 -0.0057109343 -0.012921289 -0.002036916 0.033944596 -0.017080959 -0.01525277 0.017326314
0.039268333 0.035480157 0.0042487276 0.011399559 0.0149854645 0.014027709 0.013717731 -0.023048189
0.0045041037 -0.036393348 -0.022505412 0.01464398 0.03999057 0.010372694 0.031707894 0.052228417
-0.010220149 0.052672137 0.0040075555 0.017610705 0.045718417 0.0008490972 0.052633066 -0.0012240893
-0.010229643 -0.009818498 -0.014036945 0.044169154 -0.0007497939 -0.018605541 0.013048783 0.039217003
-0.04256358 -0.0066842944 0.017227264 0.030855773 -0.0054062475 0.027289124 -0.0026046087 0.02027085
0.03637657 -0.0069290353 0.036403786 -0.03377721 0.026016252 0.010045826 0.03936012 -0.016721675
0.031615686 -0.024259286 0.046996593 0.04475098 0.019875884 -0.00905848 -0.03050688 -0.040677637
0.003258419 0.019317027 -0.019215252 -0.023157239 0.053698957 0.016939903 0.040139247 -0.0014275259
-0.04707085 -0.035133377 0.013329797 -0.038771756 -0.020105468 0.012714427 -0.018410042 0.04379661
0.030375328 0.03798115 -0.055839874 -0.0054323105 -0.0025184362 -0.035575524 -0.03657942 -0.021359783
-0.0019380351 0.02450709 0.03962709 0.022010226 -0.036747836 -0.041350756 0.0066572055 -0.024033483
-0.03492442 -0.036033574 0.009225952 -0.050188266 0.036389865 -0.01476835 -0.021577777 -0.015317493
0.0404099 -0.009981734 0.03604131 -0.040085826 -0.038420103 -0.0036362468 -0.041083895 0.0011626346
-0.053265043 0.045106363 -0.013110088 0.054141257 0.0019131901 -0.054278437 -0.019651996 -0.0043094875
0.041750222 -0.0010610779 0.015572687 0.03825929 0.021171266 0.009024261 0.021910056 -0.04591232
0.05703161 -0.038294435 0.025080223 -0.039043684 -0.049675565 0.016920922 -0.011937632 -0.0138433315
-0.00865496 0.00025081728 -0.033829525 0.018791948 -0.04213588 0.02879081 0.0025593657 0.055989757
-0.018665198 0.017676294 0.0062117083 -0.019873692 0.039074406 -0.045365784 0.0323962 0.00013870564
-0.0010376959 0.043563597 -0.034933824 0.052334033 -0.0348154 -0.03776435 0.051975146 0.00015818604
-0.00036021098 -0.022066135 -0.034202747 0.022424202 0.0013475649 -0.04189971 -0.024669642 -0.0267439
0.025083715 -0.04235219 0.021689678 0.004419626 -0.039957255 -0.0026480502 -0.045102265 -0.016069781
0.029043429 -0.05808259 -0.03851389 -0.011852435 0.020628555 -0.0016594103 -0.010806048 0.042194974
-0.026786985 0.055306427 -0.012985732 -0.0145266615 0.046714306 -0.04391466 0.02708187 0.009649143
-0.012076477 0.04116597 -0.03044846 0.034631923 0.037472323 0.0045500514 0.02308659 0.02272987
-0.023921866 -0.026770495 -0.045622688 0.007047831 -0.03752723 -0.024229275 -0.0010218485 -0.059780803
0.0101983845 -0.015713781 -0.029452667 0.02641545 0.021842116 -0.036645554 -0.017568488 0.0035655552
0.012309793 -0.010993104 -0.02377782 -0.044218197 -0.044995688 -0.03364099 -0.033835735 0.023096176
-0.04406292 -0.04099306 -0.010892727 -0.022646692 -0.008029203 0.03952313 0.019355819 0.014200893
0.03041387 0.030319259 0.03447981 -0.028365852 -0.034374878 -0.02161863 -0.040811233 0.036143787
-0.029315758 0.040114217 -0.026015572 0.032068986 -0.035007276 0.052149545 -0.026569696 -0.019277656
0.040154688 -0.052749574 6.830173e-05 0.0034876645 -0.05212663 0.050696164 -0.015264416 -0.027113246

tcn.0.net.4.bias f4 [60]
00000000: c60d 2d3d 0aca 21bc 3b08 133d 35c8 3e3d
00000010: 7a7b a93d a1d1 a23d 4eac 4d3d cabb 913d
00000020: 139e fe3c cadd e83c cca5 f73c b2df 643c
00000030: 38ce 8d3b 20d1 66bb fbf3 203d 96cc 893b
00000040: 38f8 67bc d422 1ebd 3029 83bc 765a 833b
00000050: eabb afbc 3cc3 0cbd e540 813d b135 4e3b
00000060: a9a5 91bc e0e0 25bc 3d6a 8d3d cb0c 283d
00000070: b25e f33c 7c6f 643c 857c 11bd acca 98bd
00000080: b330 0abd 1f75 6d3d e040 c2bc e9c1 c2bc
00000090: c51a 683d 0dcb 3abd 774c 463d 3093 09bd
000000a0: b63a 323c ad86 713d 9284 1abd 24de 5abd
000000b0: cd54 143d e8fc fa3c ba5f 5e3d 7771 153d
000000c0: 3ebe 38bd b825 7c3a d9a1 07bd 6fb7 7fbd
000000d0: 74b3 40bd 1bd6 483d d9d1 0c3d 7c3f 313d
000000e0: da6b f8bc 02e1 6abc ac87 c9bb 6878 1abd
0.042249463 -0.00987483 0.03589652 0.04657765 0.082755044 0.0795014 0.05021315 0.07115896
0.031081235 0.02842607 0.030230425 0.013969349 0.0043275617 -0.0035219863 0.039295178 0.0042052967
-0.014158301 -0.038607433 -0.01601085 0.0040085865 -0.02145191 -0.034365878 0.06311206 0.0031465108
-0.017779188 -0.010124415 0.06905029 0.041027825 0.02970824 0.013942596 -0.03551914 -0.074605316
-0.03373785 0.057973024 -0.023712575 -0.023774104 0.056666154 -0.0456038 0.048412766 -0.033587635
0.010878256 0.058966327 -0.037724085 -0.053434506 0.036213685 0.030638173 0.05429051 0.03648516
-0.045103304 0.00096186576 -0.033113334 -0.062430795 -0.04704614 0.049032312 0.034379814 0.043273434
-0.030324865 -0.014335873 -0.0061502066 -0.037712485

tcn.0.net.4.weight_g f4 [60, 1, 1]
00000000: 6039 103f efd0 0c3f a864 093f 36de 0d3f
00000010: 3a6b 163f d1e3 0b3f a338 1a3f bc05 0a3f
00000020: b3e1 0f3f e7c2 183f 62fa 113f f255 123f
00000030: 7a2d 153f b3f3 113f 8582 193f 70e6 123f
00000040: c9d2 113f db92 0f3f bd04 1b3f 30e3 103f
00000050: f7a2 0d3f 5178 103f 42ab 083f 5097 103f
00000060: 7f9c 0f3f 4ede 133f 06ae 053f 2a8e 123f
00000070: d759 0b3f 6a4b 063f b9f2 0a3f 77be 053f
00000080: aa3c 0f3f 239d 0e3f 2555 163f 642b 0e3f
00000090: c32a 0b3f c80a 153f 3479 103f 300a 143f
000000a0: 420b 163f 6837 163f ecdf 0e3f 1fce 0b3f
000000b0: ec15 123f 217b 0a3f 1091 0e3f de61 1c3f
000000c0: fd6f 0b3f 262b 173f 2e01 0e3f c9c1 0f3f
000000d0: 2685 0a3f cd5e 1b3f d652 103f 5f6d 0a3f
000000e0: cb6f 1b3f 80bd 183f 8dfa 0e3f d6b3 093f
0.5633755 0.5500631 0.53669214 0.5541719 0.58757365 0.54644495 0.6024267 0.53915
0.56203765 0.596724 0.5702268 0.5716239 0.58272517 0.5701248 0.5996478 0.5738287
0.5696226 0.5608346 0.60554105 0.5659666 0.5532679 0.5643359 0.5338632 0.56480885
0.5609817 0.57761085 0.52218664 0.57248175 0.5443396 0.5245882 0.54276615 0.5224375
0.5595194 0.5570852 0.5872367 0.5553496 0.54362124 0.58219576 0.5643494 0.57828045
0.5861093 0.58678293 0.5581043 0.5461139 0.570647 0.5409413 0.556901 0.61086833
0.54467756 0.59050214 0.5547055 0.5615507 0.5410942 0.6069153 0.563764 0.5407314
0.6071746 0.59664154 0.5585106 0.5379003

tcn.0.net.4.weight_v f4 [60, 60, 5]
00000000: ce4f 143d 264a 8e3c f5fa 06bd 7c07 c4bc
00000010: d126 413c 1117 63bd a9ef 033d afbe 1e3d
00000020: 1c94 cebc c6a9 c9bc a778 2ebc e809 41bd
00000030: 3069 253d a87e 5fbd 3191 583d 2c3c 323d
00000040: 1e2e 7f3c 4302 e73b 0fec 8ebc fe92 153d
00000050: adf2 17bd 46bb dd3c 7e75 0c3d 5393 56bd
00000060: 17f9 21bd bd4a be3c bce5 6fbd 8dc2 3b3d
00000070: b168 c0bb bb7c 31bb 0983 69bc c1d6 06bd
00000080: 9b85 8b3c bad4 7ebc fd28 9b3c 8721 a4bb
00000090: 6a7d 0b3c b796 19bd 7d9c 22bd d1eb 603c
000000a0: 096f 51bd 9d15 3c3d e8ac acbc 31cf 4a3d
000000b0: 4474 f0bc 1fc6 083d 83a0 973c 9bac 953b
000000c0: e48f 56bd cb2d bb3b c749 5c3d 6337 ed3c
000000d0: 6008 3f3d 4422 09bd 8d5d 62bb 2856 f63c
000000e0: 5664 893c 1de1 88bc 4c45 0abd e9d8 0d3d
000000f0: b91f 8ebc 87e6 5fbc 954a 8dbc 6412 073d
00000100: 1880 59bd fefd d7bc b185 4a3d d008 14bd
00000110: 0e45 0bbd 6b16 f33c c49b 303b 113f 37bc
00000120: e34b d2bc 121e 3cbd 96f4 423b 8091 80bc
00000130: 7d79 3fbc 938c 183d 3f1c 2b3c 3ef1 3e3d
00000140: e600 8dbc 38f5 c0bc 6c55 56bd 1cb3 09bc
00000150: d127 5b3d a7e3 63bd 7c06 c5bc 7fc1 323d
00000160: d568 4d3d 54f6 31bd 1d6f 4a3c ea84 32bd
00000170: 17c9 f1bc 3700 ce3b 4db2 4ebc 89e3 fa3c
00000180: 6639 cbbc ea2b fa3c 161b 073d 526c 683c
00000190: 9fd0 1a3d eeac e73b be91 aebc a13b 323d
000001a0: c0c7 723c 7fc9 e5bc 1a49 4bbd b838 54bb
000001b0: d4d6 3ebd 564e c1bc 198a 233d 2663 c3bc
000001c0: 467f 6fbd 0ba1 6ebd 1825 3d3d d04c 8a3b
000001d0: 6ec9 afbb 822d febc f7a4 91bc b11c d93c
000001e0: 19bc 45bd e4a3 a43b ae86 c23c 7449 25bd
000001f0: 4301 06bd 0fe7 5dbc 6d97 9e3c 7725 6e3c
00000200: 1651 40bd f146 42bd 0b1e 0f3d f13c 443d
00000210: c48c 1c3d 0539 3b3c 8a43 2ebd 3418 62bd
00000220: 6734 303d 4319 193c d4ea 8a3b 95dd e9bb
00000230: 3d1d 153d cc46 143c cb03 f0bc 6aaf 20bc
00000240: c68b 6e3c 43a0 623d 2af2 153d 1865 213d
00000250: 35d5 283d 6c17 38bd 0357 a93c d3a5 65bd
00000260: bad1 8039 4807 833c ade3 b23c aa01 bcbc
00000270: a36e c13c 9823 35bd 3b4c 323d 2fdd bdbb
00000280: 7fa8 4c3b 78a0 023c 0857 6ebd e112 613b
00000290: 9a2b 3bba 0aba 003b 0b1d 61bd 7a14 03bd
000002a0: 3ce0 26bc 6f35 aabc 6a7b 0ebd 2470 1cbc
000002b0: fffd 71bc 37ef 423c 0b68 02bc f523 063d
000002c0: a60a 1b3d 8f07 60bd 6074 f93c 7d89 4dbc
000002d0: 7fe9 cfba 9dfd 91bc ee4a 14ba 895e 50bc
000002e0: c201 e23c 8aa1 24bd dc55 70bd c3f7 c43b
000002f0: 8031 fcbc d89b 59bd 06e8 8cbb a49f ff3b
00000300: cdd9 73bd 7a77 afbc 3022 b1bb dc36 d13c
00000310: fff4 403d f6f0 35bc 56e9 42bb 4e97 313d
00000320: 169b 91bc 8a61 01bd bc20 40bd b7d6 04bd
00000330: da54 3b3d 8b90 433d 434b 6dbc 269a 56bd
00000340: 3504 5dbd 0023 c13b 7c02 403d 4082 4e3d
00000350: 2ae1 743b bd3a ff3c ffc3 ffbc 6732 603c
00000360: 0fe8 523d b274 353d d836 41bd 9b09 f9bc
00000370: bf1d e13c 2670 833b 3d93 3d3d dd1a 2cbc
00000380: 7e82 573d 419a 233d f63f ac3c 6a77 573b
00000390: 7c98 39bd 6fb7 5c3d 3e82 4cbd 9e91 2ebd
000003a0: 7596 d43c fdd2 b53c d1c9 a33b b162 01bc
000003b0: c7bf 1e3d 1bf9 19bd 9d6e 3e3d 7e7b 2b3d
000003c0: fcd0 2f3d 2025 2ebd 4612 6dbb f1b7 87ba
000003d0: bb9c e9bc c2e7 8dbc d878 1ebd ea0b 2b3d
000003e0: 77b3 113c aad2 6d3c d170 17bd a0ac 79bc
000003f0: a506 3c3a 3981 e63c e17d ef3c b046 87bc
0.03620892 0.017369341 -0.032954175 -0.02392935 0.01178904 -0.05544192 0.03221098 0.03875607
-0.025217108 -0.024617087 -0.010648883 -0.047128588 0.040383518 -0.05456415 0.05287284 0.043514416
0.01557496 0.00704983 -0.017446546 0.036517136 -0.037096668 0.027066838 0.034291737 -0.052386593
-0.03954419 0.023228997 -0.0585687 0.045839835 -0.005871855 -0.0027082402 -0.014252433 -0.03291965
0.017031481 -0.015553648 0.018940443 -0.0050088796 0.008513788 -0.03749725 -0.03970002 0.013728098
-0.051131282 0.04591905 -0.021078542 0.049514 -0.029352315 0.033392068 0.018509155 0.0045676953
-0.05238332 0.005712246 0.053781297 0.028957075 0.046638846 -0.033479944 -0.0034540624 0.03007038
0.016771477 -0.016708905 -0.033757493 0.03463069 -0.01734911 -0.013665802 -0.017247478 0.032976523
-0.053100675 -0.02636623 0.049443904 -0.036141217 -0.034001403 0.029673776 0.0026948312 -0.01118447
-0.025670951 -0.045927115 0.0029747835 -0.01569438 -0.01168668 0.037243437 0.010443746 0.046616785
-0.017212342 -0.02355443 -0.05232756 -0.008404519 0.05350477 -0.055637028 -0.024050944 0.043641564
0.050148804 -0.043447807 0.012355593 -0.043583788 -0.029514832 0.0062866467 -0.012615752 0.030626075
-0.024807643 0.030538518 0.032984816 0.014185982 0.037796613 0.0070701754 -0.02130973 0.043513898
0.014818132 -0.028050182 -0.049630262 -0.003238244 -0.046591595 -0.023596924 0.039926622 -0.023850989
-0.058470987 -0.05825905 0.046177953 0.0042205825 -0.0053645885 -0.03102756 -0.017778857 0.026502939
-0.048275087 0.00502442 0.02374586 -0.040353253 -0.032716047 -0.013543858 0.019359315 0.0145352995
-0.04695233 -0.047430936 0.03494076 0.04790968 0.038220182 0.011427169 -0.04254488 -0.055198863
0.043018725 0.009344402 0.0042394195 -0.0071370103 0.036404837 0.009050082 -0.029298684 -0.009807447
0.014559692 0.05532862 0.0366079 0.03940305 0.041218955 -0.04494421 0.020671373 -0.056066345
0.0002457032 0.015994683 0.02183708 -0.022950012 0.023612326 -0.044223398 0.04352973 -0.0057941894
0.0031228361 0.007972829 -0.05818847 0.0034343528 -0.0007139981 0.0019642138 -0.05495934 -0.03200195
-0.010185298 -0.020777432 -0.034785666 -0.009548221 -0.01477003 0.011897854 -0.007959376 0.032749135
0.037851952 -0.05469471 0.030451 -0.012544987 -0.0015862434 -0.017821128 -0.00056569173 -0.012717851
0.027588729 -0.04019312 -0.058675632 0.006010981 -0.030785322 -0.05312714 -0.0043001203 0.007801013
-0.059533883 -0.021419276 -0.005405687 0.025538854 0.047108646 -0.011104813 -0.002974113 0.043357186
-0.017774146 -0.03158716 -0.046906218 -0.03243133 0.045735218 0.04774527 -0.014483276 -0.0523931
-0.05395909 0.005894065 0.04687737 0.050417185 0.0037365654 0.031155938 -0.031221388 0.013683892
0.05149084 0.044300742 -0.047171444 -0.030400088 0.027480004 0.004011172 0.046282995 -0.010504452
0.05261468 0.03994203 0.021026593 0.0032877573 -0.045311436 0.053885873 -0.049928896 -0.04261934
0.02595065 0.022195334 0.0049984236 -0.007897065 0.038757112 -0.03759108 0.046492208 0.04186582
0.042923912 -0.042515874 -0.0036174222 -0.0010354501 -0.028517118 -0.017322425 -0.038689464 0.04175941
0.008892885 0.014515558 -0.036972824 -0.015238911 0.0007172621 0.02813779 0.029234828 -0.016513199

tcn.2.conv1.bias f4 [60]
00000000: ef47 18bd fd98 3b3d 36e4 df3d 880f 3bbd
00000010: 0a55 5dbd 69c7 a33d 7303 e0bb c815 84bd
00000020: 14ee 873d bc32 1abd 9311 e23d 6a61 1a3c
00000030: f5d5 24bd 4188 98bd cbed 0fbd 7a19 c7bc
00000040: 718f c13c 7567 a93d 341a 80bc d0e0 433d
00000050: 9eec e938 262a 30bd b1e7 32bc 7a79 f9bc
00000060: 94cc dcbc 9477 9e3c 3f17 0e3d 961b 0bbc
00000070: 7a65 c9bc 5fb2 7d3d 74cb 7cbd 31c9 973d
00000080: 5efa c4bc 767d b13d bda4 7dbd 4e60 f8bc
00000090: f51c 55bd f6b4 0fbd d11a 213d bacf 74bd
000000a0: 1c04 c9bb 34ab 013d 19f1 efbc 0f58 fabc
000000b0: 9392 5c3d 5089 ef39 07af 423c b213 39bb
000000c0: de97 da3d 2bbf 0abd 1588 6abd e43f 323d
000000d0: f623 5cbd 0726 b73d 1923 903c 3f7e 9cbc
000000e0: 7b27 2f3d dce9 ed3c eb92 e93c 86b3 893b
-0.037177976 0.045800198 0.109322 -0.04566911 -0.054036178 0.07997019 -0.0068363487 -0.06449467
0.06637207 -0.03764604 0.11038508 0.009422639 -0.040243108 -0.07447863 -0.035138886 -0.02430414
0.023627969 0.08271686 -0.015637495 0.04782182 0.00011154379 -0.043008946 -0.010919497 -0.030453432
-0.02695302 0.019344129 0.034690138 -0.008490464 -0.02458452 0.061937686 -0.061717466 0.07411421
-0.024045166 0.08666508 -0.061924685 -0.03031936 -0.05202957 -0.035084687 0.039332215 -0.059768416
-0.006134523 0.031657413 -0.029289769 -0.030559568 0.05385072 0.00045687938 0.01188255 -0.00282405
0.106734976 -0.03387372 -0.057258684 0.043517962 -0.053745233 0.089428 0.01759486 -0.019103168
0.04276226 0.029042177 0.028512439 0.004202309

tcn.2.conv1.weight_g f4 [60, 1, 1]
00000000: c851 123f 5788 0e3f 9d15 133f 60e7 113f
00000010: a67b 0f3f 3638 103f 0368 0c3f 767b 0f3f
00000020: 52b6 133f 7d1a 143f 95b0 0f3f 330c 163f
00000030: baf1 103f 1ae9 173f 39c7 053f b4bf 123f
00000040: e650 133f 3ac7 103f 90a4 0b3f e9bb 073f
00000050: 3d2b 123f 31f4 1c3f 0db9 0e3f bb90 113f
00000060: bbca 153f 2f91 103f 3809 143f 165f 113f
00000070: 29ab 173f a5a9 163f e541 153f df31 103f
00000080: 3fc9 103f 8902 143f d294 103f 57f8 133f
00000090: c47c 133f 2c7b 0c3f 302e 103f c67f 133f
000000a0: 70ec 0f3f 0254 083f 8c3d 0c3f 8c03 153f
000000b0: eb7d 193f a565 0b3f 910e 0c3f d43e 143f
000000c0: 3a4a 083f a289 083f 39b3 123f c506 173f
000000d0: 0a88 0b3f ab1f 073f 2db9 123f 4fb8 0d3f
000000e0: 993f 113f 0b56 113f 6031 133f 6a1c 073f
0.5715604 0.5567679 0.57454854 0.56993675 0.5604805 0.5633577 0.5484621 0.5604776
0.57700074 0.5785292 0.5612882 0.58612365 0.56618845 0.5934006 0.52257115 0.57323766
0.57545316 0.56553996 0.5454798 0.53021103 0.57097226 0.61310107 0.55751115 0.56861466
0.5851247 0.5647153 0.57826567 0.56785715 0.59245545 0.58852607 0.5830367 0.563261
0.5655708 0.5781637 0.5647708 0.5780081 0.5761225 0.54875445 0.56320477 0.5761684
0.5622015 0.53253186 0.54781413 0.5820854 0.5995776 0.5445197 0.54709727 0.5790837
0.5323826 0.5333501 0.5730472 0.58994704 0.54504454 0.52782696 0.57313806 0.5535936
0.5673767 0.56771916 0.57497215 0.5277773

tcn.2.conv1.weight_v f4 [60, 60, 5]
00000000: 72f6 25bd 6a13 493d 3018 1a3c 1232 c6bc
00000010: 365e 0b3d a0ec 44bd 2f64 ca3c 955e 3fbd
00000020: b8de 14bb 6b5c 513d a5a2 5d3b 2a94 bbbc
00000030: bdaf 473d 21e1 bc3c 1081 4e3d ea46 77bc
00000040: d9b7 44bd aee7 aebc fad1 093d 605b 303d
00000050: 414d 6dbc 0f1d 0d3b f513 14bd 1be4 1cbd
00000060: b12a 633d dd1f 973c a75b 0b3d 5cb4 073d
00000070: 58de 00bd 3a68 5abd 6f6b 123b a1bd 5d3c
00000080: ff60 3fbd 89b8 51bd ada0 39bd 0ae5 54bd
00000090: a6e6 8e3b 574b 27bd 73dc 60bc 42dc ea3c
000000a0: b273 5a3d d145 0bbd 1f8d 47bc 1ea8 c83c
000000b0: 7775 0f3d 4ec0 69bb a2e1 0c3b a1c3 1b3d
000000c0: f191 2e3d b129 f03c 3c6f 18bd a248 1cbc
000000d0: 7c8f 1c3d 808f 253d 6fc8 9dbc 0729 273c
000000e0: f362 1e3c e704 b7bc 3426 61ba f4dc 5ebd
000000f0: 39a0 d2bc a50f 2d3d 3297 663d 8f90 473d
00000100: fec2 483d 18db b13b 4453 d43c 23ac a1bc
00000110: bc3b 4fbd 7bda 843c f72f 2dbc b776 15bd
00000120: 8ddb 633d cc79 d0bc 1a5d 89bc f5dd 583c
00000130: dc4d 193d 3950 3abc d881 a0bb fe98 eabc
00000140: dd68 38bd 5c22 493d 25de 5bba c07f 56bd
00000150: 541f 2d3d 0a99 2fbd 1b77 56bd 36b1 0a3d
00000160: e2c5 6abd 30de c53c fc90 0d3d 50e3 ebbc
00000170: 3576 a6bc 66cf fd3c 88f9 ec3c cd28 2a3d
00000180: d388 20bd 39be 1abc 436e a8bc 63ed 18bd
00000190: 6c71 08bd 3734 393d 78e6 a43c 3eb4 713c
000001a0: 73cc 093d dd09 503d dbd1 f43b 664f c1bc
000001b0: 99a4 09bc db7b 57bc 9477 ac3c a4ef 00bd
000001c0: 1e10 803a 2800 16bd fd93 303d e487 54bd
000001d0: 7522 573b 1667 6fbc b160 e03c b90a 95bc
000001e0: ffe9 eebc 6b95 b43c 7212 c13c b361 4a3d
000001f0: 1447 f1bc a193 0abd 984f f3bc c9b7 9c3c
00000200: 9fe1 ba3c 3e24 38bc a22f ebbc c96a 03ba
00000210: 2e45 843c 6754 f03c d6e2 42bd 896c 5abc
00000220: 3e49 9b3c b4fe 613c 6310 73bb 286e ab3b
00000230: fb4b 123d e93f bd3c d59f 623c cd34 89bc
00000240: f088 053d 5069 08bd eecb 533c 5c6f 49bc
00000250: b91b 44bd c16a a43c 3bc8 58bd 9bc4 48bd
00000260: 6173 f93c 7cc6 b43c 53e3 bd3c a6fc 46bd
00000270: b728 57bd 11fa e63c c097 ac3c 739f 883c
00000280: def2 d2bc 6eea 5cbd e90c 68bd da74 2b3d
00000290: 30e0 92bc 3d35 1b3c 0abd 3cbc 6aeb f4bc
000002a0: f0f1 283b acc1 2bbd 42b5 25bd ba37 143c
000002b0: 9585 4c3d 3992 053d 0ecb c2bc 9d51 81bc
000002c0: d033 f6bc 4ebf 803b b729 39bd 06f6 a43c
000002d0: 4b4b afbc 7eac 583c 53a5 1f3d df51 963c
000002e0: 30db 2e3d eeee 25bd bbc9 533d da2c 183d
000002f0: f79b 8c3c 28f6 40bc 5273 6dbd da98 473c
00000300: 6f59 4a3d 30cd 1fbd 219e 063d 6a61 5fbd
00000310: f68f 13bd d45e f7bb d535 5abd 81cb 493d
00000320: 5506 a8bc d9b7 183b 9783 54bd c358 4d3d
00000330: f2ce abbc f8db bdbc b81c fcba 9535 35bd
00000340: 7df1 e4bc 85e5 0cbd 0ed3 363d c23f d1bc
00000350: 852e 013d e8ed 463d 9876 5f3d 3dfd 483d
00000360: 0a28 183d 600e 6cbc b2ac d33c 1b2d d43c
00000370: ec97 133d 323a 24bd abf1 5c3d 76f5 e7bb
00000380: e3b9 46bc 4709 31bd 94a6 e53c c60d c7bc
00000390: 2201 183c 9821 d0bc d8a9 533d 840a 9abc
000003a0: bf2b 283d 43b9 53bc 81ab 18bc fb33 27bc
000003b0: 23db 33bd fa41 1abc 8d83 48bb 4928 363c
000003c0: 3847 42bc 801b 763c bdbf d73c 063c 913b
000003d0: 7ecc 46bd 330b fa3c e61c 83bb dbb9 193d
000003e0: 7e28 1bbb 1faa 3fbd 187f 583d 9d58 c93c
000003f0: b679 d8bc d655 553c 1e34 49bd f7f3 ecbc
-0.04051823 0.04909078 0.009405181 -0.024193797 0.034025393 -0.048077226 0.024705974 -0.04672106
-0.0022715759 0.051113527 0.0033818868 -0.022897799 0.04875158 0.023056569 0.050416052 -0.015092591
-0.048026893 -0.021350708 0.033647515 0.043055892 -0.014483751 0.0021532213 -0.036151845 -0.038303476
0.055460636 0.01844781 0.034022953 0.03313099 -0.031462044 -0.053322054 0.0022341867 0.013533981
-0.046723362 -0.051201377 -0.045319248 -0.05197624 0.0043609915 -0.040843334 -0.013724434 0.02866948
0.053332992 -0.03400213 -0.012179642 0.024494227 0.035024133 -0.00356676 0.0021496792 0.038028363
0.04261965 0.029316755 -0.037215456 -0.009538801 0.038222775 0.040420055 -0.019260613 0.010202653
0.009667146 -0.022341205 -0.00085887616 -0.054409936 -0.025711166 0.042251248 0.056296535 0.048721846
0.049014084 0.0054277293 0.02591861 -0.019735401 -0.050594077 0.01621746 -0.010570518 -0.03649017
0.0556293 -0.025448702 -0.016768027 0.013236512 0.037427768 -0.011371666 -0.004898291 -0.028637405
-0.04502188 0.049105033 -0.0008387289 -0.052367926 0.042266205 -0.04287056 -0.05235968 0.033860408
-0.057317622 0.024153799 0.034562096 -0.028794914 -0.020320037 0.030982684 0.02892758 0.041542817
-0.039192986 -0.009444767 -0.02056039 -0.037335765 -0.033311293 0.04521581 0.020129427 0.014752446
0.033642244 0.050790656 0.007471306 -0.02359743 -0.00840106 -0.013152088 0.021053113 -0.03147854
0.0009770428 -0.036621243 0.043109883 -0.051887408 0.0032826934 -0.01461198 0.027389856 -0.01819359
-0.029164312 0.022043904 0.023568366 0.04940958 -0.029452838 -0.033832196 -0.02970104 0.019130604
0.022812663 -0.01123911 -0.028709237 -0.00050131656 0.016146269 0.029337121 -0.04757961 -0.013331541
0.018955823 0.013793636 -0.0037088625 0.0052316375 0.035716992 0.023101764 0.013832052 -0.01674881
0.032601297 -0.03330356 0.012927039 -0.012294617 -0.047878 0.020070435 -0.05292533 -0.049015623
0.030450525 0.022067301 0.023179686 -0.048580788 -0.052529063 0.028195413 0.021068454 0.016677594
-0.025750574 -0.053934507 -0.056652937 0.041859485 -0.017929167 0.009473142 -0.01151968 -0.02989741
0.0025778972 -0.041932747 -0.040456064 0.009046489 0.04993208 0.032610152 -0.023778465 -0.015785987
-0.030054003 0.0039290553 -0.045205798 0.020136844 -0.021398207 0.013224719 0.038976025 0.018349586
0.042689502 -0.040511064 0.051706057 0.03715215 0.017164214 -0.011777438 -0.057971306 0.012182439
0.049401697 -0.03901404 0.032865647 -0.05453626 -0.036025964 -0.007549146 -0.053273994 0.049266342
-0.020510832 0.002330294 -0.051883306 0.050133478 -0.020972703 -0.023176178 -0.0019234633 -0.044240553
-0.027947182 -0.034398574 0.04463487 -0.025543097 0.031538505 0.04856673 0.05455646 0.04906963
0.03714756 -0.014407724 0.025839183 0.025900414 0.036033556 -0.040094562 0.05394141 -0.007078822
-0.01212928 -0.04322174 0.028033532 -0.02429856 0.009277614 -0.025406644 0.051675647 -0.018803842
0.041057345 -0.012922588 -0.0093182335 -0.010205264 -0.043910157 -0.009415144 -0.0030595989 0.011118003
-0.0118578 0.015021205 0.026336545 0.004432204 -0.048534863 0.030522918 -0.0040012477 0.03753076
-0.0023675258 -0.0467931 0.05285558 0.024578387 -0.026425224 0.013020953 -0.04912197 -0.028924925

tcn.2.conv2.bias f4 [60]
00000000: c82f ffbc 8805 63bd 0b1d 373d 7ba7 7f3d
00000010: 741d c23d a0c8 b3bc 0c89 c3bd a867 943b
00000020: d5bd febc a29a 94bd faf2 643d 392f c0bb
00000030: 894e e63c a007 7b3d a640 e53c ccd3 7e3d
00000040: 9b6d db3c bf11 2b3c 34d9 823d 60d5 05bd
00000050: 9075 073d 0e15 893d 4d1d 09bc f916 15bc
00000060: 8371 0abd 6131 8a3c d48e a93d a108 06bd
00000070: 1369 4dbd 8d2d 97bc ec73 abbb 1719 8cbd
00000080: 5011 59bd 09c9 be3d b479 a83c 5a8b 90bd
00000090: 157a 6b3c a8c9 c1bb 8dbb 0d3d 074e 8abc
000000a0: 8111 5d3d b0ec 42bd a514 7b3b 8f66 e1bc
000000b0: ff3c 1c3d f57c 0abd db30 34bd 5e09 373d
000000c0: 0f10 873d 55b8 723d f0a4 64bc af8f 96bd
000000d0: f07b 8fbd d6cf 703c a581 4abd f289 3dbd
000000e0: 3392 9cbd e1bb b13c e939 023d 01f5 a73b
-0.031150714 -0.055425197 0.044705432 0.06241558 0.09478274 -0.021946251 -0.09547624 0.0045289584
-0.031096378 -0.07256056 0.055895783 -0.0058650044 0.02811362 0.06128657 0.027984928 0.062213704
0.026785662 0.010441243 0.063890845 -0.032674193 0.0330711 0.06693469 -0.008368802 -0.009099715
-0.03379966 0.016869249 0.082791954 -0.032723073 -0.050149035 -0.018454337 -0.005232325 -0.06840723
-0.052995026 0.09315688 0.020565845 -0.07057829 0.014372368 -0.005913932 0.03460269 -0.01688291
0.05397177 -0.047589004 0.0038311866 -0.027514724 0.038144108 -0.033810575 -0.043991905 0.044686668
0.0659486 0.059257824 -0.01395534 -0.07351624 -0.07006061 0.014697989 -0.049440045 -0.046274133
-0.07645073 0.021696033 0.03179351 0.0051256423

tcn.2.conv2.weight_g f4 [60, 1, 1]
00000000: b022 103f cf28 0d3f 7901 123f cb00 113f
00000010: 15dc 193f d0a5 0c3f 2f0e 0b3f 6f40 153f
00000020: 79ab f93e eb75 0b3f 748d 0f3f a394 103f
00000030: 28cf 083f 5333 183f e80e 0e3f cca5 073f
00000040: 778a 113f c0dc 0b3f 6623 043f fed1 083f
00000050: 13b0 073f 8e02 153f 2113 113f 6f4f 183f
00000060: 8fe5 113f 08f3 073f 1218 173f 50ba 123f
00000070: 4db5 0a3f da0f 1b3f e90e ff3e 7359 0f3f
00000080: 5c10 123f 22e1 113f 496a 113f 8539 173f
00000090: 3dd6 143f 75a7 0e3f e563 113f 9dad 133f
000000a0: fdd0 103f d05c 083f 970d ff3e 59de 133f
000000b0: eef9 033f 4717 0d3f 865a 113f f110 113f
000000c0: 8e54 123f 33c7 0b3f 1d2c 0d3f ea74 113f
000000d0: 2acd 123f 9e17 0f3f 9915 0d3f db78 143f
000000e0: f354 103f ae20 0d3f f0d1 043f 6893 033f
0.5630293 0.55140394 0.570335 0.56641835 0.60101444 0.5494051 0.5431852 0.5830144
0.48763636 0.54476804 0.56075215 0.564768 0.53441095 0.59453315 0.55491495 0.5298736
0.56851906 0.5463371 0.51616514 0.5344542 0.5300304 0.58207023 0.56669813 0.59496206
0.56990904 0.5310521 0.59021103 0.5731554 0.54182893 0.6057106 0.49816063 0.55995864
0.5705621 0.5698415 0.56802803 0.5907214 0.581394 0.5572427 0.5679305 0.5768679
0.5656889 0.5326662 0.49815056 0.5776115 0.5155324 0.55113643 0.5677875 0.56666476
0.5716027 0.5460083 0.55145437 0.5681902 0.57344306 0.5589541 0.5511108 0.5799691
0.5637962 0.5512799 0.5188284 0.513968
