raisimGymTorch/raisimGymTorch/algo/ppo/student/models/tcn_student 0.3061.pth (torch, 900915 bytes, 74 tensors)

tcn.0.conv1.bias f4 [60]
0	0xbc2ed1f6	-0.010670176
1	0x3d307706	0.04308226
2	0x3ae18b05	0.0017207569
3	0xbd2d0a50	-0.042246163
4	0xbb28d2c3	-0.002576039
5	0x3c75b318	0.014996313
6	0xbbc77fdb	-0.0060882396
7	0x3dd62fdf	0.104583494
8	0x3ceb7499	0.028742122
9	0x3d4e0708	0.050299674
10	0x3d933ecc	0.07189712
11	0x3d8ecccc	0.06972656
12	0x3d68e0c7	0.05685499
13	0xbc89542e	-0.016763773
14	0x3d411cd6	0.04714664
15	0x3cae148a	0.021250028
16	0x3d577a15	0.05260666
17	0x3d95caf5	0.073141016
18	0x3cd738f3	0.026272273
19	0xbd80a74a	-0.06281908
20	0x3d7c852f	0.06165045
21	0x3b690252	0.0035554362
22	0x3d93142d	0.071815826
23	0xbd0aab36	-0.033854686
24	0x3d2e98e5	0.04262628
25	0xbcfb0270	-0.03064081
26	0xbb109c79	-0.0022065921
27	0xbc0cbe96	-0.008590361
28	0x3d2f4adb	0.042795997
29	0x3d3840af	0.044983562
30	0xbcfc79ed	-0.030819857
31	0x3dc34275	0.0953416
32	0x3c34ac2f	0.01102738
33	0x3ac51737	0.0015036826
34	0x3d8dd92b	0.06926187
35	0x3c99043e	0.01867878
36	0x3bd13bd7	0.0063853073
37	0x3cf6892e	0.03009471
38	0xbc40def8	-0.01177191
39	0x3d2ef2ef	0.04271215
40	0x3c2db782	0.010602834
41	0xbcf222e7	-0.029557658
42	0xbd1f6543	-0.03891493
43	0x3c864f82	0.016395334
44	0x3d4aabcf	0.049480256
45	0xbc65ac83	-0.014018181
46	0x3d83b5bd	0.06431148
47	0xbcc1d1f0	-0.023659676
48	0xbd3cdc81	-0.046108726
49	0xbc3d0534	-0.011536885
50	0x3ca30478	0.019899592
51	0xbd354163	-0.04425181
52	0x3c8f5420	0.017496169
53	0xbd18a479	-0.03726623
54	0x3d7cc247	0.061708715
55	0x3d9bb834	0.07603493
56	0x3da59d1f	0.08086609
57	0x3debce7d	0.11513994
58	0xbcb91e83	-0.022597557
59	0x3d04e844	0.03244807

tcn.0.conv1.weight_g f4 [60, 1, 1]
0	0x3f08f40c	0.53497386
1	0x3f01ca54	0.50699353
2	0x3ef7d38e	0.4840359
3	0x3f15ae16	0.5846876
4	0x3f10ac18	0.56512594
5	0x3f092b47	0.5358166
6	0x3f14cab6	0.5812181
7	0x3f119121	0.56862074
8	0x3f001e96	0.5004667
9	0x3f1a111f	0.60182375
10	0x3f11160c	0.56674266
11	0x3f0e51f6	0.5559381
12	0x3f118cfd	0.56855756
13	0x3f08ea1e	0.53482234
14	0x3f0de152	0.55421937
15	0x3f07f51a	0.5310837
16	0x3f1d100e	0.6135262
17	0x3f16a214	0.5884106
18	0x3f025471	0.509101
19	0x3f09f8c8	0.53895235
20	0x3f19652f	0.5992002
21	0x3f0a9c24	0.541445
22	0x3f0655a2	0.52474415
23	0x3f03537d	0.5129927
24	0x3f07fac4	0.5311701
25	0x3f0ac92c	0.54213214
26	0x3f0ac9cb	0.5421416
27	0x3efd8e35	0.49522558
28	0x3f15afd6	0.5847143
29	0x3f131cb7	0.5746569
30	0x3efd97c3	0.49529848
31	0x3f1f2bd6	0.62176263
32	0x3f12efac	0.5739696
33	0x3f099cd7	0.53754944
34	0x3f107e46	0.5644268
35	0x3f11a6dc	0.5689523
36	0x3f0de6cf	0.5543031
37	0x3f0f4ebf	0.5597953
38	0x3f0488d0	0.5177126
39	0x3f080b6f	0.53142446
40	0x3f12e6f2	0.57383645
41	0x3f109486	0.5647663
42	0x3f10ca63	0.5655882
43	0x3f035309	0.51298577
44	0x3f046c14	0.51727414
45	0x3f1eeee2	0.62083256
46	0x3f143540	0.57893753
47	0x3f1529e7	0.5826706
48	0x3f06ebfd	0.5270384
49	0x3f1418b4	0.57850194
50	0x3f0e4555	0.5557454
51	0x3f13edb2	0.5778457
52	0x3f103c0e	0.56341636
53	0x3f089153	0.5334675
54	0x3f0fd1ea	0.5617968
55	0x3f0f7504	0.56037927
56	0x3f0da48c	0.55329204
57	0x3f177adf	0.5917186
58	0x3f1093fd	0.5647581
59	0x3f11482b	0.56750745

tcn.0.conv1.weight_v f4 [60, 60, 5]
0	0x3cea812e	0.02862605
1	0xbc662905	-0.014047866
2	0xbc0bd946	-0.008535689
3	0x3c5f2cd5	0.013621529
4	0xbcf687ba	-0.030094016
5	0xbc229d28	-0.009925164
6	0xbb4eb279	-0.0031539483
7	0x3d095bf8	0.033534974
8	0x3cd9b7a9	0.026576834
9	0xbcf13885	-0.029445896
10	0x3c99b424	0.018762656
11	0xbcab5244	-0.02091325
12	0x3cf25f34	0.029586412
13	0x3cc3684e	0.023853447
14	0xbd1c5cd3	-0.03817446
15	0x3c08c05e	0.008346645
16	0xbc852d0b	-0.01625683
17	0x3ccffd69	0.02538939
18	0xbc7ee147	-0.01555664
19	0xbcf2a30a	-0.029618759
20	0x3c9d07ec	0.019168817
21	0xba691c83	-0.0008892493
22	0xbbb3f967	-0.0054923776
23	0x3caad282	0.020852331
24	0xbcb97132	-0.022636984
25	0x3c75a653	0.014993268
26	0xbc3f01dc	-0.011658158
27	0xbcafbe84	-0.02145315
28	0x3cd5d740	0.026103616
29	0xbcd6b349	-0.026208537
30	0x3beb9124	0.007188933
31	0x39a8e2ba	0.00032212381
32	0x3d1c288b	0.038124602
33	0xbc1f3360	-0.009716839
34	0xbd1c720f	-0.038194712
35	0xbc1ba36a	-0.00949941
36	0xbb1fac61	-0.002436422
37	0x3cc7e2eb	0.024400195
38	0xbcb2f13a	-0.021843541
39	0xbd114162	-0.035462745
40	0x3cd1ead8	0.025624678
41	0xbcfa43ab	-0.030549845
42	0xbc6133e3	-0.013745281
43	0x3cbec196	0.023285668
44	0xbc11282d	-0.008859676
45	0x3cb4e206	0.022080433
46	0x3ad20164	0.0016022143
47	0x3cbbbbcf	0.022916703
48	0xbb59ade4	-0.003321522
49	0xbd040402	-0.032230385
50	0x3d06c141	0.032899145
51	0x3a407de3	0.00073429773
52	0xbbe892e1	-0.0070975875
53	0x3b8a14c4	0.0042139012
54	0xbb5b3de0	-0.0033453628
55	0x3c65844c	0.014008593
56	0xbcfe0de9	-0.031012492
57	0xbb6f059d	-0.0036471852
58	0x3c64652e	0.013940139
59	0xbd1842b9	-0.037173007
60	0x3d1c89af	0.038217243
61	0xbc13ca68	-0.009020425
62	0x3d17b0bc	0.03703378
63	0x3ca0f788	0.019649282
64	0xbd20975a	-0.03920684
65	0x3c1f8196	0.009735486
66	0xbbd2eac8	-0.0064366795
67	0x3cbf4f36	0.0233532
68	0x3ca1708d	0.019706989
69	0xbd1b9f2c	-0.037993595
70	0xbb4745a6	-0.0030406504
71	0xbba829c3	-0.0051319315
72	0xbc979f2c	-0.018508516
73	0xbc85157b	-0.016245594
74	0xbcd87c17	-0.026426358
75	0x3bbb73ca	0.0057205902
76	0x3aa83e5e	0.001283597
77	0x3cb7d9fd	0.022442812
78	0xbc81a5bb	-0.015826097
79	0xbced5a98	-0.028973863
80	0x3b875dcc	0.0041310545
81	0xbce898dd	-0.028393203
82	0xbc6fd40e	-0.01463796
83	0x3cc96a9f	0.024586974
84	0xbcd0a1b8	-0.025467739
85	0xbc0baabf	-0.008524596
86	0xbb61f9be	-0.0034481133
87	0x3d1ad3ec	0.03779976
88	0xbc528246	-0.012848442
89	0xbc54623a	-0.012962872
90	0x3bcebc81	0.0063090925
91	0x3b8c8436	0.0042882217
92	0x3cdf8962	0.027287189
93	0xbc32dfc3	-0.010917607
94	0xbcb53e0d	-0.022124315
95	0x3ce13936	0.0274931
96	0xbc85b5cd	-0.01632204
97	0xbc5caf75	-0.013469567
98	0xbc6a2d20	-0.014292985
99	0xbd2ca201	-0.042146686
100	0xbc1d6673	-0.009606945
101	0xbabff088	-0.0014643827
102	0x3c8afc98	0.01696615
103	0x3cb7f00e	0.022453334
104	0xbd153aac	-0.036432907
105	0x3d0651e3	0.032792937
106	0xbc1f28dc	-0.0097143315
107	0x3d01e6a0	0.03171408
108	0x3c8f9cf5	0.017530898
109	0xbc9d7c46	-0.019224297
110	0x3cf15bd1	0.029462727
111	0xbd0cf7ba	-0.034415938
112	0x3d11acad	0.035565067
113	0xbb1984d1	-0.0023425112
114	0xbd15bca4	-0.036556855
115	0x3c4c831c	0.012482431
116	0xbc0fad60	-0.008769363
117	0x3d1b0590	0.0378471
118	0x3cc75cf0	0.024336308
119	0xbcc01d63	-0.023451513
120	0x3c66bc40	0.014082968
121	0xbca98e1f	-0.020697651
122	0x3d094787	0.03351548
123	0x3c7ce36a	0.015435079
124	0xbc78c439	-0.015183502
125	0x3c236a6d	0.009974104
126	0xbb271c27	-0.0025498958
127	0xbbbc7a6c	-0.0057518985
128	0x3bd99bbd	0.00664088
129	0xbd35d31e	-0.04439079
130	0x3c39c9ca	0.011339614
131	0x3b8c8daf	0.004289351
132	0xbc1cac7d	-0.009562609
133	0x3c6498ba	0.0139524285
134	0xbbdb3fe6	-0.006690967
135	0xbb4a97ba	-0.003091319
136	0x3ba9ae37	0.0051782387
137	0x3cfe044b	0.031007906
138	0x3bd0d176	0.006372626
139	0xbd428f48	-0.047499925
140	0x3c40b63c	0.011762198
141	0xbc1b1f5c	-0.009467926
142	0xbc4d69da	-0.012537444
143	0x3c20b642	0.009809079
144	0xbc7409ea	-0.014894942
145	0x3cb4191e	0.021984633
146	0xbba6c0fa	-0.0050889226
147	0x3d001f31	0.031279746
148	0x3c081ec9	0.008308121
149	0xbcb8baf2	-0.02255008
150	0xbc18e293	-0.009331363
151	0xbc54b959	-0.012983643
152	0xbc8c89ad	-0.017155493
153	0x3c48bc4d	0.012251926
154	0xbcdad4b6	-0.026712757
155	0x3d0fa1fd	0.035066593
156	0xba019c81	-0.00049442804
157	0x3d085a8f	0.03328949
158	0xbc030652	-0.007997112
159	0xbc2c174b	-0.0105036
160	0x3d111200	0.035417557
161	0x3c074986	0.008257275
162	0x3cb91134	0.02259121
163	0xbbb02972	-0.0053760344
164	0xbcd16528	-0.02556093
165	0x3bec43a6	0.0072102128
166	0xbc5f9fdb	-0.013648952
167	0x3c68ae5a	0.014201725
168	0x3c95911f	0.018257676
169	0xbc821f66	-0.015884113
170	0x3bef2661	0.0072982763
171	0xbc0f8bb8	-0.008761339
172	0x3c99524d	0.018716002
173	0xbc06ca82	-0.008226993
174	0xbbc21e62	-0.005924032
175	0x3c256b56	0.010096392
176	0xbd0de12b	-0.034638565
177	0x3c7630a6	0.015026247
178	0x3caa46d8	0.020785734
179	0xbd384fdb	-0.04499803
180	0x3ceff293	0.029290473
181	0xbcac006d	-0.020996297
182	0xbca01f40	-0.019546151
183	0xbadba00e	-0.0016756074
184	0xbd0c4715	-0.034247477
185	0x3cd83d45	0.026396403
186	0x3b7e074c	0.0038761673
187	0x3c8c08cc	0.017094038
188	0x3c3f6650	0.011682108
189	0xbd0168e7	-0.031594183
190	0x3d141af3	0.036158513
191	0xbd00829d	-0.031374563
192	0x3d09fde5	0.0336894
193	0x3c43d10e	0.011951698
194	0xbc9625b1	-0.01832852
195	0x3ca0f85e	0.01964968
196	0x3b9b0cb7	0.0047317403
197	0x3cce7b4c	0.025205277
198	0xbc8615a7	-0.016367747
199	0xbcee92f0	-0.0291228
200	0x3c1bc270	0.009506807
201	0xbd261933	-0.040551376
202	0x3cf46b0b	0.029836198
203	0x3c04e8c8	0.00811214
204	0xbc1f45e0	-0.009721249
205	0x3c90cc91	0.01767567
206	0x3bcd52f5	0.0062659928
207	0xbbc52882	-0.006016792
208	0xbc29b366	-0.010357713
209	0xbd32ccf4	-0.04365249
210	0x3c785299	0.015156412
211	0xbd273bd9	-0.04082856
212	0x3cc0b5b5	0.023524145
213	0x3cb1825d	0.021668607
214	0xbd393c7c	-0.045223698
215	0x3ca80841	0.020511748
216	0x3bc7a931	0.0060931672
217	0xbcc8f2f9	-0.02452992
218	0x3ca7428a	0.02041747
219	0xbc43b040	-0.011943877
220	0xbbe1ea52	-0.0068943882
221	0xbb97a264	-0.004627513
222	0x39f00610	0.00045780884
223	0xbbe9759f	-0.007124617
224	0xbc0c4cae	-0.008563204
225	0x3c09c5eb	0.008409004
226	0xbbf8e6c6	-0.0075958697
227	0x3c834289	0.016022937
228	0x3c0eba8c	0.008711468
229	0xbd37eb02	-0.044901855
230	0x3c426405	0.011864667
231	0xba8b499d	-0.0010626797
232	0xbc383bd3	-0.011244732
233	0xbbbab07c	-0.005697308
234	0xbcce46b5	-0.0251802
235	0x3d135fbd	0.035979975
236	0xbd2db66f	-0.04241031
237	0x3cd1582b	0.025554737
238	0xbc15af83	-0.009136084
239	0xbd055f1d	-0.03256141
240	0x3d2b6924	0.041848317
241	0xbb4f953e	-0.0031674649
242	0x3d088b11	0.03333575
243	0xbc9fcb96	-0.019506257
244	0xbd0f7aba	-0.03502915
245	0x3c854c55	0.01627175
246	0xbb3507aa	-0.0027622976
247	0xbb810f82	-0.0039386163
248	0xbc92254f	-0.017840056
249	0xbd3a3314	-0.04545887
250	0x3b0e967f	0.0021757183
251	0xbb0f5107	-0.0021868364
252	0x3c190cf0	0.009341463
253	0xbc4127bd	-0.0117892595
254	0xbc82dabf	-0.015973447
255	0x3a19d74e	0.000586857

tcn.0.conv2.bias f4 [60]
0	0xbb8f5bab	-0.0043749413
1	0xbc29a914	-0.010355253
2	0x3d8ec19d	0.069705226
3	0xbc08cc4d	-0.00834949
4	0xbdad95a6	-0.08475809
5	0x3c1e8a17	0.009676478
6	0x3c63e728	0.013910092
7	0x3d6ca760	0.05777681
8	0x3d81acd3	0.06331792
9	0x3d8561ab	0.06512769
10	0xbc936641	-0.017993094
11	0x3d4e04ac	0.050297424
12	0xbbe0e907	-0.0068637165
13	0xb7bf25e5	-2.278662e-05
14	0x3cc60edf	0.024177013
15	0x3cf8222b	0.03028973
16	0x3e0a3491	0.13496615
17	0xbb1a9f3b	-0.0023593444
18	0xbd08c219	-0.03338823
19	0xbcc981f8	-0.024598107
20	0x380046cf	3.0583524e-05
21	0x3c8d53ed	0.017251933
22	0x3d975efe	0.07391165
23	0xbd653ae9	-0.055964384
24	0xbd2b3e0f	-0.04180723
25	0xbcec5a64	-0.028851695
26	0x3d1b9d1a	0.03799162
27	0xbd4f6d72	-0.050641485
28	0xbd027b12	-0.03185565
29	0x3c865c37	0.016401393
30	0x3bc7266b	0.006077578
31	0x3d0357d6	0.03206619
32	0x3cc45569	0.023966508
33	0x3dd75355	0.10513941
34	0x3d5c4ac7	0.05378225
35	0xbd80336d	-0.06259809
36	0xbcd4acc0	-0.02596128
37	0xbdb69935	-0.08915941
38	0x3c256938	0.010095887
39	0x3c92f188	0.017937437
40	0xbb80a236	-0.003925587
41	0x3bc9feb5	0.0061643966
42	0x3d8f04df	0.06983351
43	0x3c3b18e5	0.01141951
44	0xbd180e17	-0.037122812
45	0xbb8ed7de	-0.0043592295
46	0x3d2652bd	0.04060625
47	0x3d7c5d44	0.061612383
48	0x3e0daa18	0.13834417
49	0x3c187edc	0.009307589
50	0x3dd7e1d1	0.10541118
51	0x3dcf11fb	0.101108514
52	0xbd7951cd	-0.060869027
53	0x3bba1ab5	0.0056794533
54	0xbd11c9aa	-0.035592712
55	0xbc2a6d77	-0.010402075
56	0x3d7724f5	0.06033798
57	0x3d88ea36	0.06685297
58	0x3b8bafbd	0.004262893
59	0xbc0f7d3e	-0.008757887

tcn.0.conv2.weight_g f4 [60, 1, 1]
0	0x3f04519e	0.5168704
1	0x3ebfbfc1	0.37450984
2	0x3f03fb9b	0.51555794
3	0x3ef414ec	0.47672212
4	0x3f0dd8c2	0.5540887
5	0x3eb40b3b	0.35164818
6	0x3f14f98f	0.58193296
7	0x3f0c7596	0.5486692
8	0x3f146d07	0.5797886
9	0x3f1757a1	0.59118086
10	0x3f0d8540	0.5528145
11	0x3f035c18	0.513124
12	0x3f0ccf81	0.55004126
13	0x3e241da3	0.1602693
14	0x3f0ee5bd	0.558193
15	0x3f065980	0.52480316
16	0x3f082d78	0.5319438
17	0x3e77575d	0.2415442
18	0x3eb8dc31	0.36105493
19	0x3f077cd6	0.5292486
20	0x3e257a3a	0.16159907
21	0x3f0e4047	0.5556683
22	0x3ed811ea	0.42201167
23	0x3f0caf39	0.5495487
24	0x3f0b4cfb	0.5441434
25	0x3f00b348	0.5027356
26	0x3f0be35e	0.5464381
27	0x3f0931f3	0.5359184
28	0x3f07d408	0.5305791
29	0x3f144ad9	0.5792671
30	0x3f13c69c	0.5772493
31	0x3f193724	0.5984976
32	0x3f089fa7	0.5336861
33	0x3eff898d	0.4990963
34	0x3f11a72f	0.56895727
35	0x3f0fe793	0.5621273
36	0x3efab08f	0.4896283
37	0x3f0fa763	0.56114787
38	0x3f07d94c	0.53065944
39	0x3f081b8b	0.5316703
40	0x3f110ceb	0.56660336
41	0x3f0f03d8	0.5586524
42	0x3f1e87a3	0.61925715
43	0x3f116a50	0.56802845
44	0x3f0d218d	0.5512932
45	0x3ec34ddd	0.38145342
46	0x3f048b7d	0.5177534
47	0x3f03e53c	0.5152166
48	0x3f041731	0.5159789
49	0x3f0ff940	0.562397
50	0x3f158167	0.5840058
51	0x3f08fddc	0.5351236
52	0x3f0517f4	0.51989675
53	0x3f0472db	0.51737756
54	0x3ec66210	0.3874669
55	0x3f05dab4	0.5228684
56	0x3f00551d	0.5012987
57	0x3ede49c4	0.43415654
58	0x3f1e1d57	0.6176352
59	0x3ec6b18b	0.3880733

tcn.0.conv2.weight_v f4 [60, 60, 5]
0	0xbce8172d	-0.028331364
1	0xbceb4c65	-0.028722951
2	0x3d80f091	0.062958844
3	0xbcec8afe	-0.02887487
4	0x3a1f0a29	0.00060668826
5	0x35e03a21	1.6706218e-06
6	0x3d31ab90	0.043376505
7	0x3c88535b	0.01664131
8	0x3b09f054	0.0021047788
9	0xbb505d75	-0.0031793986
10	0xbce212b1	-0.027596803
11	0xbcc21b9c	-0.023694806
12	0xbd06d6ed	-0.032919813
13	0x3d1dec7b	0.038555603
14	0x3d3b862a	0.045782246
15	0xbd00e295	-0.031466085
16	0xbc29f9ae	-0.01037447
17	0xbca02bff	-0.019552229
18	0xbda106be	-0.07862614
19	0x3d368e1c	0.04456912
20	0x3cf4a078	0.029861674
21	0x3bf7f889	0.0075674695
22	0x3ca74ece	0.02042332
23	0x3c5dd652	0.0135398675
24	0xbd085d36	-0.033292018
25	0x3d0a47bf	0.03375983
26	0xbd44799c	-0.04796754
27	0xbc897efc	-0.016784184
28	0x3c8a9489	0.01691653
29	0xbbd969d5	-0.0066349306
30	0x3c342e7e	0.010997413
31	0x3cf0e607	0.02940656
32	0xbcb401cf	-0.021973519
33	0x3d6172f0	0.055041254
34	0xbd0a3ff3	-0.033752393
35	0xbbfb6f84	-0.007673206
36	0x3c93bf5d	0.018035585
37	0xbd557a09	-0.052118335
38	0xbd14e7d3	-0.036353897
39	0xbca3808e	-0.01995876
40	0xbc580aa3	-0.01318613
41	0x3d16af53	0.036788296
42	0x3ae712c7	0.0017629497
43	0x3c74184e	0.014898373
44	0x3d4bb088	0.0497289
45	0x3ca3e55e	0.020006832
46	0xbc6e2256	-0.0145345535
47	0xbce8ce83	-0.028418785
48	0x3acb78a3	0.0015523623
49	0xbc5a0d0e	-0.013308777
50	0xbc753553	-0.014966327
51	0xbc19544d	-0.009358478
52	0xbd8ca3d1	-0.06867183
53	0x3cce61dd	0.02519315
54	0x3ca8009b	0.020508101
55	0xbd51945b	-0.051166873
56	0xbd6cf599	-0.057851408
57	0xbc239868	-0.009985067
58	0xbc049126	-0.008091247
59	0x3c03884c	0.008028101
60	0xbcbab0b0	-0.02278933
61	0x3ce6e829	0.028186874
62	0xbcc80578	-0.02441667
63	0x3d6eaa91	0.058268134
64	0xbc428c43	-0.011874261
65	0x3d628792	0.05530507
66	0xbc5363c5	-0.012902205
67	0x3b12da4a	0.0022407942
68	0x3c9ac9ba	0.018895019
69	0xbca331e8	-0.019921258
70	0x3db3421e	0.08752845
71	0x3c645c75	0.013938059
72	0xbccb563e	-0.024821397
73	0x3d39172a	0.045188107
74	0xbc1d87a8	-0.0096148625
75	0x3c9937ad	0.018703306
76	0xbc8ef625	-0.017451355
77	0x3d12aab7	0.035807338
78	0x3d066e59	0.03282008
79	0xbc77ba9c	-0.015120175
80	0xbb830eb3	-0.003999555
81	0xbbc126d8	-0.005894523
82	0x3cb0425f	0.021516023
83	0xbcf4aaed	-0.02986666
84	0xbcd0f2ab	-0.025506338
85	0xbcdcf13f	-0.026970504
86	0x3bd413b3	0.006472075
87	0xbc8a20f3	-0.016861415
88	0x3aa29cb8	0.0012406325
89	0x3a566ab2	0.0008179351
90	0xbc23e880	-0.010004163
91	0x3cc23ad5	0.023709694
92	0xbc59d361	-0.013295026
93	0x3ca7715f	0.020439802
94	0x3be97485	0.007124486
95	0x3c52b59a	0.01286068
96	0xbd87d32c	-0.06632075
97	0xbd119ef3	-0.035551976
98	0xbc1d7893	-0.009611267
99	0xbc0c1ce4	-0.00855181
100	0x3c94d57e	0.018168207
101	0xbcd730ed	-0.026268447
102	0xbcb43f50	-0.022002846
103	0xbc0ba16c	-0.008522373
104	0xbd309ff6	-0.0431213
105	0xbbd59ebf	-0.006519168
106	0x3cdb4965	0.026768396
107	0xbd0c41e8	-0.03424254
108	0xbcf30c87	-0.02966906
109	0xbc7b538b	-0.015339742
110	0xbc2370b9	-0.009975606
111	0x3cf502c4	0.029908545
112	0x3cc51890	0.024059564
113	0xbd7f1ef7	-0.06228539
114	0x3d1b88f4	0.037972406
115	0xbd29c0a4	-0.041443482
116	0xbc33211a	-0.010933185
117	0x3c080ef5	0.008304347
118	0xbcbdea48	-0.023183003
119	0x3cb73f98	0.022369191
120	0xbc261b98	-0.010138415
121	0x3d3b6210	0.045747817
122	0xbb96822a	-0.0045931535
123	0xbb80b69d	-0.003928019
124	0x3d05dcc0	0.032681227
125	0x3ad0662a	0.0015899588
126	0x3be27e3d	0.0069120214
127	0xbd035a22	-0.03206838
128	0xbd4273ed	-0.047473837
129	0x3c54f391	0.012997524
130	0x3cafdeba	0.021468509
131	0x3c95b2a3	0.018273657
132	0x3ceb3231	0.028710457
133	0xbd13f611	-0.03612334
134	0x3b8b77df	0.004256233
135	0xbcc82439	-0.024431335
136	0x39d98e5a	0.00041495526
137	0x3d1a3819	0.037651155
138	0x3d3dbe5f	0.04632413
139	0xbcfc77a7	-0.030818773
140	0x3bfcab9a	0.007710886
141	0xbcd27e20	-0.025694907
142	0xbd0b7e1b	-0.03405581
143	0xbc8b1e3b	-0.016982188
144	0xbd1d7b81	-0.03844786
145	0x3ba45b37	0.0050157565
146	0xbd17216e	-0.036897115
147	0x3c0cc434	0.0085917
148	0xbc833ff0	-0.016021699
149	0xbcf05f45	-0.029342303
150	0xbd7374fd	-0.05943774
151	0x3d1662e9	0.03671542
152	0x3d86c81b	0.06581136
153	0xbc4cd93a	-0.012502963
154	0x3c774f68	0.0150946155
155	0xbb9cc0c0	-0.00478372
156	0xbd521226	-0.05128684
157	0xbd00983c	-0.031395182
158	0xbd1aa0f0	-0.03775114
159	0xbd05d0a6	-0.032669686
160	0x3c66b379	0.014080876
161	0xbca9dda1	-0.020735564
162	0xbc7587e8	-0.014986016
163	0xbd56f8cf	-0.052483376
164	0xbc5c99ea	-0.01346443
165	0xbc3ea827	-0.01163677
166	0x3d1b84f6	0.0379686
167	0x3cc102e7	0.023560954
168	0x3b978120	0.004623547
169	0xbae95f7a	-0.0017804943
170	0xbcdb3962	-0.02676076
171	0x3d9089fa	0.07057567
172	0x3ce2ea93	0.027699744
173	0x3d413446	0.047168992
174	0xbc8312b8	-0.016000137
175	0xbd286b29	-0.04111782
176	0xbbbcee9b	-0.0057657487
177	0x3b8ad3fe	0.004236697
178	0xbc874cf0	-0.016516179
179	0xbac37daa	-0.001491477
180	0xbd2a04d0	-0.041508496
181	0x3cf56dba	0.029959548
182	0x3cb77314	0.02239374
183	0xbd51de5c	-0.05123745
184	0xbcc280d7	-0.023743076
185	0x3dbef25b	0.093235694
186	0xbcc49b3e	-0.023999806
187	0xbc214078	-0.009842031
188	0x3b409f8b	0.002939197
189	0x3cfcb084	0.030845888
190	0x3d39f747	0.045401838
191	0x3cc7a22d	0.024369324
192	0xbcf2070c	-0.029544376
193	0xbd10f883	-0.03539325
194	0xbccfa00d	-0.025344873
195	0xbd37651f	-0.04477417
196	0x3b650211	0.0034943859
197	0x3ce76584	0.028246649
198	0xbcb5090a	-0.022099037
199	0xbd71a6b2	-0.058996864
200	0x3c8c3acd	0.017117882
201	0x3c44ba2a	0.012007276
202	0xbccc5592	-0.024943147
203	0xbc056853	-0.008142549
204	0x3c563df9	0.013076299
205	0xbcfb84b3	-0.030702924
206	0xbd23ac2a	-0.03995911
207	0x3b739f72	0.0037173894
208	0xbcedf852	-0.029049072
209	0x3bcd3b94	0.006263206
210	0x3d0d083f	0.034431692
211	0x3d3629c6	0.044473432
212	0xbd74433a	-0.059634425
213	0xbbcf4a23	-0.0063259765
214	0x3d287ebd	0.041136492
215	0x3abe736c	0.0014530248
216	0x3c3d00c1	0.011535824
217	0xbb709d97	-0.0036715025
218	0xbc23dce6	-0.010001397
219	0x3cbe0372	0.023195002
220	0x3cca7e2c	0.024718367
221	0x3bcbf080	0.006223738
222	0xbc92f914	-0.017941035
223	0xbc4560a4	-0.012046967
224	0x3d82ccd6	0.063867256
225	0x3d210508	0.03931144
226	0xbcf3347d	-0.029688114
227	0x3c635cbf	0.013877093
228	0xbd7a9f7e	-0.06118726
229	0x3bcf88ec	0.006333461
230	0x3c428544	0.011872593
231	0xbd2d1f88	-0.0422664
232	0xbd8266ff	-0.06367301
233	0xbd4fe9b0	-0.05075997
234	0xba342285	-0.0006871599
235	0x3d8b5d14	0.068048626
236	0xbb0888eb	-0.0020833563
237	0xbd625bb4	-0.055263236
238	0xbd646b49	-0.055766378
239	0xbd37764d	-0.044790555
240	0xbd324db0	-0.04353112
241	0x3d0db8b2	0.034599967
242	0xbd30f352	-0.0432008
243	0xbd4203d6	-0.04736694
244	0x3d2deb21	0.042460565
245	0x3cf79b45	0.030225405
246	0x3cdeac6c	0.027181827
247	0xbd779575	-0.060445268
248	0xbd2ec50b	-0.042668384
249	0xbd00aa6c	-0.031412527
250	0x3d8020d2	0.0625626
251	0x3d0f9fb7	0.035064425
252	0x3d196dc1	0.037458185
253	0xbd7f4005	-0.062316913
254	0xbcc4936d	-0.02399608
255	0xbd297be1	-0.041377906

tcn.0.net.0.bias f4 [60]
0	0xbc2ed1f6	-0.010670176
1	0x3d307706	0.04308226
2	0x3ae18b05	0.0017207569
3	0xbd2d0a50	-0.042246163
4	0xbb28d2c3	-0.002576039
5	0x3c75b318	0.014996313
6	0xbbc77fdb	-0.0060882396
7	0x3dd62fdf	0.104583494
8	0x3ceb7499	0.028742122
9	0x3d4e0708	0.050299674
10	0x3d933ecc	0.07189712
11	0x3d8ecccc	0.06972656
12	0x3d68e0c7	0.05685499
13	0xbc89542e	-0.016763773
14	0x3d411cd6	0.04714664
15	0x3cae148a	0.021250028
16	0x3d577a15	0.05260666
17	0x3d95caf5	0.073141016
18	0x3cd738f3	0.026272273
19	0xbd80a74a	-0.06281908
20	0x3d7c852f	0.06165045
21	0x3b690252	0.0035554362
22	0x3d93142d	0.071815826
23	0xbd0aab36	-0.033854686
24	0x3d2e98e5	0.04262628
25	0xbcfb0270	-0.03064081
26	0xbb109c79	-0.0022065921
27	0xbc0cbe96	-0.008590361
28	0x3d2f4adb	0.042795997
29	0x3d3840af	0.044983562
30	0xbcfc79ed	-0.030819857
31	0x3dc34275	0.0953416
32	0x3c34ac2f	0.01102738
33	0x3ac51737	0.0015036826
34	0x3d8dd92b	0.06926187
35	0x3c99043e	0.01867878
36	0x3bd13bd7	0.0063853073
37	0x3cf6892e	0.03009471
38	0xbc40def8	-0.01177191
39	0x3d2ef2ef	0.04271215
40	0x3c2db782	0.010602834
41	0xbcf222e7	-0.029557658
42	0xbd1f6543	-0.03891493
43	0x3c864f82	0.016395334
44	0x3d4aabcf	0.049480256
45	0xbc65ac83	-0.014018181
46	0x3d83b5bd	0.06431148
47	0xbcc1d1f0	-0.023659676
48	0xbd3cdc81	-0.046108726
49	0xbc3d0534	-0.011536885
50	0x3ca30478	0.019899592
51	0xbd354163	-0.04425181
52	0x3c8f5420	0.017496169
53	0xbd18a479	-0.03726623
54	0x3d7cc247	0.061708715
55	0x3d9bb834	0.07603493
56	0x3da59d1f	0.08086609
57	0x3debce7d	0.11513994
58	0xbcb91e83	-0.022597557
59	0x3d04e844	0.03244807

tcn.0.net.0.weight_g f4 [60, 1, 1]
0	0x3f08f40c	0.53497386
1	0x3f01ca54	0.50699353
2	0x3ef7d38e	0.4840359
3	0x3f15ae16	0.5846876
4	0x3f10ac18	0.56512594
5	0x3f092b47	0.5358166
6	0x3f14cab6	0.5812181
7	0x3f119121	0.56862074
8	0x3f001e96	0.5004667
9	0x3f1a111f	0.60182375
10	0x3f11160c	0.56674266
11	0x3f0e51f6	0.5559381
12	0x3f118cfd	0.56855756
13	0x3f08ea1e	0.53482234
14	0x3f0de152	0.55421937
15	0x3f07f51a	0.5310837
16	0x3f1d100e	0.6135262
17	0x3f16a214	0.5884106
18	0x3f025471	0.509101
19	0x3f09f8c8	0.53895235
20	0x3f19652f	0.5992002
21	0x3f0a9c24	0.541445
22	0x3f0655a2	0.52474415
23	0x3f03537d	0.5129927
24	0x3f07fac4	0.5311701
25	0x3f0ac92c	0.54213214
26	0x3f0ac9cb	0.5421416
27	0x3efd8e35	0.49522558
28	0x3f15afd6	0.5847143
29	0x3f131cb7	0.5746569
30	0x3efd97c3	0.49529848
31	0x3f1f2bd6	0.62176263
32	0x3f12efac	0.5739696
33	0x3f099cd7	0.53754944
34	0x3f107e46	0.5644268
35	0x3f11a6dc	0.5689523
36	0x3f0de6cf	0.5543031
37	0x3f0f4ebf	0.5597953
38	0x3f0488d0	0.5177126
39	0x3f080b6f	0.53142446
40	0x3f12e6f2	0.57383645
41	0x3f109486	0.5647663
42	0x3f10ca63	0.5655882
43	0x3f035309	0.51298577
44	0x3f046c14	0.51727414
45	0x3f1eeee2	0.62083256
46	0x3f143540	0.57893753
47	0x3f1529e7	0.5826706
48	0x3f06ebfd	0.5270384
49	0x3f1418b4	0.57850194
50	0x3f0e4555	0.5557454
51	0x3f13edb2	0.5778457
52	0x3f103c0e	0.56341636
53	0x3f089153	0.5334675
54	0x3f0fd1ea	0.5617968
55	0x3f0f7504	0.56037927
56	0x3f0da48c	0.55329204
57	0x3f177adf	0.5917186
58	0x3f1093fd	0.5647581
59	0x3f11482b	0.56750745

tcn.0.net.0.weight_v f4 [60, 60, 5]
0	0x3cea812e	0.02862605
1	0xbc662905	-0.014047866
2	0xbc0bd946	-0.008535689
3	0x3c5f2cd5	0.013621529
4	0xbcf687ba	-0.030094016
5	0xbc229d28	-0.009925164
6	0xbb4eb279	-0.0031539483
7	0x3d095bf8	0.033534974
8	0x3cd9b7a9	0.026576834
9	0xbcf13885	-0.029445896
10	0x3c99b424	0.018762656
11	0xbcab5244	-0.02091325
12	0x3cf25f34	0.029586412
13	0x3cc3684e	0.023853447
14	0xbd1c5cd3	-0.03817446
15	0x3c08c05e	0.008346645
16	0xbc852d0b	-0.01625683
17	0x3ccffd69	0.02538939
18	0xbc7ee147	-0.01555664
19	0xbcf2a30a	-0.029618759
20	0x3c9d07ec	0.019168817
21	0xba691c83	-0.0008892493
22	0xbbb3f967	-0.0054923776
23	0x3caad282	0.020852331
24	0xbcb97132	-0.022636984
25	0x3c75a653	0.014993268
26	0xbc3f01dc	-0.011658158
27	0xbcafbe84	-0.02145315
28	0x3cd5d740	0.026103616
29	0xbcd6b349	-0.026208537
30	0x3beb9124	0.007188933
31	0x39a8e2ba	0.00032212381
32	0x3d1c288b	0.038124602
33	0xbc1f3360	-0.009716839
34	0xbd1c720f	-0.038194712
35	0xbc1ba36a	-0.00949941
36	0xbb1fac61	-0.002436422
37	0x3cc7e2eb	0.024400195
38	0xbcb2f13a	-0.021843541
39	0xbd114162	-0.035462745
40	0x3cd1ead8	0.025624678
41	0xbcfa43ab	-0.030549845
42	0xbc6133e3	-0.013745281
43	0x3cbec196	0.023285668
44	0xbc11282d	-0.008859676
45	0x3cb4e206	0.022080433
46	0x3ad20164	0.0016022143
47	0x3cbbbbcf	0.022916703
48	0xbb59ade4	-0.003321522
49	0xbd040402	-0.032230385
50	0x3d06c141	0.032899145
51	0x3a407de3	0.00073429773
52	0xbbe892e1	-0.0070975875
53	0x3b8a14c4	0.0042139012
54	0xbb5b3de0	-0.0033453628
55	0x3c65844c	0.014008593
56	0xbcfe0de9	-0.031012492
57	0xbb6f059d	-0.0036471852
58	0x3c64652e	0.013940139
59	0xbd1842b9	-0.037173007
60	0x3d1c89af	0.038217243
61	0xbc13ca68	-0.009020425
62	0x3d17b0bc	0.03703378
63	0x3ca0f788	0.019649282
64	0xbd20975a	-0.03920684
65	0x3c1f8196	0.009735486
66	0xbbd2eac8	-0.0064366795
67	0x3cbf4f36	0.0233532
68	0x3ca1708d	0.019706989
69	0xbd1b9f2c	-0.037993595
70	0xbb4745a6	-0.0030406504
71	0xbba829c3	-0.0051319315
72	0xbc979f2c	-0.018508516
73	0xbc85157b	-0.016245594
74	0xbcd87c17	-0.026426358
75	0x3bbb73ca	0.0057205902
76	0x3aa83e5e	0.001283597
77	0x3cb7d9fd	0.022442812
78	0xbc81a5bb	-0.015826097
79	0xbced5a98	-0.028973863
80	0x3b875dcc	0.0041310545
81	0xbce898dd	-0.028393203
82	0xbc6fd40e	-0.01463796
83	0x3cc96a9f	0.024586974
84	0xbcd0a1b8	-0.025467739
85	0xbc0baabf	-0.008524596
86	0xbb61f9be	-0.0034481133
87	0x3d1ad3ec	0.03779976
88	0xbc528246	-0.012848442
89	0xbc54623a	-0.012962872
90	0x3bcebc81	0.0063090925
91	0x3b8c8436	0.0042882217
92	0x3cdf8962	0.027287189
93	0xbc32dfc3	-0.010917607
94	0xbcb53e0d	-0.022124315
95	0x3ce13936	0.0274931
96	0xbc85b5cd	-0.01632204
97	0xbc5caf75	-0.013469567
98	0xbc6a2d20	-0.014292985
99	0xbd2ca201	-0.042146686
100	0xbc1d6673	-0.009606945
101	0xbabff088	-0.0014643827
102	0x3c8afc98	0.01696615
103	0x3cb7f00e	0.022453334
104	0xbd153aac	-0.036432907
105	0x3d0651e3	0.032792937
106	0xbc1f28dc	-0.0097143315
107	0x3d01e6a0	0.03171408
108	0x3c8f9cf5	0.017530898
109	0xbc9d7c46	-0.019224297
110	0x3cf15bd1	0.029462727
111	0xbd0cf7ba	-0.034415938
112	0x3d11acad	0.035565067
113	0xbb1984d1	-0.0023425112
114	0xbd15bca4	-0.036556855
115	0x3c4c831c	0.012482431
116	0xbc0fad60	-0.008769363
117	0x3d1b0590	0.0378471
118	0x3cc75cf0	0.024336308
119	0xbcc01d63	-0.023451513
120	0x3c66bc40	0.014082968
121	0xbca98e1f	-0.020697651
122	0x3d094787	0.03351548
123	0x3c7ce36a	0.015435079
124	0xbc78c439	-0.015183502
125	0x3c236a6d	0.009974104
126	0xbb271c27	-0.0025498958
127	0xbbbc7a6c	-0.0057518985
128	0x3bd99bbd	0.00664088
129	0xbd35d31e	-0.04439079
130	0x3c39c9ca	0.011339614
131	0x3b8c8daf	0.004289351
132	0xbc1cac7d	-0.009562609
133	0x3c6498ba	0.0139524285
134	0xbbdb3fe6	-0.006690967
135	0xbb4a97ba	-0.003091319
136	0x3ba9ae37	0.0051782387
137	0x3cfe044b	0.031007906
138	0x3bd0d176	0.006372626
139	0xbd428f48	-0.047499925
140	0x3c40b63c	0.011762198
141	0xbc1b1f5c	-0.009467926
142	0xbc4d69da	-0.012537444
143	0x3c20b642	0.009809079
144	0xbc7409ea	-0.014894942
145	0x3cb4191e	0.021984633
146	0xbba6c0fa	-0.0050889226
147	0x3d001f31	0.031279746
148	0x3c081ec9	0.008308121
149	0xbcb8baf2	-0.02255008
150	0xbc18e293	-0.009331363
151	0xbc54b959	-0.012983643
152	0xbc8c89ad	-0.017155493
153	0x3c48bc4d	0.012251926
154	0xbcdad4b6	-0.026712757
155	0x3d0fa1fd	0.035066593
156	0xba019c81	-0.00049442804
157	0x3d085a8f	0.03328949
158	0xbc030652	-0.007997112
159	0xbc2c174b	-0.0105036
160	0x3d111200	0.035417557
161	0x3c074986	0.008257275
162	0x3cb91134	0.02259121
163	0xbbb02972	-0.0053760344
164	0xbcd16528	-0.02556093
165	0x3bec43a6	0.0072102128
166	0xbc5f9fdb	-0.013648952
167	0x3c68ae5a	0.014201725
168	0x3c95911f	0.018257676
169	0xbc821f66	-0.015884113
170	0x3bef2661	0.0072982763
171	0xbc0f8bb8	-0.008761339
172	0x3c99524d	0.018716002
173	0xbc06ca82	-0.008226993
174	0xbbc21e62	-0.005924032
175	0x3c256b56	0.010096392
176	0xbd0de12b	-0.034638565
177	0x3c7630a6	0.015026247
178	0x3caa46d8	0.020785734
179	0xbd384fdb	-0.04499803
180	0x3ceff293	0.029290473
181	0xbcac006d	-0.020996297
182	0xbca01f40	-0.019546151
183	0xbadba00e	-0.0016756074
184	0xbd0c4715	-0.034247477
185	0x3cd83d45	0.026396403
186	0x3b7e074c	0.0038761673
187	0x3c8c08cc	0.017094038
188	0x3c3f6650	0.011682108
189	0xbd0168e7	-0.031594183
190	0x3d141af3	0.036158513
191	0xbd00829d	-0.031374563
192	0x3d09fde5	0.0336894
193	0x3c43d10e	0.011951698
194	0xbc9625b1	-0.01832852
195	0x3ca0f85e	0.01964968
196	0x3b9b0cb7	0.0047317403
197	0x3cce7b4c	0.025205277
198	0xbc8615a7	-0.016367747
199	0xbcee92f0	-0.0291228
200	0x3c1bc270	0.009506807
201	0xbd261933	-0.040551376
202	0x3cf46b0b	0.029836198
203	0x3c04e8c8	0.00811214
204	0xbc1f45e0	-0.009721249
205	0x3c90cc91	0.01767567
206	0x3bcd52f5	0.0062659928
207	0xbbc52882	-0.006016792
208	0xbc29b366	-0.010357713
209	0xbd32ccf4	-0.04365249
210	0x3c785299	0.015156412
211	0xbd273bd9	-0.04082856
212	0x3cc0b5b5	0.023524145
213	0x3cb1825d	0.021668607
214	0xbd393c7c	-0.045223698
215	0x3ca80841	0.020511748
216	0x3bc7a931	0.0060931672
217	0xbcc8f2f9	-0.02452992
218	0x3ca7428a	0.02041747
219	0xbc43b040	-0.011943877
220	0xbbe1ea52	-0.0068943882
221	0xbb97a264	-0.004627513
222	0x39f00610	0.00045780884
223	0xbbe9759f	-0.007124617
224	0xbc0c4cae	-0.008563204
225	0x3c09c5eb	0.008409004
226	0xbbf8e6c6	-0.0075958697
227	0x3c834289	0.016022937
228	0x3c0eba8c	0.008711468
229	0xbd37eb02	-0.044901855
230	0x3c426405	0.011864667
231	0xba8b499d	-0.0010626797
232	0xbc383bd3	-0.011244732
233	0xbbbab07c	-0.005697308
234	0xbcce46b5	-0.0251802
235	0x3d135fbd	0.035979975
236	0xbd2db66f	-0.04241031
237	0x3cd1582b	0.025554737
238	0xbc15af83	-0.009136084
239	0xbd055f1d	-0.03256141
240	0x3d2b6924	0.041848317
241	0xbb4f953e	-0.0031674649
242	0x3d088b11	0.03333575
243	0xbc9fcb96	-0.019506257
244	0xbd0f7aba	-0.03502915
245	0x3c854c55	0.01627175
246	0xbb3507aa	-0.0027622976
247	0xbb810f82	-0.0039386163
248	0xbc92254f	-0.017840056
249	0xbd3a3314	-0.04545887
250	0x3b0e967f	0.0021757183
251	0xbb0f5107	-0.0021868364
252	0x3c190cf0	0.009341463
253	0xbc4127bd	-0.0117892595
254	0xbc82dabf	-0.015973447
255	0x3a19d74e	0.000586857

tcn.0.net.4.bias f4 [60]
0	0xbb8f5bab	-0.0043749413
1	0xbc29a914	-0.010355253
2	0x3d8ec19d	0.069705226
3	0xbc08cc4d	-0.00834949
4	0xbdad95a6	-0.08475809
5	0x3c1e8a17	0.009676478
6	0x3c63e728	0.013910092
7	0x3d6ca760	0.05777681
8	0x3d81acd3	0.06331792
9	0x3d8561ab	0.06512769
10	0xbc936641	-0.017993094
11	0x3d4e04ac	0.050297424
12	0xbbe0e907	-0.0068637165
13	0xb7bf25e5	-2.278662e-05
14	0x3cc60edf	0.024177013
15	0x3cf8222b	0.03028973
16	0x3e0a3491	0.13496615
17	0xbb1a9f3b	-0.0023593444
18	0xbd08c219	-0.03338823
19	0xbcc981f8	-0.024598107
20	0x380046cf	3.0583524e-05
21	0x3c8d53ed	0.017251933
22	0x3d975efe	0.07391165
23	0xbd653ae9	-0.055964384
24	0xbd2b3e0f	-0.04180723
25	0xbcec5a64	-0.028851695
26	0x3d1b9d1a	0.03799162
27	0xbd4f6d72	-0.050641485
28	0xbd027b12	-0.03185565
29	0x3c865c37	0.016401393
30	0x3bc7266b	0.006077578
31	0x3d0357d6	0.03206619
32	0x3cc45569	0.023966508
33	0x3dd75355	0.10513941
34	0x3d5c4ac7	0.05378225
35	0xbd80336d	-0.06259809
36	0xbcd4acc0	-0.02596128
37	0xbdb69935	-0.08915941
38	0x3c256938	0.010095887
39	0x3c92f188	0.017937437
40	0xbb80a236	-0.003925587
41	0x3bc9feb5	0.0061643966
42	0x3d8f04df	0.06983351
43	0x3c3b18e5	0.01141951
44	0xbd180e17	-0.037122812
45	0xbb8ed7de	-0.0043592295
46	0x3d2652bd	0.04060625
47	0x3d7c5d44	0.061612383
48	0x3e0daa18	0.13834417
49	0x3c187edc	0.009307589
50	0x3dd7e1d1	0.10541118
51	0x3dcf11fb	0.101108514
52	0xbd7951cd	-0.060869027
53	0x3bba1ab5	0.0056794533
54	0xbd11c9aa	-0.035592712
55	0xbc2a6d77	-0.010402075
56	0x3d7724f5	0.06033798
57	0x3d88ea36	0.06685297
58	0x3b8bafbd	0.004262893
59	0xbc0f7d3e	-0.008757887

tcn.0.net.4.weight_g f4 [60, 1, 1]
0	0x3f04519e	0.5168704
1	0x3ebfbfc1	0.37450984
2	0x3f03fb9b	0.51555794
3	0x3ef414ec	0.47672212
4	0x3f0dd8c2	0.5540887
5	0x3eb40b3b	0.35164818
6	0x3f14f98f	0.58193296
7	0x3f0c7596	0.5486692
8	0x3f146d07	0.5797886
9	0x3f1757a1	0.59118086
10	0x3f0d8540	0.5528145
11	0x3f035c18	0.513124
12	0x3f0ccf81	0.55004126
13	0x3e241da3	0.1602693
14	0x3f0ee5bd	0.558193
15	0x3f065980	0.52480316
16	0x3f082d78	0.5319438
17	0x3e77575d	0.2415442
18	0x3eb8dc31	0.36105493
19	0x3f077cd6	0.5292486
20	0x3e257a3a	0.16159907
21	0x3f0e4047	0.5556683
22	0x3ed811ea	0.42201167
23	0x3f0caf39	0.5495487
24	0x3f0b4cfb	0.5441434
25	0x3f00b348	0.5027356
26	0x3f0be35e	0.5464381
27	0x3f0931f3	0.5359184
28	0x3f07d408	0.5305791
29	0x3f144ad9	0.5792671
30	0x3f13c69c	0.5772493
31	0x3f193724	0.5984976
32	0x3f089fa7	0.5336861
33	0x3eff898d	0.4990963
34	0x3f11a72f	0.56895727
35	0x3f0fe793	0.5621273
36	0x3efab08f	0.4896283
37	0x3f0fa763	0.56114787
38	0x3f07d94c	0.53065944
39	0x3f081b8b	0.5316703
40	0x3f110ceb	0.56660336
41	0x3f0f03d8	0.5586524
42	0x3f1e87a3	0.61925715
43	0x3f116a50	0.56802845
44	0x3f0d218d	0.5512932
45	0x3ec34ddd	0.38145342
46	0x3f048b7d	0.5177534
47	0x3f03e53c	0.5152166
48	0x3f041731	0.5159789
49	0x3f0ff940	0.562397
50	0x3f158167	0.5840058
51	0x3f08fddc	0.5351236
52	0x3f0517f4	0.51989675
53	0x3f0472db	0.51737756
54	0x3ec66210	0.3874669
55	0x3f05dab4	0.5228684
56	0x3f00551d	0.5012987
57	0x3ede49c4	0.43415654
58	0x3f1e1d57	0.6176352
59	0x3ec6b18b	0.3880733

tcn.0.net.4.weight_v f4 [60, 60, 5]
0	0xbce8172d	-0.028331364
1	0xbceb4c65	-0.028722951
2	0x3d80f091	0.062958844
3	0xbcec8afe	-0.02887487
4	0x3a1f0a29	0.00060668826
5	0x35e03a21	1.6706218e-06
6	0x3d31ab90	0.043376505
7	0x3c88535b	0.01664131
8	0x3b09f054	0.0021047788
9	0xbb505d75	-0.0031793986
10	0xbce212b1	-0.027596803
11	0xbcc21b9c	-0.023694806
12	0xbd06d6ed	-0.032919813
13	0x3d1dec7b	0.038555603
14	0x3d3b862a	0.045782246
15	0xbd00e295	-0.031466085
16	0xbc29f9ae	-0.01037447
17	0xbca02bff	-0.019552229
18	0xbda106be	-0.07862614
19	0x3d368e1c	0.04456912
20	0x3cf4a078	0.029861674
21	0x3bf7f889	0.0075674695
22	0x3ca74ece	0.02042332
23	0x3c5dd652	0.0135398675
24	0xbd085d36	-0.033292018
25	0x3d0a47bf	0.03375983
26	0xbd44799c	-0.04796754
27	0xbc897efc	-0.016784184
28	0x3c8a9489	0.01691653
29	0xbbd969d5	-0.0066349306
30	0x3c342e7e	0.010997413
31	0x3cf0e607	0.02940656
32	0xbcb401cf	-0.021973519
33	0x3d6172f0	0.055041254
34	0xbd0a3ff3	-0.033752393
35	0xbbfb6f84	-0.007673206
36	0x3c93bf5d	0.018035585
37	0xbd557a09	-0.052118335
38	0xbd14e7d3	-0.036353897
39	0xbca3808e	-0.01995876
40	0xbc580aa3	-0.01318613
41	0x3d16af53	0.036788296
42	0x3ae712c7	0.0017629497
43	0x3c74184e	0.014898373
44	0x3d4bb088	0.0497289
45	0x3ca3e55e	0.020006832
46	0xbc6e2256	-0.0145345535
47	0xbce8ce83	-0.028418785
48	0x3acb78a3	0.0015523623
49	0xbc5a0d0e	-0.013308777
50	0xbc753553	-0.014966327
51	0xbc19544d	-0.009358478
52	0xbd8ca3d1	-0.06867183
53	0x3cce61dd	0.02519315
54	0x3ca8009b	0.020508101
55	0xbd51945b	-0.051166873
56	0xbd6cf599	-0.057851408
57	0xbc239868	-0.009985067
58	0xbc049126	-0.008091247
59	0x3c03884c	0.008028101
60	0xbcbab0b0	-0.02278933
61	0x3ce6e829	0.028186874
62	0xbcc80578	-0.02441667
63	0x3d6eaa91	0.058268134
64	0xbc428c43	-0.011874261
65	0x3d628792	0.05530507
66	0xbc5363c5	-0.012902205
67	0x3b12da4a	0.0022407942
68	0x3c9ac9ba	0.018895019
69	0xbca331e8	-0.019921258
70	0x3db3421e	0.08752845
71	0x3c645c75	0.013938059
72	0xbccb563e	-0.024821397
73	0x3d39172a	0.045188107
74	0xbc1d87a8	-0.0096148625
75	0x3c9937ad	0.018703306
76	0xbc8ef625	-0.017451355
77	0x3d12aab7	0.035807338
78	0x3d066e59	0.03282008
79	0xbc77ba9c	-0.015120175
80	0xbb830eb3	-0.003999555
81	0xbbc126d8	-0.005894523
82	0x3cb0425f	0.021516023
83	0xbcf4aaed	-0.02986666
84	0xbcd0f2ab	-0.025506338
85	0xbcdcf13f	-0.026970504
86	0x3bd413b3	0.006472075
87	0xbc8a20f3	-0.016861415
88	0x3aa29cb8	0.0012406325
89	0x3a566ab2	0.0008179351
90	0xbc23e880	-0.010004163
91	0x3cc23ad5	0.023709694
92	0xbc59d361	-0.013295026
93	0x3ca7715f	0.020439802
94	0x3be97485	0.007124486
95	0x3c52b59a	0.01286068
96	0xbd87d32c	-0.06632075
97	0xbd119ef3	-0.035551976
98	0xbc1d7893	-0.009611267
99	0xbc0c1ce4	-0.00855181
100	0x3c94d57e	0.018168207
101	0xbcd730ed	-0.026268447
102	0xbcb43f50	-0.022002846
103	0xbc0ba16c	-0.008522373
104	0xbd309ff6	-0.0431213
105	0xbbd59ebf	-0.006519168
106	0x3cdb4965	0.026768396
107	0xbd0c41e8	-0.03424254
108	0xbcf30c87	-0.02966906
109	0xbc7b538b	-0.015339742
110	0xbc2370b9	-0.009975606
111	0x3cf502c4	0.029908545
112	0x3cc51890	0.024059564
113	0xbd7f1ef7	-0.06228539
114	0x3d1b88f4	0.037972406
115	0xbd29c0a4	-0.041443482
116	0xbc33211a	-0.010933185
117	0x3c080ef5	0.008304347
118	0xbcbdea48	-0.023183003
119	0x3cb73f98	0.022369191
120	0xbc261b98	-0.010138415
121	0x3d3b6210	0.045747817
122	0xbb96822a	-0.0045931535
123	0xbb80b69d	-0.003928019
124	0x3d05dcc0	0.032681227
125	0x3ad0662a	0.0015899588
126	0x3be27e3d	0.0069120214
127	0xbd035a22	-0.03206838
128	0xbd4273ed	-0.047473837
129	0x3c54f391	0.012997524
130	0x3cafdeba	0.021468509
131	0x3c95b2a3	0.018273657
132	0x3ceb3231	0.028710457
133	0xbd13f611	-0.03612334
134	0x3b8b77df	0.004256233
135	0xbcc82439	-0.024431335
136	0x39d98e5a	0.00041495526
137	0x3d1a3819	0.037651155
138	0x3d3dbe5f	0.04632413
139	0xbcfc77a7	-0.030818773
140	0x3bfcab9a	0.007710886
141	0xbcd27e20	-0.025694907
142	0xbd0b7e1b	-0.03405581
143	0xbc8b1e3b	-0.016982188
144	0xbd1d7b81	-0.03844786
145	0x3ba45b37	0.0050157565
146	0xbd17216e	-0.036897115
147	0x3c0cc434	0.0085917
148	0xbc833ff0	-0.016021699
149	0xbcf05f45	-0.029342303
150	0xbd7374fd	-0.05943774
151	0x3d1662e9	0.03671542
152	0x3d86c81b	0.06581136
153	0xbc4cd93a	-0.012502963
154	0x3c774f68	0.0150946155
155	0xbb9cc0c0	-0.00478372
156	0xbd521226	-0.05128684
157	0xbd00983c	-0.031395182
158	0xbd1aa0f0	-0.03775114
159	0xbd05d0a6	-0.032669686
160	0x3c66b379	0.014080876
161	0xbca9dda1	-0.020735564
162	0xbc7587e8	-0.014986016
163	0xbd56f8cf	-0.052483376
164	0xbc5c99ea	-0.01346443
165	0xbc3ea827	-0.01163677
166	0x3d1b84f6	0.0379686
167	0x3cc102e7	0.023560954
168	0x3b978120	0.004623547
169	0xbae95f7a	-0.0017804943
170	0xbcdb3962	-0.02676076
171	0x3d9089fa	0.07057567
172	0x3ce2ea93	0.027699744
173	0x3d413446	0.047168992
174	0xbc8312b8	-0.016000137
175	0xbd286b29	-0.04111782
176	0xbbbcee9b	-0.0057657487
177	0x3b8ad3fe	0.004236697
178	0xbc874cf0	-0.016516179
179	0xbac37daa	-0.001491477
180	0xbd2a04d0	-0.041508496
181	0x3cf56dba	0.029959548
182	0x3cb77314	0.02239374
183	0xbd51de5c	-0.05123745
184	0xbcc280d7	-0.023743076
185	0x3dbef25b	0.093235694
186	0xbcc49b3e	-0.023999806
187	0xbc214078	-0.009842031
188	0x3b409f8b	0.002939197
189	0x3cfcb084	0.030845888
190	0x3d39f747	0.045401838
191	0x3cc7a22d	0.024369324
192	0xbcf2070c	-0.029544376
193	0xbd10f883	-0.03539325
194	0xbccfa00d	-0.025344873
195	0xbd37651f	-0.04477417
196	0x3b650211	0.0034943859
197	0x3ce76584	0.028246649
198	0xbcb5090a	-0.022099037
199	0xbd71a6b2	-0.058996864
200	0x3c8c3acd	0.017117882
201	0x3c44ba2a	0.012007276
202	0xbccc5592	-0.024943147
203	0xbc056853	-0.008142549
204	0x3c563df9	0.013076299
205	0xbcfb84b3	-0.030702924
206	0xbd23ac2a	-0.03995911
207	0x3b739f72	0.0037173894
208	0xbcedf852	-0.029049072
209	0x3bcd3b94	0.006263206
210	0x3d0d083f	0.034431692
211	0x3d3629c6	0.044473432
212	0xbd74433a	-0.059634425
213	0xbbcf4a23	-0.0063259765
214	0x3d287ebd	0.041136492
215	0x3abe736c	0.0014530248
216	0x3c3d00c1	0.011535824
217	0xbb709d97	-0.0036715025
218	0xbc23dce6	-0.010001397
219	0x3cbe0372	0.023195002
220	0x3cca7e2c	0.024718367
221	0x3bcbf080	0.006223738
222	0xbc92f914	-0.017941035
223	0xbc4560a4	-0.012046967
224	0x3d82ccd6	0.063867256
225	0x3d210508	0.03931144
226	0xbcf3347d	-0.029688114
227	0x3c635cbf	0.013877093
228	0xbd7a9f7e	-0.06118726
229	0x3bcf88ec	0.006333461
230	0x3c428544	0.011872593
231	0xbd2d1f88	-0.0422664
232	0xbd8266ff	-0.06367301
233	0xbd4fe9b0	-0.05075997
234	0xba342285	-0.0006871599
235	0x3d8b5d14	0.068048626
236	0xbb0888eb	-0.0020833563
237	0xbd625bb4	-0.055263236
238	0xbd646b49	-0.055766378
239	0xbd37764d	-0.044790555
240	0xbd324db0	-0.04353112
241	0x3d0db8b2	0.034599967
242	0xbd30f352	-0.0432008
243	0xbd4203d6	-0.04736694
244	0x3d2deb21	0.042460565
245	0x3cf79b45	0.030225405
246	0x3cdeac6c	0.027181827
247	0xbd779575	-0.060445268
248	0xbd2ec50b	-0.042668384
249	0xbd00aa6c	-0.031412527
250	0x3d8020d2	0.0625626
251	0x3d0f9fb7	0.035064425
252	0x3d196dc1	0.037458185
253	0xbd7f4005	-0.062316913
254	0xbcc4936d	-0.02399608
255	0xbd297be1	-0.041377906

tcn.2.conv1.bias f4 [60]
0	0x3d33f04b	0.043930333
1	0xbcd10e5d	-0.025519544
2	0x3c9c6c10	0.019094497
3	0x3d01e97b	0.031716805
4	0xbd0ff90d	-0.035149623
5	0xbccfbf25	-0.0253597
6	0xbc7da424	-0.015481029
7	0x3d8fa832	0.070145026
8	0xbdbb141c	-0.09134695
9	0x3e2940dc	0.16528648
10	0xbc046b35	-0.008082201
11	0x3dec7f1f	0.11547684
12	0x3d5add77	0.05343386
13	0xbd1aa831	-0.037758056
14	0xbc5e9738	-0.013585858
15	0x3d18a6e0	0.03726852
16	0x3db41077	0.08792203
17	0x3d683266	0.05668869
18	0x3d128b3e	0.035777323
19	0x3cb04afc	0.02152013
20	0x3d2ce961	0.042214755
21	0xbc9f5b63	-0.019452756
22	0x3d8b9e21	0.0681727
23	0xbc8d3a0a	-0.01723959
24	0x3c801f07	0.015639795
25	0x3d94fb41	0.072744854
26	0x3cf13828	0.029445723
27	0x3cfaedff	0.030631064
28	0xb8d3e579	-0.00010104007
29	0x3b184d38	0.0023239385
30	0x3d862be1	0.06551338
31	0x3d9ec09d	0.07751582
32	0x3d9e454e	0.077280626
33	0xbd8eb5e3	-0.06968286
34	0xbc7319d5	-0.014837702
35	0xbb959bd6	-0.004565696
36	0xbd44d494	-0.048054293
37	0xbc11ea0d	-0.0089059
38	0x3d27b6c9	0.040945802
39	0x3d39e781	0.045386795
40	0xbcf5e52d	-0.030016506
41	0xbcdd3d07	-0.02700664
42	0xbd161fbb	-0.036651354
43	0x3b3e9f99	0.0029086827
44	0x3e13ff29	0.14452805
45	0xbb5a91f8	-0.0033351164
46	0x3dc1a5b3	0.09455433
47	0x3e1c5f73	0.15270786
48	0x3e22e8bb	0.15909092
49	0xbd5cf8bc	-0.05394815
50	0x3dc79b82	0.09746458
51	0x3de576c9	0.11204297
52	0x3d1ae76d	0.03781836
53	0x3d271702	0.040793426
54	0xbcf35051	-0.029701384
55	0x3dba4758	0.09095639
56	0xbd03a425	-0.032138962
57	0xbd8ef54f	-0.06980383
58	0x3c93c74d	0.01803937
59	0xbdd6b0e5	-0.10482959

tcn.2.conv1.weight_g f4 [60, 1, 1]
0	0x3f15ef20	0.58568
1	0x3f0d455f	0.55183977
2	0x3f0b1d4c	0.5434158
3	0x3f1ab3d8	0.6043067
4	0x3f10f0d6	0.56617486
5	0x3f103167	0.5632538
6	0x3f1309ff	0.5743713
7	0x3f0c9cb5	0.54926616
8	0x3f02e89c	0.51136184
9	0x3f05b2bb	0.52225846
10	0x3f0c2273	0.54740065
11	0x3f04e4e3	0.51911753
12	0x3f0abb34	0.541919
13	0x3f066a9e	0.52506435
14	0x3f0b4e0e	0.54415977
15	0x3f0fe657	0.56210846
16	0x3f0b88dc	0.54505706
17	0x3f00ad9b	0.502649
18	0x3f0d42d5	0.551801
19	0x3f149cbc	0.5805166
20	0x3f116b72	0.56804574
21	0x3f0e43b8	0.5557208
22	0x3efd5dbf	0.49485585
23	0x3f09f72b	0.53892773
24	0x3f060d25	0.52363807
25	0x3f07d6bd	0.5306204
26	0x3f0f8dd1	0.5607577
27	0x3f0f6b71	0.5602332
28	0x3f07ec4a	0.53094923
29	0x3f10f98b	0.5663077
30	0x3f10b69c	0.5652864
31	0x3f1b5f7d	0.6069258
32	0x3f00ab37	0.50261253
33	0x3f05a697	0.5220732
34	0x3f167da0	0.5878544
35	0x3f043bdb	0.5165383
36	0x3f0a5949	0.5404249
37	0x3f06e573	0.5269386
38	0x3f076e97	0.5290312
39	0x3f130659	0.5743156
40	0x3f08d8c0	0.53455734
41	0x3f0a6f26	0.5407585
42	0x3eff569b	0.49870762
43	0x3f0d453c	0.5518377
44	0x3f09a0ea	0.5376116
45	0x3f0f83da	0.56060565
46	0x3efb394d	0.49067155
47	0x3f0b7288	0.54471636
48	0x3f0aa082	0.54151165
49	0x3f0eb594	0.55745816
50	0x3f0e75ee	0.55648696
51	0x3f0bb6e2	0.5457593
52	0x3f021ab1	0.5082198
53	0x3ef7ee3e	0.48423952
54	0x3f0c203b	0.5473668
55	0x3f0b7d38	0.54487944
56	0x3f084e09	0.5324407
57	0x3f08a9e6	0.53384244
58	0x3f16f3ba	0.5896565
59	0x3f0f8a95	0.56070834

tcn.2.conv1.weight_v f4 [60, 60, 5]
0	0x3c8e5d7e	0.017378565
1	0x3aee444d	0.0018178314
2	0xbd236593	-0.03989179
3	0x3c634c44	0.013873164
4	0xbcd53b5f	-0.026029287
5	0x3d28d8fe	0.041222565
6	0xbd249545	-0.040181417
7	0x3cb59d6d	0.022169793
8	0xbc58e743	-0.013238731
9	0xbcd8901f	-0.02643591
10	0x3d0e04d8	0.034672588
11	0xbd006485	-0.031345863
12	0x3b987c90	0.004653521
13	0xbb721d6f	-0.0036943813
14	0xbc2f4b60	-0.010699123
15	0x3d5bf2b2	0.05369825
16	0x3b7120c5	0.0036793214
17	0x3d06af2d	0.032881904
18	0x3c2fd6f8	0.010732405
19	0x3cb26d07	0.021780504
20	0x3cea959f	0.028635798
21	0x3c01380b	0.007886897
22	0xbcceb914	-0.025234737
23	0xbd21995f	-0.039452907
24	0xbc7c02e1	-0.015381546
25	0x3d2b3a8f	0.041803893
26	0xbd11bdb7	-0.035581317
27	0xbc2c629b	-0.010521556
28	0x3d2d1b6f	0.04226249
29	0x3bcdc3e9	0.006279458
30	0xbccfad42	-0.02535117
31	0x3bec8b2e	0.00721874
32	0xbd30084b	-0.04297666
33	0xbbca9bd2	-0.006183126
34	0x3d48727e	0.048937313
35	0x3d6a2769	0.05716649
36	0x3d0cd36c	0.034381315
37	0x3a85861d	0.0010187064
38	0x3ae4c019	0.0017452269
39	0x3c48cdcc	0.012256097
40	0x3d93a1e9	0.07208616
41	0xbd8841d0	-0.06653178
42	0xbcb5e821	-0.022205414
43	0x3d4f0a6b	0.050547045
44	0xbd683da2	-0.056699403
45	0xbb00b070	-0.0019636415
46	0x3cf1592a	0.029461462
47	0xbca12174	-0.019669272
48	0xbca4b43e	-0.020105477
49	0xbcfdab08	-0.030965343
50	0xbc84a52e	-0.016192045
51	0xbc27cd2b	-0.010241787
52	0x3b46e951	0.003035147
53	0x3ccb0016	0.024780314
54	0x3cb46c5f	0.022024332
55	0x3cf20548	0.029543534
56	0x3c3c909c	0.011509087
57	0x3d0ed9c3	0.034875643
58	0xbd01a6bf	-0.031653162
59	0xbcd8785d	-0.026424581
60	0x3d8494bc	0.06473681
61	0xbd552f53	-0.052047085
62	0x3c0588b6	0.00815027
63	0x3d32194c	0.043481156
64	0x3d2044ef	0.03912824
65	0x3c4e04f1	0.01257442
66	0xbcb01661	-0.021495046
67	0x3d04c0d8	0.032410473
68	0x3c15aec5	0.009135907
69	0xbc931b1f	-0.017957268
70	0x3cc3e9ec	0.023915254
71	0x3cfc9bf7	0.030836089
72	0xbc23d0d9	-0.009998524
73	0xbcf4494d	-0.029820109
74	0xbb0b47c2	-0.0021252488
75	0x3d87ebad	0.066367485
76	0x3bf1a869	0.0073748124
77	0xbd5aa9ee	-0.053384714
78	0xbc64fdf2	-0.013976561
79	0xbcb75d6d	-0.022383416
80	0x3cfe092f	0.031010238
81	0xbb8ddd93	-0.004329392
82	0xbd15745c	-0.036487922
83	0x3c94d142	0.018166188
84	0xbc69ddae	-0.014274044
85	0xbb83ad68	-0.0040184744
86	0xbd10fee8	-0.035399348
87	0x3a747041	0.00093245885
88	0x3a68362c	0.000885817
89	0x3bca14e2	0.00616704
90	0x3c924010	0.017852813
91	0x3d012740	0.031531572
92	0x3cd90e44	0.02649606
93	0x3d57ea9d	0.05271398
94	0xbce61480	-0.028085947
95	0x3ced6ed4	0.028983511
96	0xbc6853d6	-0.014180144
97	0xbc1a092c	-0.009401601
98	0xbcc65691	-0.0242112
99	0x3b94dc94	0.0045428965
100	0x3d1cd1d6	0.038286053
101	0xbc3f5ae3	-0.011679384
102	0x3c92a937	0.017902954
103	0x3d5ca5d1	0.053869072
104	0x3cd91c15	0.026502648
105	0x3c910113	0.017700708
106	0x3c1ede38	0.009696536
107	0x3c1ddbb6	0.009634903
108	0xbd010c13	-0.031505655
109	0x3c4cb22c	0.012493651
110	0x3d1e4e89	0.038649116
111	0x3bdbbcbd	0.006705849
112	0x3c5dc2dd	0.013535229
113	0x3cbad1bb	0.022805085
114	0x3cbfccbd	0.023413057
115	0x3c664755	0.014055093
116	0xbd0d6ef2	-0.034529634
117	0xbc1a96de	-0.009435384
118	0xbc9b571d	-0.018962437
119	0xbd126481	-0.03574038
120	0x3d939fce	0.07208215
121	0xbc33b73b	-0.0109689785
122	0xbc102298	-0.00879731
123	0xbc848499	-0.016176509
124	0x3d00b48f	0.031422194
125	0x3cc47195	0.023979941
126	0xbccc4822	-0.02493674
127	0x3bd2b387	0.0064300927
128	0x3a88e54e	0.0010444315
129	0xbd063e1c	-0.032774076
130	0x3d52fd34	0.051511005
131	0x3cbb752a	0.022883017
132	0x3cadee75	0.02123187
133	0x3bce25d9	0.006291133
134	0xbd70341d	-0.05864345
135	0x3d107df2	0.03527636
136	0x3cac59db	0.02103894
137	0xbcb00da3	-0.021490877
138	0x3cc01b0c	0.023450397
139	0x3c187baa	0.009306828
140	0xbc45d2f5	-0.012074222
141	0xbc381c40	-0.011237204
142	0x3b811a08	0.0039398707
143	0x3d5cefdb	0.05393968
144	0x3ca4ffb0	0.020141453
145	0x3d42fbd7	0.047603454
146	0xbc4ce7cb	-0.012506436
147	0x3ce5683d	0.028003806
148	0xbcba02eb	-0.02270647
149	0xbd90768b	-0.0705386
150	0x3cf819d9	0.030285763
151	0x3cf2f573	0.029658055
152	0xbd2e1acb	-0.04250602
153	0xbd00feaa	-0.031492867
154	0x3c921687	0.017833007
155	0xbcf521d3	-0.029923355
156	0xbd4311df	-0.047624465
157	0x3d5422c3	0.051790964
158	0x3bcd1818	0.0062589757
159	0xbc04ffe8	-0.008117653
160	0xbc4abea5	-0.012374555
161	0xbabe75a8	-0.0014530914
162	0x3d2956bc	0.041342482
163	0x3d202104	0.039093986
164	0xbcf425d9	-0.029803203
165	0x3d81562d	0.06315265
166	0xbcf1b996	-0.02950744
167	0xbd047dc9	-0.03234652
168	0x3c9d43a0	0.019197285
169	0xbd399c4a	-0.045315064
170	0x3d14b06b	0.036301058
171	0xbd13491c	-0.035958394
172	0x3d3ccb09	0.046092067
173	0xbc8ea602	-0.017413143
174	0xbd262535	-0.040562827
175	0xbaf2f53f	-0.0018536224
176	0x3c9e8153	0.019348776
177	0x3d27aa3d	0.040933836
178	0x3bd82d05	0.0065971636
179	0xbbad5603	-0.0052897944
180	0x3cb11575	0.021616677
181	0x38d4bff4	0.00010144702
182	0xbccbe723	-0.024890488
183	0xbaed27de	-0.0018093546
184	0xbd06c6c1	-0.03290439
185	0xbc0b81d1	-0.008514837
186	0xbd16fa69	-0.036859903
187	0xbca9e6bb	-0.020739904
188	0x3bdfdc6a	0.0068316953
189	0x3b8a89fe	0.0042278757
190	0xbc173e74	-0.009231199
191	0xbac38541	-0.0014917032
192	0x3ceecf12	0.029151473
193	0x3d218fcd	0.03944378
194	0x3cdf663e	0.027270433
195	0x3cf3861d	0.029727036
196	0xba235713	-0.00062309316
197	0x3d6c8d83	0.057752144
198	0x3c3c4d4c	0.011493038
199	0x3c0638e6	0.008192277
200	0x3ccdb974	0.025112845
201	0xbca680fe	-0.02032518
202	0x3d5eac55	0.054363567
203	0x3d5f3977	0.054498162
204	0xbd40ac10	-0.04703909
205	0xbc9154b4	-0.017740585
206	0xbcb47388	-0.022027746
207	0xbd0ffc94	-0.035152987
208	0x3bcdc37a	0.006279406
209	0xbd16ff7f	-0.036864754
210	0xbbdd99dc	-0.006762726
211	0xbce14ad6	-0.027501505
212	0xbc8782c6	-0.01654185
213	0x3d377303	0.044787418
214	0xbc30bd03	-0.010787251
215	0x3d0a63fe	0.033786766
216	0xbb17a504	-0.0023139128
217	0xbd005a17	-0.031335916
218	0x3d40fd07	0.047116306
219	0x3b81cd77	0.003961261
220	0x3d4ba7a4	0.04972042
221	0xbd25ae2c	-0.040449306
222	0xbccaff72	-0.024780009
223	0xbcddbab0	-0.027066559
224	0xbcbf1971	-0.023327561
225	0x3cb187db	0.021671226
226	0xbce100eb	-0.027466258
227	0x3cbb147a	0.022836912
228	0xbb823aa3	-0.003974275
229	0xbccc810f	-0.024963884
230	0xbc80688c	-0.015674852
231	0x3bbcede8	0.0057656653
232	0xbccc02a0	-0.024903595
233	0x3c5ff9b0	0.01367037
234	0xbc26e0b9	-0.010185414
235	0x3d9d17be	0.07670544
236	0xbcb2a471	-0.021806927
237	0x3c94363f	0.018092273
238	0x3d3b0a0b	0.045663875
239	0xbcfef024	-0.031120367
240	0xbc58a602	-0.013223173
241	0xbc9662ac	-0.018357597
242	0x3d6f0eff	0.05836391
243	0x3d33e1af	0.0439164
244	0xbbe0188d	-0.006838864
245	0x3d6b65cc	0.057470128
246	0xbc9aefcf	-0.018913178
247	0xbca56762	-0.020190898
248	0xbcf84ea0	-0.030310929
249	0xba9e2ac5	-0.001206719
250	0x3d5a05d7	0.053228226
251	0xbd2aa99b	-0.041665655
252	0xbd15c3f6	-0.036563836
253	0x3d810dc4	0.06301454
254	0x3c486eae	0.012233419
255	0xbcdc3eda	-0.026885439
