raisimGymTorch/raisimGymTorch/algo/ppo/student/models/tcn_student.pth (torch, 900915 bytes, 74 tensors)

tcn.0.conv1.bias f4 [60]
0	0x3d61a4fe	0.05508899
1	0xbc507608	-0.012723453
2	0xbde18f52	-0.11013664
3	0xbd794f76	-0.060866795
4	0xbd3f122e	-0.046648197
5	0x3e3391db	0.17536108
6	0x3ea8f0f0	0.3299632
7	0xbe3438f6	-0.17599854
8	0x3e4789ff	0.19486235
9	0xbd9d1202	-0.0766945
10	0xbe0a2af4	-0.13492948
11	0x3d93819a	0.07202454
12	0xbc363ed6	-0.01112338
13	0x3b0bcceb	0.0021331857
14	0x3d4d155c	0.050069198
15	0xbd5a99f0	-0.053369462
16	0x3eb1b791	0.34710363
17	0xbe1ed0c4	-0.15509325
18	0xbe1ba1fe	-0.15198514
19	0xbe7907c0	-0.24319363
20	0xbe64e443	-0.223527
21	0x3e14df5e	0.14538333
22	0xbd19ddd6	-0.037565075
23	0x3e086265	0.13318785
24	0x3d6c9691	0.05776078
25	0x393f3b9b	0.00018237384
26	0x3d31e286	0.04342892
27	0x3d77d83e	0.06050896
28	0x3df855ac	0.121257156
29	0xbd80f55b	-0.06296798
30	0xbcc3f6cf	-0.023921398
31	0x3d9d4603	0.07679369
32	0x3d0b5cef	0.034024175
33	0xbc9bc025	-0.01901252
34	0x3e5214cc	0.20515746
35	0x3bffee9a	0.007810426
36	0xbbb4d457	-0.005518477
37	0xbdae8f5e	-0.08523439
38	0x3eb15366	0.3463394
39	0x3e7946b7	0.24343382
40	0xbdc44058	-0.09582585
41	0xbbc24ee5	-0.005929815
42	0x3e03515c	0.12824005
43	0x3d965bab	0.07341703
44	0x3b3e836b	0.002907003
45	0x3cb8bdb7	0.0225514
46	0x3e25496a	0.16141286
47	0x3e5768b9	0.21036042
48	0x3c36ebed	0.0111646475
49	0x3bf4ea40	0.007474214
50	0x3ce07a27	0.027401997
51	0xbd5c3970	-0.053765714
52	0xbc7f4478	-0.015580289
53	0x3db7ae83	0.08968832
54	0x3d0a6ca6	0.03379502
55	0xbd20b0cc	-0.039231107
56	0xbc051c5e	-0.008124439
57	0xbd978cef	-0.07399928
58	0x3d927d39	0.071527906
59	0xbd776cdf	-0.060406562

tcn.0.conv1.weight_g f4 [60, 1, 1]
0	0x3efb892b	0.49128088
1	0x3f06f67d	0.5271986
2	0x3f0982bd	0.53715116
3	0x3eff69d1	0.4988542
4	0x3ef6babb	0.4818934
5	0x3eff0970	0.49811888
6	0x3f049847	0.51794857
7	0x3ee74349	0.45168522
8	0x3f0643b8	0.5244708
9	0x3ef0b7e0	0.47015285
10	0x3ee9692c	0.45588052
11	0x3f04fb0c	0.5194557
12	0x3eff925d	0.49916354
13	0x3ef57782	0.4794274
14	0x3efa21ea	0.48854
15	0x3f00bfa2	0.5029241
16	0x3efe45fc	0.4966277
17	0x3efea24f	0.49733207
18	0x3edf477e	0.43609232
19	0x3f02046e	0.5078801
20	0x3efa2e21	0.4886332
21	0x3f030a63	0.51187724
22	0x3ee9f663	0.4569579
23	0x3ef642c6	0.4809782
24	0x3f014bf1	0.505065
25	0x3f04f07d	0.51929456
26	0x3f0de5af	0.55428594
27	0x3f0309a3	0.5118658
28	0x3f04f927	0.51942676
29	0x3eeb3f13	0.4594656
30	0x3ec75179	0.38929346
31	0x3f0ccdc5	0.5500148
32	0x3f0574e4	0.52131486
33	0x3f0b6cc2	0.54462826
34	0x3eee1168	0.46497655
35	0x3f01eb8c	0.5075004
36	0x3f0577a2	0.5213567
37	0x3f053272	0.520301
38	0x3f036717	0.5132918
39	0x3f0e1454	0.5549977
40	0x3f071415	0.5276502
41	0x3ef02bdd	0.46908465
42	0x3ef04c4d	0.46933213
43	0x3ef9b320	0.48769474
44	0x3efe2010	0.49633837
45	0x3efc392d	0.49262372
46	0x3ef6c3f8	0.48196387
47	0x3f0dff3d	0.5546759
48	0x3efbbdce	0.49168247
49	0x3ef76821	0.48321632
50	0x3f04063b	0.51572007
51	0x3efe35cc	0.4965042
52	0x3edf79af	0.43647525
53	0x3efda9b4	0.49543536
54	0x3f037edc	0.5136545
55	0x3f04f7dc	0.51940703
56	0x3ee63dbd	0.44968978
57	0x3f090f36	0.53538835
58	0x3f0a9024	0.5412619
59	0x3ef791d2	0.4835344

tcn.0.conv1.weight_v f4 [60, 60, 5]
0	0xbbfd75e2	-0.007735
1	0x3caf706a	0.021415908
2	0x3bfd16e5	0.0077236765
3	0xbd381011	-0.044937197
4	0x3d4ce9fb	0.05002783
5	0x3cb06ca3	0.021536177
6	0xbcfecf83	-0.031104809
7	0x3c4318da	0.011907781
8	0xbc4bab69	-0.012431004
9	0x3cd69c1c	0.026197486
10	0xbcc8f777	-0.024532063
11	0x3ccfaeba	0.02535187
12	0x3cc17a10	0.023617774
13	0xbd1b4ce0	-0.03791511
14	0x3d887ec5	0.06664804
15	0xbc64dfed	-0.013969404
16	0xbb1a8ae6	-0.0023581325
17	0x3ced78a1	0.028988184
18	0xbcca41c5	-0.024689564
19	0x3d0b7055	0.034042675
20	0xbd29b21a	-0.041429617
21	0x3d470e3b	0.048597556
22	0xbc660dc7	-0.014041371
23	0xbd24e12d	-0.040253807
24	0x3c4afeae	0.012389822
25	0x3c6dd891	0.0145169655
26	0x3d106fa0	0.035262704
27	0xbc3d046a	-0.011536697
28	0xbd33a579	-0.04385898
29	0x3d2b60d7	0.0418404
30	0x3c431701	0.01190734
31	0xb97d2d88	-0.00024144922
32	0xbc086a8c	-0.008326184
33	0x3c1fa8e7	0.009744859
34	0x3d248ad9	0.040171478
35	0xbd0a5427	-0.03377166
36	0x3b702d34	0.0036648037
37	0x3d1d35e4	0.038381472
38	0xbc03876e	-0.008027894
39	0x3ca100d1	0.01965371
40	0xbafcd5a1	-0.0019289741
41	0x3c5c6551	0.01345189
42	0x3bd6a935	0.006550933
43	0xbc9795ba	-0.018504012
44	0x3caf7621	0.021418633
45	0xbafb5b09	-0.0019176911
46	0x3d2752a5	0.0408503
47	0xbcbb1a76	-0.022839766
48	0xbd49ed90	-0.049298823
49	0x3d2740dd	0.040833343
50	0x3ce1cb36	0.027562719
51	0xbd2aa638	-0.041662425
52	0x3d0e2fa1	0.03471339
53	0xbd371e66	-0.044706725
54	0x3d0d55a4	0.0345055
55	0xbce01aa2	-0.02735645
56	0x3bd4d595	0.0064951875
57	0xbc24bde4	-0.010055039
58	0xbd37a962	-0.04483927
59	0x3c9ff409	0.019525545
60	0xbcdb6349	-0.026780741
61	0x3c4b5838	0.01241117
62	0xbc27f28a	-0.010250697
63	0xbd04726a	-0.032335676
64	0x39bca0da	0.00035977998
65	0x3cc4b642	0.024012689
66	0xbc2a4d03	-0.010394338
67	0xbb658343	-0.0035020865
68	0xbd2f64bd	-0.04282068
69	0xbc3dea94	-0.011591572
70	0x3c75d3fc	0.015004154
71	0xbb071e9c	-0.002061761
72	0x3cf4b10b	0.029869577
73	0xbae45874	-0.0017421381
74	0x3d2b8dcc	0.041883275
75	0xbbe656d3	-0.007029393
76	0xbc938838	-0.01800929
77	0x3bd5a95d	0.006520434
78	0xbd12da1f	-0.035852548
79	0x3d16c7d8	0.03681168
80	0x3cb058a3	0.02152664
81	0x3c25eae5	0.010126804
82	0x3d173372	0.036914296
83	0xbbf0854c	-0.007340109
84	0x3d1477d4	0.03624709
85	0x3ca78709	0.020450132
86	0xbc5c752c	-0.01345567
87	0xbb9652fb	-0.0045875288
88	0xbcf73270	-0.030175418
89	0x3ce05ba3	0.027387446
90	0xbc37d814	-0.011220951
91	0x3bd114d9	0.006380659
92	0xbc7fbd7b	-0.0156091405
93	0xbc9f3862	-0.019436065
94	0x3d2eb698	0.042654604
95	0x3cc6027a	0.024171103
96	0x3bcdbbe8	0.0062785037
97	0x3cb30587	0.021853222
98	0xbd29b615	-0.041433413
99	0x3d106aeb	0.035258215
100	0xbca7ffe9	-0.02050777
101	0xbcd10cb4	-0.025518753
102	0xbc9c51c0	-0.01908195
103	0xbc32774c	-0.0108927
104	0x3d0f9bbe	0.035060637
105	0x3d0f6b70	0.03501457
106	0x3a395389	0.00070696376
107	0xbc3c38a8	-0.011488117
108	0x3b4b9817	0.0031065994
109	0x3ad95858	0.0016582115
110	0xbc94866b	-0.018130502
111	0xbd22d1cd	-0.039750863
112	0xbccec45e	-0.02524012
113	0xbbc3f8bf	-0.0059805806
114	0x3d5c1c2f	0.053737815
115	0xbcdbdd91	-0.02683905
116	0x3d393ce7	0.045224097
117	0xbc9eee39	-0.019400703
118	0xbc2e0661	-0.010621638
119	0x3d2dfb24	0.042475834
120	0xbc571265	-0.013126944
121	0x3cbf03b8	0.023317203
122	0x3cc1b91c	0.023647837
123	0xbc9dd834	-0.019268133
124	0x3d673d48	0.056454927
125	0x3c8e4ea2	0.01737148
126	0x3d166152	0.036713906
127	0x3d0747da	0.033027507
128	0xbccd99cb	-0.025097748
129	0x3d138a2c	0.036020443
130	0x3cf1627f	0.029465912
131	0xbc18daaf	-0.009329482
132	0x3c1e0c5b	0.0096465
133	0xbc14f764	-0.009092186
134	0x3ce5ed66	0.028067302
135	0xbc02157b	-0.007939692
136	0x3d22ee87	0.03977826
137	0xbcac0a8e	-0.021001127
138	0xbc8ee391	-0.017442496
139	0x3c3be1c9	0.011467406
140	0xbac6a60c	-0.0015155687
141	0xbbf86578	-0.0075804554
142	0x3cb77c6b	0.022398194
143	0xbc59b675	-0.01328813
144	0x3d18c0f3	0.037293386
145	0xbc33d514	-0.010976095
146	0x3c9c4eb8	0.019080505
147	0xbbf6c822	-0.007531182
148	0xbc7f6db6	-0.015590122
149	0x3ccad756	0.024760883
150	0x3d0e9a02	0.034814842
151	0xbd1a1d87	-0.037625816
152	0x3d24f6b0	0.040274322
153	0xbd131907	-0.03591254
154	0x3cf8e857	0.030384226
155	0xbc964bcb	-0.018346688
156	0x3d114e16	0.03547486
157	0x3c3f31b9	0.01166957
158	0xbce94d8f	-0.028479366
159	0x3d1d5a99	0.03841648
160	0x3b13808a	0.0022507035
161	0xbca031ef	-0.01955506
162	0x3bae7f50	0.0053252354
163	0xbd04d425	-0.03242888
164	0xbc345769	-0.011007168
165	0x3c6d4564	0.014481876
166	0xba804f7e	-0.0009789316
167	0x3b945868	0.0045271404
168	0xbd105384	-0.035235897
169	0xbbd4142f	-0.0064721326
170	0xbb8f935f	-0.0043815817
171	0x3ca0b481	0.019617321
172	0x3cdf0609	0.027224557
173	0xbc2e9998	-0.010656737
174	0x3d010746	0.031501077
175	0xbc7ba193	-0.0153583465
176	0xbcd1dc17	-0.025617642
177	0x3c67cffb	0.0141487075
178	0xbd0152e7	-0.031573202
179	0x3ce495e2	0.027903501
180	0x3cc4676c	0.023975097
181	0x3cc6411a	0.024200965
182	0x3d1e545f	0.03865468
183	0xbb06ee7e	-0.002058893
184	0x3c75b947	0.014997787
185	0xbd3149a2	-0.043283112
186	0xbbd5c881	-0.006524146
187	0x3c9c6ab0	0.019093841
188	0xbd0c9516	-0.034321867
189	0x3d154406	0.036441825
190	0xbc83acfa	-0.016073693
191	0x3c1c2c03	0.009531978
192	0xbc8972a5	-0.0167783
193	0xbd1ad954	-0.037804917
194	0x3cb54adb	0.02213042
195	0xbcbc3371	-0.022973748
196	0xbc5119c3	-0.01276249
197	0xbc01aa65	-0.00791416
198	0xbd16304b	-0.03666715
199	0x3cd9d91e	0.026592787
200	0xbccbf526	-0.02489717
201	0xbd2ba743	-0.04190756
202	0x3cb91eef	0.022597758
203	0xbccaedba	-0.02477156
204	0x3d236aa7	0.039896633
205	0xbd1337fc	-0.035942063
206	0x3c83563e	0.016032334
207	0xbbfcccaa	-0.0077148275
208	0xbca3bfd1	-0.019988926
209	0x3d21c166	0.03949108
210	0xbd162981	-0.036660675
211	0x3cd87451	0.026422651
212	0x3c3d7160	0.011562675
213	0xbc8d2244	-0.017228253
214	0x3cef26ea	0.02919336
215	0xbc87e862	-0.016590301
216	0x3ce7aedf	0.028281627
217	0xbc33e26f	-0.010979279
218	0xbc50108c	-0.012699258
219	0x3be97989	0.007125084
220	0xbd19f6c5	-0.037588853
221	0x3cb1ffc1	0.021728398
222	0x3b53ae6f	0.0032300015
223	0xbca82ebb	-0.020530095
224	0x3c007183	0.007839563
225	0xb9b59a3a	-0.00034637918
226	0xbd0a9e9c	-0.033842668
227	0xbcae47f7	-0.02127455
228	0xbbe7ab44	-0.007069977
229	0x3c1b4ef1	0.00947927
230	0x3bb2f220	0.0054609925
231	0xbcf0462a	-0.029330332
232	0x3bc91fc8	0.006137822
233	0x3c2725c8	0.010201879
234	0x3c4d82b0	0.012543365
235	0xbbec7009	-0.007215504
236	0xbc10a310	-0.00882794
237	0x3bc320a4	0.005954819
238	0xbd0ba590	-0.03409344
239	0x3c2a8a1c	0.010408904
240	0x3a81d9a1	0.0009906777
241	0xbc0d8197	-0.008636854
242	0xbba19297	-0.004930805
243	0x3a691bed	0.0008892406
244	0x3d18e5bb	0.037328463
245	0xbc0b815d	-0.008514729
246	0x3d0ee66a	0.03488771
247	0xbbd49e8b	-0.0064886264
248	0xbc9320d7	-0.017959995
249	0x3d47a76a	0.048743643
250	0xbd1ea7ef	-0.038734373
251	0xbcdce501	-0.026964666
252	0xbbfce049	-0.0077171666
253	0xbd167d6d	-0.03674071
254	0x3d26ad72	0.040692754
255	0x3cb65be7	0.02226062

tcn.0.conv2.bias f4 [60]
0	0x3d9b192f	0.07573163
1	0xbd27c22f	-0.040956672
2	0x3c15d59c	0.009145167
3	0xbd228986	-0.039681934
4	0xbba98f53	-0.0051745563
5	0xbb7692d8	-0.0037624147
6	0x3c2daaac	0.010599773
7	0xbcf64c85	-0.030065784
8	0x3cf231f0	0.029564828
9	0xbbe59380	-0.0070061088
10	0xbc0b25ec	-0.008492928
11	0xbd11183b	-0.0354235
12	0x3d1b2aa1	0.03788245
13	0xbd129ae4	-0.035792246
14	0x3d016767	0.031592753
15	0x3ce70580	0.028200865
16	0xbcdae7d2	-0.026721869
17	0xbc6f0e8d	-0.0145908715
18	0xbd0ed339	-0.034869406
19	0x3c23871b	0.009980942
20	0xbcdf1e81	-0.027236225
21	0xbbdd8f57	-0.006761472
22	0xbce03511	-0.027369054
23	0xbc6f1483	-0.014592293
24	0xbc2ba1aa	-0.010475555
25	0x3d189e20	0.037260175
26	0xbccae326	-0.024766516
27	0xbc376371	-0.011193142
28	0xbc4eefab	-0.0126303835
29	0x3c841ea4	0.016127892
30	0xbd487b0e	-0.04894548
31	0x3cce989e	0.025219258
32	0xbbe45c9a	-0.006969047
33	0x3cf210ba	0.029548991
34	0x3b92f9ec	0.0044853594
35	0xbc3073a2	-0.0107697565
36	0x3b9dd5c5	0.004816743
37	0xbc73a01b	-0.014869715
38	0x3c755463	0.014973733
39	0x3c825ac8	0.015912428
40	0xbd039416	-0.032123648
41	0xbc00603d	-0.007835445
42	0x3c9623f4	0.01832769
43	0xbc94c813	-0.01816181
44	0x3ad8b125	0.0016532285
45	0x3d01c345	0.031680364
46	0xbb770354	-0.0037691193
47	0x3e4895e4	0.19588429
48	0xbcc53d77	-0.02407716
49	0xbd1b7e6e	-0.03796237
50	0x3d04fb0e	0.032465987
51	0xbc8ccb87	-0.017186893
52	0xbb5a2f99	-0.003329253
53	0x3c33da65	0.010977362
54	0x3cbce835	0.023059944
55	0x3d4b1ff2	0.049591012
56	0x3c161edd	0.009162632
57	0x3d1897c1	0.0372541
58	0x3cc31589	0.02381398
59	0xbd144cdb	-0.036206108

tcn.0.conv2.weight_g f4 [60, 1, 1]
0	0x3f299434	0.66241765
1	0x3ef93ed9	0.4868076
2	0x3e836e61	0.2567015
3	0x3eada9dc	0.33918655
4	0x3e795304	0.24348074
5	0x3e8c6b16	0.2742545
6	0x3eb3d236	0.35121316
7	0x3eef910b	0.46790347
8	0x3e6e1347	0.23249541
9	0x3e6e2883	0.23257641
10	0x3e99c868	0.3003571
11	0x3e8ba490	0.2727399
12	0x3ecbf072	0.39831883
13	0x3e87552a	0.26432163
14	0x3e5c931a	0.2154049
15	0x3ece3ea7	0.40282175
16	0x3e8c9c2b	0.27462897
17	0x3e97777e	0.29583353
18	0x3ee0ada8	0.4388249
19	0x3e8f9976	0.2804677
20	0x3eb64c46	0.35605067
21	0x3eafb923	0.34320936
22	0x3e82b308	0.25527215
23	0x3e8bb350	0.27285242
24	0x3eed3c65	0.4633514
25	0x3e7d93e8	0.24763453
26	0x3e73276e	0.2374551
27	0x3e5ab7f1	0.2135923
28	0x3e5e7d23	0.21727423
29	0x3e81e9c9	0.25373676
30	0x3eeb71f0	0.45985365
31	0x3e8e4d3f	0.2779331
32	0x3e89827b	0.2685736
33	0x3e9dfff2	0.30859333
34	0x3ea02bd1	0.3128343
35	0x3e4fb145	0.20282467
36	0x3e65b6c2	0.22432998
37	0x3e7156a0	0.23568201
38	0x3e819489	0.25308636
39	0x3e526153	0.20544939
40	0x3eb78db0	0.35850286
41	0x3e69d504	0.22835165
42	0x3e8ac77d	0.27105322
43	0x3e8bea07	0.27326986
44	0x3e734f7f	0.23760794
45	0x3ed2274e	0.41045612
46	0x3e653050	0.22381711
47	0x3efcd227	0.49379084
48	0x3e77a6e1	0.24184753
49	0x3eae6f69	0.34069374
50	0x3e60c9fc	0.21952051
51	0x3e5f59b3	0.21811561
52	0x3e701124	0.23444039
53	0x3e544987	0.20731173
54	0x3e7e8308	0.24854672
55	0x3ebdb9a2	0.3705569
56	0x3e7303a8	0.23731863
57	0x3e6b5441	0.22981359
58	0x3e6c6d88	0.23088658
59	0x3ee21ca5	0.4416248

tcn.0.conv2.weight_v f4 [60, 60, 5]
0	0x3d559a8c	0.05214934
1	0x3b97cd06	0.004632595
2	0x3d3fcdda	0.046827175
3	0xbcb355da	-0.021891523
4	0xbd27d43a	-0.04097388
5	0x3c0ec41b	0.008713747
6	0xbd2af404	-0.041736618
7	0xbd20583c	-0.039146647
8	0xbba44421	-0.0050130044
9	0x3d93ad89	0.072108336
10	0x3a39b195	0.0007083652
11	0xbd0b7394	-0.03404577
12	0xbd5a18d3	-0.05324633
13	0xbd9435cb	-0.07236823
14	0xbd22cafb	-0.03974436
15	0xbd476a1c	-0.04868518
16	0x3b7961cf	0.0038052683
17	0xbb4fc80e	-0.0031704935
18	0xbd12b029	-0.03581253
19	0xbca60e02	-0.020270351
20	0xbb098df3	-0.002098915
21	0x3c0d0e16	0.008609315
22	0xbcea23a6	-0.028581452
23	0x3d028b27	0.031870987
24	0xbd0cb3f8	-0.03435132
25	0x3c1b1ed2	0.009467797
26	0x3d23d96c	0.04000227
27	0x3c96a8eb	0.018391093
28	0x3d8ae126	0.06781225
29	0x3cc87c08	0.024473205
30	0x3bf01d2e	0.0073276972
31	0x3cb1478f	0.021640567
32	0xbc8332a5	-0.01601536
33	0x3d21c74b	0.0394967
34	0x3e122e36	0.1427544
35	0xbd55c264	-0.05218734
36	0xbce2ca50	-0.02768436
37	0xbd61b1af	-0.055101093
38	0x3c977796	0.01848964
39	0x3c492f39	0.012279325
40	0xbcd166e6	-0.025561761
41	0x3d187f44	0.037230745
42	0x3c22f771	0.00994669
43	0xbb7193b6	-0.0036861724
44	0x3de29b5d	0.110647894
45	0xbb78a60f	-0.0037940776
46	0x3c45b348	0.01206667
47	0xbd24bceb	-0.04021923
48	0x3b8b3157	0.004247825
49	0xbd0c439b	-0.03424416
50	0xbd39f675	-0.045401055
51	0xbd889cfc	-0.066705674
52	0xbd253c41	-0.040340666
53	0x3cbf307d	0.02333855
54	0xbd067a88	-0.0328317
55	0x3cac9d91	0.021071227
56	0xbbdaf1ce	-0.0066816574
57	0x3d1369b8	0.035989493
58	0x3cbe0ad1	0.023198517
59	0x3c0af978	0.00848233
60	0xbabcd924	-0.0014407975
61	0x3d3a0545	0.04541518
62	0x3cace5ec	0.021105729
63	0x3be2d6cd	0.006922579
64	0xbd6544e2	-0.055973895
65	0x3cdc598c	0.026898168
66	0xbcf990a9	-0.030464487
67	0xbd37faf5	-0.044917066
68	0x3bd676d8	0.006544929
69	0x3d718d8d	0.058972884
70	0x3d2a7907	0.041619327
71	0xbc475c02	-0.0121679325
72	0xbb100036	-0.0021972782
73	0x3d24563a	0.040121295
74	0xbd32cbc6	-0.043651365
75	0xbcf820dc	-0.030289106
76	0x3ba7ad3d	0.005117087
77	0xbc61476c	-0.013749938
78	0xbd1ea820	-0.038734555
79	0xbd12cda5	-0.03584065
80	0x3caea113	0.02131704
81	0x3c4bf0e0	0.012447566
82	0x3d08012f	0.033204254
83	0x3cec395c	0.028835945
84	0x3e165815	0.14682038
85	0xbd7878c9	-0.060662065
86	0xbc1ef1c5	-0.009701197
87	0xbd0905ce	-0.0334528
88	0xbc1f35b3	-0.009717393
89	0xbd92758e	-0.07151328
90	0xbc561134	-0.013065625
91	0xbc6a557a	-0.014302606
92	0xbca33fd4	-0.019927897
93	0xbd3f4820	-0.046699643
94	0xbc956e22	-0.018240992
95	0x3cac167b	0.021006813
96	0x3c904cf0	0.017614812
97	0xbc0de0d0	-0.0086595565
98	0xbd8b221d	-0.06793616
99	0xbd88a4e6	-0.06672077
100	0xbd592e89	-0.053022895
101	0xbd55c25f	-0.05218732
102	0xbd894e6e	-0.067044124
103	0xbbca5f26	-0.0061758934
104	0x3c9c0832	0.019046877
105	0x3d4a6447	0.04941204
106	0x3d687847	0.05675533
107	0x3a7cc90a	0.0009642994
108	0x3d745f14	0.059660986
109	0x3c2c9d87	0.010535604
110	0xbc2a89ea	-0.010408858
111	0xbd3aab8f	-0.045573767
112	0xbc7eea25	-0.015558754
113	0xbbdeaf3d	-0.0067957924
114	0x3ceca7c4	0.02888859
115	0x3c4786c8	0.01217813
116	0xbc455c09	-0.012045869
117	0xbc5d8ec7	-0.01352281
118	0x3bc529ef	0.0060169618
119	0x3d798875	0.06092115
120	0x3d18a427	0.037265923
121	0x3c941908	0.018078342
122	0x3c505811	0.012716309
123	0xbca638b3	-0.020290708
124	0x3cca3914	0.02468542
125	0x3d4396f8	0.047751397
126	0x3cf7935c	0.030221634
127	0xbc17781d	-0.009244946
128	0xbcf2f2ef	-0.029656855
129	0x3c407eca	0.011748979
130	0xbd14fcae	-0.036373787
131	0x3d38fd54	0.045163468
132	0x3d03b2bc	0.032152876
133	0x3cdb739c	0.026788525
134	0x3d6ebda2	0.058286317
135	0x3d526a1e	0.051370732
136	0x3cb72661	0.022357168
137	0x3cac8da0	0.021063626
138	0xbd076e74	-0.03306432
139	0x3c2ffd9f	0.01074162
140	0x3d184195	0.03717192
141	0x3ce110ce	0.027473833
142	0xbcde31a3	-0.027123278
143	0x3d2f3d09	0.042782817
144	0x3d03a882	0.032143123
145	0x3c72dde5	0.014823412
146	0xbd3a270b	-0.04544739
147	0x3d1d971a	0.03847418
148	0xbb501912	-0.0031753224
149	0xbce61343	-0.028085357
150	0xbb9b2c3a	-0.004735497
151	0xbcb34693	-0.021884238
152	0x3bc66cf0	0.006055467
153	0xbd2fec79	-0.042950127
154	0x3c87ba78	0.016568407
155	0x3caaed3d	0.020865077
156	0x3d0ed817	0.034874048
157	0xbb33b075	-0.002741841
158	0x3d34a59b	0.044103246
159	0x3dca753f	0.09885644
160	0x3cd1cf27	0.025611473
161	0xbc3277a4	-0.010892782
162	0x3d571325	0.052508492
163	0xbc321af6	-0.010870686
164	0x3d1c4440	0.038151026
165	0x3cd4fe70	0.026000232
166	0x3cddec26	0.027090143
167	0x3c3b8054	0.01144417
168	0xbd30b35c	-0.0431398
169	0xbbccd9a6	-0.0062515317
170	0x3d70af47	0.058760908
171	0x3c1d7681	0.009610773
172	0x3cf39ecb	0.029738804
173	0xbccc3946	-0.024929654
174	0xbc20d884	-0.009817246
175	0xbcb91e00	-0.022597313
176	0xbc9232b3	-0.01784644
177	0xbd0aa060	-0.03384435
178	0xbcadfc97	-0.021238608
179	0x3d309888	0.043114215
180	0xbc19df12	-0.009391563
181	0x3d06176e	0.032737188
182	0xbc5f4361	-0.013626904
183	0x3d073a20	0.033014417
184	0xbd188107	-0.037232425
185	0x3ca7d7a1	0.020488562
186	0x3b1b7458	0.002372047
187	0xbd44c12c	-0.048035786
188	0xbcd8934b	-0.026437422
189	0xbd796228	-0.060884625
190	0x3d8924d5	0.06696478
191	0x3d576a6f	0.052591737
192	0x3d522b2b	0.0513107
193	0x3db306d0	0.08741534
194	0x3c156bf9	0.009119981
195	0x3d7a04d3	0.061039757
196	0x3cc0ae3b	0.02352058
197	0x3d74050b	0.05957512
198	0x3b513311	0.0031921307
199	0x3dd4869d	0.10377238
200	0xbcab04ea	-0.020876367
201	0xbd72ed48	-0.05930832
202	0xbd06b635	-0.03288861
203	0x3a812c50	0.0009855125
204	0xbda27d50	-0.07934058
205	0xbd296dbd	-0.04136442
206	0xbcc0a5a6	-0.023516487
207	0xbc2d833d	-0.010590372
208	0x3ca536e2	0.020167772
209	0x3c8e35f2	0.017359708
210	0xbc163407	-0.009167678
211	0x3ca51d39	0.020155536
212	0x3d3c96d6	0.046042286
213	0x3d3abfe2	0.04559315
214	0x3b9f18ff	0.0048552747
215	0xbc80afd5	-0.015708843
216	0x3cac3819	0.021022843
217	0x3cf3fa2a	0.029782373
218	0x3d4a6a0f	0.04941755
219	0xbd2d035f	-0.042239543
220	0xbbd54617	-0.0065085995
221	0x3d0b9bf8	0.03408429
222	0x3ad53a78	0.0016268035
223	0x3d1d69d9	0.038431022
224	0xbcdd79d7	-0.027035637
225	0xbc324c37	-0.010882429
226	0xbd0db5f3	-0.03459735
227	0xbd2170e7	-0.039414313
228	0x3d3bdced	0.045864988
229	0xbc4559ee	-0.012045367
230	0x3d80a792	0.062819615
231	0x3d6af561	0.057362918
232	0xbbca946c	-0.006182244
233	0x3ca4ff72	0.020141337
234	0x3b35a4a5	0.0027716544
235	0x3d888f8d	0.06668005
236	0x3d8dfa6d	0.069325306
237	0x3cb76c57	0.022390528
238	0x3cda540f	0.02665141
239	0x3d6f98a3	0.058495175
240	0x3c509c73	0.012732613
241	0x3c9eab70	0.019368857
242	0xbb658e56	-0.0035027466
243	0x3cfc8eca	0.030829806
244	0xbd2b4de0	-0.041822314
245	0xbcc433cd	-0.023950482
246	0xbd1d8603	-0.03845788
247	0xbd00a90e	-0.031411223
248	0x3b1752be	0.002309009
249	0x3db71aa8	0.08940631
250	0xbc0af982	-0.008482339
251	0xbcedf24c	-0.0290462
252	0x3b734233	0.0037118315
253	0xbc4178b1	-0.01180856
254	0x3d45b80a	0.048271216
255	0x3bd3e6fc	0.0064667445

tcn.0.net.0.bias f4 [60]
0	0x3d61a4fe	0.05508899
1	0xbc507608	-0.012723453
2	0xbde18f52	-0.11013664
3	0xbd794f76	-0.060866795
4	0xbd3f122e	-0.046648197
5	0x3e3391db	0.17536108
6	0x3ea8f0f0	0.3299632
7	0xbe3438f6	-0.17599854
8	0x3e4789ff	0.19486235
9	0xbd9d1202	-0.0766945
10	0xbe0a2af4	-0.13492948
11	0x3d93819a	0.07202454
12	0xbc363ed6	-0.01112338
13	0x3b0bcceb	0.0021331857
14	0x3d4d155c	0.050069198
15	0xbd5a99f0	-0.053369462
16	0x3eb1b791	0.34710363
17	0xbe1ed0c4	-0.15509325
18	0xbe1ba1fe	-0.15198514
19	0xbe7907c0	-0.24319363
20	0xbe64e443	-0.223527
21	0x3e14df5e	0.14538333
22	0xbd19ddd6	-0.037565075
23	0x3e086265	0.13318785
24	0x3d6c9691	0.05776078
25	0x393f3b9b	0.00018237384
26	0x3d31e286	0.04342892
27	0x3d77d83e	0.06050896
28	0x3df855ac	0.121257156
29	0xbd80f55b	-0.06296798
30	0xbcc3f6cf	-0.023921398
31	0x3d9d4603	0.07679369
32	0x3d0b5cef	0.034024175
33	0xbc9bc025	-0.01901252
34	0x3e5214cc	0.20515746
35	0x3bffee9a	0.007810426
36	0xbbb4d457	-0.005518477
37	0xbdae8f5e	-0.08523439
38	0x3eb15366	0.3463394
39	0x3e7946b7	0.24343382
40	0xbdc44058	-0.09582585
41	0xbbc24ee5	-0.005929815
42	0x3e03515c	0.12824005
43	0x3d965bab	0.07341703
44	0x3b3e836b	0.002907003
45	0x3cb8bdb7	0.0225514
46	0x3e25496a	0.16141286
47	0x3e5768b9	0.21036042
48	0x3c36ebed	0.0111646475
49	0x3bf4ea40	0.007474214
50	0x3ce07a27	0.027401997
51	0xbd5c3970	-0.053765714
52	0xbc7f4478	-0.015580289
53	0x3db7ae83	0.08968832
54	0x3d0a6ca6	0.03379502
55	0xbd20b0cc	-0.039231107
56	0xbc051c5e	-0.008124439
57	0xbd978cef	-0.07399928
58	0x3d927d39	0.071527906
59	0xbd776cdf	-0.060406562

tcn.0.net.0.weight_g f4 [60, 1, 1]
0	0x3efb892b	0.49128088
1	0x3f06f67d	0.5271986
2	0x3f0982bd	0.53715116
3	0x3eff69d1	0.4988542
4	0x3ef6babb	0.4818934
5	0x3eff0970	0.49811888
6	0x3f049847	0.51794857
7	0x3ee74349	0.45168522
8	0x3f0643b8	0.5244708
9	0x3ef0b7e0	0.47015285
10	0x3ee9692c	0.45588052
11	0x3f04fb0c	0.5194557
12	0x3eff925d	0.49916354
13	0x3ef57782	0.4794274
14	0x3efa21ea	0.48854
15	0x3f00bfa2	0.5029241
16	0x3efe45fc	0.4966277
17	0x3efea24f	0.49733207
18	0x3edf477e	0.43609232
19	0x3f02046e	0.5078801
20	0x3efa2e21	0.4886332
21	0x3f030a63	0.51187724
22	0x3ee9f663	0.4569579
23	0x3ef642c6	0.4809782
24	0x3f014bf1	0.505065
25	0x3f04f07d	0.51929456
26	0x3f0de5af	0.55428594
27	0x3f0309a3	0.5118658
28	0x3f04f927	0.51942676
29	0x3eeb3f13	0.4594656
30	0x3ec75179	0.38929346
31	0x3f0ccdc5	0.5500148
32	0x3f0574e4	0.52131486
33	0x3f0b6cc2	0.54462826
34	0x3eee1168	0.46497655
35	0x3f01eb8c	0.5075004
36	0x3f0577a2	0.5213567
37	0x3f053272	0.520301
38	0x3f036717	0.5132918
39	0x3f0e1454	0.5549977
40	0x3f071415	0.5276502
41	0x3ef02bdd	0.46908465
42	0x3ef04c4d	0.46933213
43	0x3ef9b320	0.48769474
44	0x3efe2010	0.49633837
45	0x3efc392d	0.49262372
46	0x3ef6c3f8	0.48196387
47	0x3f0dff3d	0.5546759
48	0x3efbbdce	0.49168247
49	0x3ef76821	0.48321632
50	0x3f04063b	0.51572007
51	0x3efe35cc	0.4965042
52	0x3edf79af	0.43647525
53	0x3efda9b4	0.49543536
54	0x3f037edc	0.5136545
55	0x3f04f7dc	0.51940703
56	0x3ee63dbd	0.44968978
57	0x3f090f36	0.53538835
58	0x3f0a9024	0.5412619
59	0x3ef791d2	0.4835344

tcn.0.net.0.weight_v f4 [60, 60, 5]
0	0xbbfd75e2	-0.007735
1	0x3caf706a	0.021415908
2	0x3bfd16e5	0.0077236765
3	0xbd381011	-0.044937197
4	0x3d4ce9fb	0.05002783
5	0x3cb06ca3	0.021536177
6	0xbcfecf83	-0.031104809
7	0x3c4318da	0.011907781
8	0xbc4bab69	-0.012431004
9	0x3cd69c1c	0.026197486
10	0xbcc8f777	-0.024532063
11	0x3ccfaeba	0.02535187
12	0x3cc17a10	0.023617774
13	0xbd1b4ce0	-0.03791511
14	0x3d887ec5	0.06664804
15	0xbc64dfed	-0.013969404
16	0xbb1a8ae6	-0.0023581325
17	0x3ced78a1	0.028988184
18	0xbcca41c5	-0.024689564
19	0x3d0b7055	0.034042675
20	0xbd29b21a	-0.041429617
21	0x3d470e3b	0.048597556
22	0xbc660dc7	-0.014041371
23	0xbd24e12d	-0.040253807
24	0x3c4afeae	0.012389822
25	0x3c6dd891	0.0145169655
26	0x3d106fa0	0.035262704
27	0xbc3d046a	-0.011536697
28	0xbd33a579	-0.04385898
29	0x3d2b60d7	0.0418404
30	0x3c431701	0.01190734
31	0xb97d2d88	-0.00024144922
32	0xbc086a8c	-0.008326184
33	0x3c1fa8e7	0.009744859
34	0x3d248ad9	0.040171478
35	0xbd0a5427	-0.03377166
36	0x3b702d34	0.0036648037
37	0x3d1d35e4	0.038381472
38	0xbc03876e	-0.008027894
39	0x3ca100d1	0.01965371
40	0xbafcd5a1	-0.0019289741
41	0x3c5c6551	0.01345189
42	0x3bd6a935	0.006550933
43	0xbc9795ba	-0.018504012
44	0x3caf7621	0.021418633
45	0xbafb5b09	-0.0019176911
46	0x3d2752a5	0.0408503
47	0xbcbb1a76	-0.022839766
48	0xbd49ed90	-0.049298823
49	0x3d2740dd	0.040833343
50	0x3ce1cb36	0.027562719
51	0xbd2aa638	-0.041662425
52	0x3d0e2fa1	0.03471339
53	0xbd371e66	-0.044706725
54	0x3d0d55a4	0.0345055
55	0xbce01aa2	-0.02735645
56	0x3bd4d595	0.0064951875
57	0xbc24bde4	-0.010055039
58	0xbd37a962	-0.04483927
59	0x3c9ff409	0.019525545
60	0xbcdb6349	-0.026780741
61	0x3c4b5838	0.01241117
62	0xbc27f28a	-0.010250697
63	0xbd04726a	-0.032335676
64	0x39bca0da	0.00035977998
65	0x3cc4b642	0.024012689
66	0xbc2a4d03	-0.010394338
67	0xbb658343	-0.0035020865
68	0xbd2f64bd	-0.04282068
69	0xbc3dea94	-0.011591572
70	0x3c75d3fc	0.015004154
71	0xbb071e9c	-0.002061761
72	0x3cf4b10b	0.029869577
73	0xbae45874	-0.0017421381
74	0x3d2b8dcc	0.041883275
75	0xbbe656d3	-0.007029393
76	0xbc938838	-0.01800929
77	0x3bd5a95d	0.006520434
78	0xbd12da1f	-0.035852548
79	0x3d16c7d8	0.03681168
80	0x3cb058a3	0.02152664
81	0x3c25eae5	0.010126804
82	0x3d173372	0.036914296
83	0xbbf0854c	-0.007340109
84	0x3d1477d4	0.03624709
85	0x3ca78709	0.020450132
86	0xbc5c752c	-0.01345567
87	0xbb9652fb	-0.0045875288
88	0xbcf73270	-0.030175418
89	0x3ce05ba3	0.027387446
90	0xbc37d814	-0.011220951
91	0x3bd114d9	0.006380659
92	0xbc7fbd7b	-0.0156091405
93	0xbc9f3862	-0.019436065
94	0x3d2eb698	0.042654604
95	0x3cc6027a	0.024171103
96	0x3bcdbbe8	0.0062785037
97	0x3cb30587	0.021853222
98	0xbd29b615	-0.041433413
99	0x3d106aeb	0.035258215
100	0xbca7ffe9	-0.02050777
101	0xbcd10cb4	-0.025518753
102	0xbc9c51c0	-0.01908195
103	0xbc32774c	-0.0108927
104	0x3d0f9bbe	0.035060637
105	0x3d0f6b70	0.03501457
106	0x3a395389	0.00070696376
107	0xbc3c38a8	-0.011488117
108	0x3b4b9817	0.0031065994
109	0x3ad95858	0.0016582115
110	0xbc94866b	-0.018130502
111	0xbd22d1cd	-0.039750863
112	0xbccec45e	-0.02524012
113	0xbbc3f8bf	-0.0059805806
114	0x3d5c1c2f	0.053737815
115	0xbcdbdd91	-0.02683905
116	0x3d393ce7	0.045224097
117	0xbc9eee39	-0.019400703
118	0xbc2e0661	-0.010621638
119	0x3d2dfb24	0.042475834
120	0xbc571265	-0.013126944
121	0x3cbf03b8	0.023317203
122	0x3cc1b91c	0.023647837
123	0xbc9dd834	-0.019268133
124	0x3d673d48	0.056454927
125	0x3c8e4ea2	0.01737148
126	0x3d166152	0.036713906
127	0x3d0747da	0.033027507
128	0xbccd99cb	-0.025097748
129	0x3d138a2c	0.036020443
130	0x3cf1627f	0.029465912
131	0xbc18daaf	-0.009329482
132	0x3c1e0c5b	0.0096465
133	0xbc14f764	-0.009092186
134	0x3ce5ed66	0.028067302
135	0xbc02157b	-0.007939692
136	0x3d22ee87	0.03977826
137	0xbcac0a8e	-0.021001127
138	0xbc8ee391	-0.017442496
139	0x3c3be1c9	0.011467406
140	0xbac6a60c	-0.0015155687
141	0xbbf86578	-0.0075804554
142	0x3cb77c6b	0.022398194
143	0xbc59b675	-0.01328813
144	0x3d18c0f3	0.037293386
145	0xbc33d514	-0.010976095
146	0x3c9c4eb8	0.019080505
147	0xbbf6c822	-0.007531182
148	0xbc7f6db6	-0.015590122
149	0x3ccad756	0.024760883
150	0x3d0e9a02	0.034814842
151	0xbd1a1d87	-0.037625816
152	0x3d24f6b0	0.040274322
153	0xbd131907	-0.03591254
154	0x3cf8e857	0.030384226
155	0xbc964bcb	-0.018346688
156	0x3d114e16	0.03547486
157	0x3c3f31b9	0.01166957
158	0xbce94d8f	-0.028479366
159	0x3d1d5a99	0.03841648
160	0x3b13808a	0.0022507035
161	0xbca031ef	-0.01955506
162	0x3bae7f50	0.0053252354
163	0xbd04d425	-0.03242888
164	0xbc345769	-0.011007168
165	0x3c6d4564	0.014481876
166	0xba804f7e	-0.0009789316
167	0x3b945868	0.0045271404
168	0xbd105384	-0.035235897
169	0xbbd4142f	-0.0064721326
170	0xbb8f935f	-0.0043815817
171	0x3ca0b481	0.019617321
172	0x3cdf0609	0.027224557
173	0xbc2e9998	-0.010656737
174	0x3d010746	0.031501077
175	0xbc7ba193	-0.0153583465
176	0xbcd1dc17	-0.025617642
177	0x3c67cffb	0.0141487075
178	0xbd0152e7	-0.031573202
179	0x3ce495e2	0.027903501
180	0x3cc4676c	0.023975097
181	0x3cc6411a	0.024200965
182	0x3d1e545f	0.03865468
183	0xbb06ee7e	-0.002058893
184	0x3c75b947	0.014997787
185	0xbd3149a2	-0.043283112
186	0xbbd5c881	-0.006524146
187	0x3c9c6ab0	0.019093841
188	0xbd0c9516	-0.034321867
189	0x3d154406	0.036441825
190	0xbc83acfa	-0.016073693
191	0x3c1c2c03	0.009531978
192	0xbc8972a5	-0.0167783
193	0xbd1ad954	-0.037804917
194	0x3cb54adb	0.02213042
195	0xbcbc3371	-0.022973748
196	0xbc5119c3	-0.01276249
197	0xbc01aa65	-0.00791416
198	0xbd16304b	-0.03666715
199	0x3cd9d91e	0.026592787
200	0xbccbf526	-0.02489717
201	0xbd2ba743	-0.04190756
202	0x3cb91eef	0.022597758
203	0xbccaedba	-0.02477156
204	0x3d236aa7	0.039896633
205	0xbd1337fc	-0.035942063
206	0x3c83563e	0.016032334
207	0xbbfcccaa	-0.0077148275
208	0xbca3bfd1	-0.019988926
209	0x3d21c166	0.03949108
210	0xbd162981	-0.036660675
211	0x3cd87451	0.026422651
212	0x3c3d7160	0.011562675
213	0xbc8d2244	-0.017228253
214	0x3cef26ea	0.02919336
215	0xbc87e862	-0.016590301
216	0x3ce7aedf	0.028281627
217	0xbc33e26f	-0.010979279
218	0xbc50108c	-0.012699258
219	0x3be97989	0.007125084
220	0xbd19f6c5	-0.037588853
221	0x3cb1ffc1	0.021728398
222	0x3b53ae6f	0.0032300015
223	0xbca82ebb	-0.020530095
224	0x3c007183	0.007839563
225	0xb9b59a3a	-0.00034637918
226	0xbd0a9e9c	-0.033842668
227	0xbcae47f7	-0.02127455
228	0xbbe7ab44	-0.007069977
229	0x3c1b4ef1	0.00947927
230	0x3bb2f220	0.0054609925
231	0xbcf0462a	-0.029330332
232	0x3bc91fc8	0.006137822
233	0x3c2725c8	0.010201879
234	0x3c4d82b0	0.012543365
235	0xbbec7009	-0.007215504
236	0xbc10a310	-0.00882794
237	0x3bc320a4	0.005954819
238	0xbd0ba590	-0.03409344
239	0x3c2a8a1c	0.010408904
240	0x3a81d9a1	0.0009906777
241	0xbc0d8197	-0.008636854
242	0xbba19297	-0.004930805
243	0x3a691bed	0.0008892406
244	0x3d18e5bb	0.037328463
245	0xbc0b815d	-0.008514729
246	0x3d0ee66a	0.03488771
247	0xbbd49e8b	-0.0064886264
248	0xbc9320d7	-0.017959995
249	0x3d47a76a	0.048743643
250	0xbd1ea7ef	-0.038734373
251	0xbcdce501	-0.026964666
252	0xbbfce049	-0.0077171666
253	0xbd167d6d	-0.03674071
254	0x3d26ad72	0.040692754
255	0x3cb65be7	0.02226062

tcn.0.net.4.bias f4 [60]
0	0x3d9b192f	0.07573163
1	0xbd27c22f	-0.040956672
2	0x3c15d59c	0.009145167
3	0xbd228986	-0.039681934
4	0xbba98f53	-0.0051745563
5	0xbb7692d8	-0.0037624147
6	0x3c2daaac	0.010599773
7	0xbcf64c85	-0.030065784
8	0x3cf231f0	0.029564828
9	0xbbe59380	-0.0070061088
10	0xbc0b25ec	-0.008492928
11	0xbd11183b	-0.0354235
12	0x3d1b2aa1	0.03788245
13	0xbd129ae4	-0.035792246
14	0x3d016767	0.031592753
15	0x3ce70580	0.028200865
16	0xbcdae7d2	-0.026721869
17	0xbc6f0e8d	-0.0145908715
18	0xbd0ed339	-0.034869406
19	0x3c23871b	0.009980942
20	0xbcdf1e81	-0.027236225
21	0xbbdd8f57	-0.006761472
22	0xbce03511	-0.027369054
23	0xbc6f1483	-0.014592293
24	0xbc2ba1aa	-0.010475555
25	0x3d189e20	0.037260175
26	0xbccae326	-0.024766516
27	0xbc376371	-0.011193142
28	0xbc4eefab	-0.0126303835
29	0x3c841ea4	0.016127892
30	0xbd487b0e	-0.04894548
31	0x3cce989e	0.025219258
32	0xbbe45c9a	-0.006969047
33	0x3cf210ba	0.029548991
34	0x3b92f9ec	0.0044853594
35	0xbc3073a2	-0.0107697565
36	0x3b9dd5c5	0.004816743
37	0xbc73a01b	-0.014869715
38	0x3c755463	0.014973733
39	0x3c825ac8	0.015912428
40	0xbd039416	-0.032123648
41	0xbc00603d	-0.007835445
42	0x3c9623f4	0.01832769
43	0xbc94c813	-0.01816181
44	0x3ad8b125	0.0016532285
45	0x3d01c345	0.031680364
46	0xbb770354	-0.0037691193
47	0x3e4895e4	0.19588429
48	0xbcc53d77	-0.02407716
49	0xbd1b7e6e	-0.03796237
50	0x3d04fb0e	0.032465987
51	0xbc8ccb87	-0.017186893
52	0xbb5a2f99	-0.003329253
53	0x3c33da65	0.010977362
54	0x3cbce835	0.023059944
55	0x3d4b1ff2	0.049591012
56	0x3c161edd	0.009162632
57	0x3d1897c1	0.0372541
58	0x3cc31589	0.02381398
59	0xbd144cdb	-0.036206108

tcn.0.net.4.weight_g f4 [60, 1, 1]
0	0x3f299434	0.66241765
1	0x3ef93ed9	0.4868076
2	0x3e836e61	0.2567015
3	0x3eada9dc	0.33918655
4	0x3e795304	0.24348074
5	0x3e8c6b16	0.2742545
6	0x3eb3d236	0.35121316
7	0x3eef910b	0.46790347
8	0x3e6e1347	0.23249541
9	0x3e6e2883	0.23257641
10	0x3e99c868	0.3003571
11	0x3e8ba490	0.2727399
12	0x3ecbf072	0.39831883
13	0x3e87552a	0.26432163
14	0x3e5c931a	0.2154049
15	0x3ece3ea7	0.40282175
16	0x3e8c9c2b	0.27462897
17	0x3e97777e	0.29583353
18	0x3ee0ada8	0.4388249
19	0x3e8f9976	0.2804677
20	0x3eb64c46	0.35605067
21	0x3eafb923	0.34320936
22	0x3e82b308	0.25527215
23	0x3e8bb350	0.27285242
24	0x3eed3c65	0.4633514
25	0x3e7d93e8	0.24763453
26	0x3e73276e	0.2374551
27	0x3e5ab7f1	0.2135923
28	0x3e5e7d23	0.21727423
29	0x3e81e9c9	0.25373676
30	0x3eeb71f0	0.45985365
31	0x3e8e4d3f	0.2779331
32	0x3e89827b	0.2685736
33	0x3e9dfff2	0.30859333
34	0x3ea02bd1	0.3128343
35	0x3e4fb145	0.20282467
36	0x3e65b6c2	0.22432998
37	0x3e7156a0	0.23568201
38	0x3e819489	0.25308636
39	0x3e526153	0.20544939
40	0x3eb78db0	0.35850286
41	0x3e69d504	0.22835165
42	0x3e8ac77d	0.27105322
43	0x3e8bea07	0.27326986
44	0x3e734f7f	0.23760794
45	0x3ed2274e	0.41045612
46	0x3e653050	0.22381711
47	0x3efcd227	0.49379084
48	0x3e77a6e1	0.24184753
49	0x3eae6f69	0.34069374
50	0x3e60c9fc	0.21952051
51	0x3e5f59b3	0.21811561
52	0x3e701124	0.23444039
53	0x3e544987	0.20731173
54	0x3e7e8308	0.24854672
55	0x3ebdb9a2	0.3705569
56	0x3e7303a8	0.23731863
57	0x3e6b5441	0.22981359
58	0x3e6c6d88	0.23088658
59	0x3ee21ca5	0.4416248

tcn.0.net.4.weight_v f4 [60, 60, 5]
0	0x3d559a8c	0.05214934
1	0x3b97cd06	0.004632595
2	0x3d3fcdda	0.046827175
3	0xbcb355da	-0.021891523
4	0xbd27d43a	-0.04097388
5	0x3c0ec41b	0.008713747
6	0xbd2af404	-0.041736618
7	0xbd20583c	-0.039146647
8	0xbba44421	-0.0050130044
9	0x3d93ad89	0.072108336
10	0x3a39b195	0.0007083652
11	0xbd0b7394	-0.03404577
12	0xbd5a18d3	-0.05324633
13	0xbd9435cb	-0.07236823
14	0xbd22cafb	-0.03974436
15	0xbd476a1c	-0.04868518
16	0x3b7961cf	0.0038052683
17	0xbb4fc80e	-0.0031704935
18	0xbd12b029	-0.03581253
19	0xbca60e02	-0.020270351
20	0xbb098df3	-0.002098915
21	0x3c0d0e16	0.008609315
22	0xbcea23a6	-0.028581452
23	0x3d028b27	0.031870987
24	0xbd0cb3f8	-0.03435132
25	0x3c1b1ed2	0.009467797
26	0x3d23d96c	0.04000227
27	0x3c96a8eb	0.018391093
28	0x3d8ae126	0.06781225
29	0x3cc87c08	0.024473205
30	0x3bf01d2e	0.0073276972
31	0x3cb1478f	0.021640567
32	0xbc8332a5	-0.01601536
33	0x3d21c74b	0.0394967
34	0x3e122e36	0.1427544
35	0xbd55c264	-0.05218734
36	0xbce2ca50	-0.02768436
37	0xbd61b1af	-0.055101093
38	0x3c977796	0.01848964
39	0x3c492f39	0.012279325
40	0xbcd166e6	-0.025561761
41	0x3d187f44	0.037230745
42	0x3c22f771	0.00994669
43	0xbb7193b6	-0.0036861724
44	0x3de29b5d	0.110647894
45	0xbb78a60f	-0.0037940776
46	0x3c45b348	0.01206667
47	0xbd24bceb	-0.04021923
48	0x3b8b3157	0.004247825
49	0xbd0c439b	-0.03424416
50	0xbd39f675	-0.045401055
51	0xbd889cfc	-0.066705674
52	0xbd253c41	-0.040340666
53	0x3cbf307d	0.02333855
54	0xbd067a88	-0.0328317
55	0x3cac9d91	0.021071227
56	0xbbdaf1ce	-0.0066816574
57	0x3d1369b8	0.035989493
58	0x3cbe0ad1	0.023198517
59	0x3c0af978	0.00848233
60	0xbabcd924	-0.0014407975
61	0x3d3a0545	0.04541518
62	0x3cace5ec	0.021105729
63	0x3be2d6cd	0.006922579
64	0xbd6544e2	-0.055973895
65	0x3cdc598c	0.026898168
66	0xbcf990a9	-0.030464487
67	0xbd37faf5	-0.044917066
68	0x3bd676d8	0.006544929
69	0x3d718d8d	0.058972884
70	0x3d2a7907	0.041619327
71	0xbc475c02	-0.0121679325
72	0xbb100036	-0.0021972782
73	0x3d24563a	0.040121295
74	0xbd32cbc6	-0.043651365
75	0xbcf820dc	-0.030289106
76	0x3ba7ad3d	0.005117087
77	0xbc61476c	-0.013749938
78	0xbd1ea820	-0.038734555
79	0xbd12cda5	-0.03584065
80	0x3caea113	0.02131704
81	0x3c4bf0e0	0.012447566
82	0x3d08012f	0.033204254
83	0x3cec395c	0.028835945
84	0x3e165815	0.14682038
85	0xbd7878c9	-0.060662065
86	0xbc1ef1c5	-0.009701197
87	0xbd0905ce	-0.0334528
88	0xbc1f35b3	-0.009717393
89	0xbd92758e	-0.07151328
90	0xbc561134	-0.013065625
91	0xbc6a557a	-0.014302606
92	0xbca33fd4	-0.019927897
93	0xbd3f4820	-0.046699643
94	0xbc956e22	-0.018240992
95	0x3cac167b	0.021006813
96	0x3c904cf0	0.017614812
97	0xbc0de0d0	-0.0086595565
98	0xbd8b221d	-0.06793616
99	0xbd88a4e6	-0.06672077
100	0xbd592e89	-0.053022895
101	0xbd55c25f	-0.05218732
102	0xbd894e6e	-0.067044124
103	0xbbca5f26	-0.0061758934
104	0x3c9c0832	0.019046877
105	0x3d4a6447	0.04941204
106	0x3d687847	0.05675533
107	0x3a7cc90a	0.0009642994
108	0x3d745f14	0.059660986
109	0x3c2c9d87	0.010535604
110	0xbc2a89ea	-0.010408858
111	0xbd3aab8f	-0.045573767
112	0xbc7eea25	-0.015558754
113	0xbbdeaf3d	-0.0067957924
114	0x3ceca7c4	0.02888859
115	0x3c4786c8	0.01217813
116	0xbc455c09	-0.012045869
117	0xbc5d8ec7	-0.01352281
118	0x3bc529ef	0.0060169618
119	0x3d798875	0.06092115
120	0x3d18a427	0.037265923
121	0x3c941908	0.018078342
122	0x3c505811	0.012716309
123	0xbca638b3	-0.020290708
124	0x3cca3914	0.02468542
125	0x3d4396f8	0.047751397
126	0x3cf7935c	0.030221634
127	0xbc17781d	-0.009244946
128	0xbcf2f2ef	-0.029656855
129	0x3c407eca	0.011748979
130	0xbd14fcae	-0.036373787
131	0x3d38fd54	0.045163468
132	0x3d03b2bc	0.032152876
133	0x3cdb739c	0.026788525
134	0x3d6ebda2	0.058286317
135	0x3d526a1e	0.051370732
136	0x3cb72661	0.022357168
137	0x3cac8da0	0.021063626
138	0xbd076e74	-0.03306432
139	0x3c2ffd9f	0.01074162
140	0x3d184195	0.03717192
141	0x3ce110ce	0.027473833
142	0xbcde31a3	-0.027123278
143	0x3d2f3d09	0.042782817
144	0x3d03a882	0.032143123
145	0x3c72dde5	0.014823412
146	0xbd3a270b	-0.04544739
147	0x3d1d971a	0.03847418
148	0xbb501912	-0.0031753224
149	0xbce61343	-0.028085357
150	0xbb9b2c3a	-0.004735497
151	0xbcb34693	-0.021884238
152	0x3bc66cf0	0.006055467
153	0xbd2fec79	-0.042950127
154	0x3c87ba78	0.016568407
155	0x3caaed3d	0.020865077
156	0x3d0ed817	0.034874048
157	0xbb33b075	-0.002741841
158	0x3d34a59b	0.044103246
159	0x3dca753f	0.09885644
160	0x3cd1cf27	0.025611473
161	0xbc3277a4	-0.010892782
162	0x3d571325	0.052508492
163	0xbc321af6	-0.010870686
164	0x3d1c4440	0.038151026
165	0x3cd4fe70	0.026000232
166	0x3cddec26	0.027090143
167	0x3c3b8054	0.01144417
168	0xbd30b35c	-0.0431398
169	0xbbccd9a6	-0.0062515317
170	0x3d70af47	0.058760908
171	0x3c1d7681	0.009610773
172	0x3cf39ecb	0.029738804
173	0xbccc3946	-0.024929654
174	0xbc20d884	-0.009817246
175	0xbcb91e00	-0.022597313
176	0xbc9232b3	-0.01784644
177	0xbd0aa060	-0.03384435
178	0xbcadfc97	-0.021238608
179	0x3d309888	0.043114215
180	0xbc19df12	-0.009391563
181	0x3d06176e	0.032737188
182	0xbc5f4361	-0.013626904
183	0x3d073a20	0.033014417
184	0xbd188107	-0.037232425
185	0x3ca7d7a1	0.020488562
186	0x3b1b7458	0.002372047
187	0xbd44c12c	-0.048035786
188	0xbcd8934b	-0.026437422
189	0xbd796228	-0.060884625
190	0x3d8924d5	0.06696478
191	0x3d576a6f	0.052591737
192	0x3d522b2b	0.0513107
193	0x3db306d0	0.08741534
194	0x3c156bf9	0.009119981
195	0x3d7a04d3	0.061039757
196	0x3cc0ae3b	0.02352058
197	0x3d74050b	0.05957512
198	0x3b513311	0.0031921307
199	0x3dd4869d	0.10377238
200	0xbcab04ea	-0.020876367
201	0xbd72ed48	-0.05930832
202	0xbd06b635	-0.03288861
203	0x3a812c50	0.0009855125
204	0xbda27d50	-0.07934058
205	0xbd296dbd	-0.04136442
206	0xbcc0a5a6	-0.023516487
207	0xbc2d833d	-0.010590372
208	0x3ca536e2	0.020167772
209	0x3c8e35f2	0.017359708
210	0xbc163407	-0.009167678
211	0x3ca51d39	0.020155536
212	0x3d3c96d6	0.046042286
213	0x3d3abfe2	0.04559315
214	0x3b9f18ff	0.0048552747
215	0xbc80afd5	-0.015708843
216	0x3cac3819	0.021022843
217	0x3cf3fa2a	0.029782373
218	0x3d4a6a0f	0.04941755
219	0xbd2d035f	-0.042239543
220	0xbbd54617	-0.0065085995
221	0x3d0b9bf8	0.03408429
222	0x3ad53a78	0.0016268035
223	0x3d1d69d9	0.038431022
224	0xbcdd79d7	-0.027035637
225	0xbc324c37	-0.010882429
226	0xbd0db5f3	-0.03459735
227	0xbd2170e7	-0.039414313
228	0x3d3bdced	0.045864988
229	0xbc4559ee	-0.012045367
230	0x3d80a792	0.062819615
231	0x3d6af561	0.057362918
232	0xbbca946c	-0.006182244
233	0x3ca4ff72	0.020141337
234	0x3b35a4a5	0.0027716544
235	0x3d888f8d	0.06668005
236	0x3d8dfa6d	0.069325306
237	0x3cb76c57	0.022390528
238	0x3cda540f	0.02665141
239	0x3d6f98a3	0.058495175
240	0x3c509c73	0.012732613
241	0x3c9eab70	0.019368857
242	0xbb658e56	-0.0035027466
243	0x3cfc8eca	0.030829806
244	0xbd2b4de0	-0.041822314
245	0xbcc433cd	-0.023950482
246	0xbd1d8603	-0.03845788
247	0xbd00a90e	-0.031411223
248	0x3b1752be	0.002309009
249	0x3db71aa8	0.08940631
250	0xbc0af982	-0.008482339
251	0xbcedf24c	-0.0290462
252	0x3b734233	0.0037118315
253	0xbc4178b1	-0.01180856
254	0x3d45b80a	0.048271216
255	0x3bd3e6fc	0.0064667445

tcn.2.conv1.bias f4 [60]
0	0xbd343356	-0.04399427
1	0xbc590a06	-0.013247019
2	0xbd0ba8bd	-0.03409647
3	0x3bb602aa	0.005554517
4	0x3c24967d	0.010045645
5	0xbca3b204	-0.019982345
6	0xbb7dd19e	-0.0038729678
7	0x3d2120d4	0.039337948
8	0xbce6fc85	-0.028196583
9	0xbab84138	-0.0014057523
10	0xbc589ab8	-0.013220482
11	0x3cfa8f3a	0.030585874
12	0x3d4ece5c	0.05048977
13	0x3ca3f0f5	0.020012358
14	0xbca97e30	-0.020690054
15	0xbce05eeb	-0.02738901
16	0x3c57acb5	0.013163735
17	0xbd5ab0dc	-0.053391322
18	0xbc8cb120	-0.017174304
19	0x3cfa0377	0.03051923
20	0x3c8afc25	0.016965935
21	0x3e2a5e6b	0.1663758
22	0xbd063415	-0.032764513
23	0x3c0c189b	0.008550788
24	0xbd1cf633	-0.03832073
25	0x3cd33fac	0.025787197
26	0x3b227d4b	0.0024793919
27	0xba4a2cd5	-0.0007712369
28	0xbb2c9738	-0.002633525
29	0xbbf438ca	-0.007453059
30	0x3cc750fc	0.024330609
31	0x3c89502e	0.016761865
32	0x3bb7dcd8	0.0056110434
33	0x3c598119	0.013275408
34	0x3c4d0620	0.012513667
35	0x3d48f0cd	0.04905777
36	0xbcd827f4	-0.026386239
37	0xbcd2e1ef	-0.0257425
38	0xbc56c2fa	-0.0131080095
39	0xbc9706a4	-0.018435784
40	0xbcb68372	-0.022279475
41	0x3d134b01	0.0359602
42	0xbc7a0ebc	-0.015262302
43	0x3acc0bab	0.0015567442
44	0xbc658d80	-0.014010787
45	0x3d6b5be1	0.05746067
46	0xbd07c95a	-0.03315101
47	0xbcbd2b3d	-0.023091907
48	0xbbabe004	-0.0052452106
49	0x3d2c83c4	0.04211785
50	0xbc312789	-0.010812649
51	0xbd19ea5e	-0.037577026
52	0xbc30752e	-0.010770125
53	0x3d3e3fea	0.046447672
54	0xbcaf7371	-0.021417351
55	0xbc00cd31	-0.007861421
56	0x3bd194ed	0.006395927
57	0xbd087364	-0.03331317
58	0xbc91e741	-0.017810466
59	0x3d0bdcb7	0.034146037

tcn.2.conv1.weight_g f4 [60, 1, 1]
0	0x3ef9893a	0.48737508
1	0x3ea75ae4	0.32686532
2	0x3ef39507	0.47574636
3	0x3f0eebdb	0.55828637
4	0x3e5d1769	0.21590962
5	0x3f075a21	0.528719
6	0x3e9adaba	0.30245
7	0x3ec01464	0.37515557
8	0x3ec4af20	0.3841486
9	0x3e6d8e1f	0.23198746
10	0x3ebe380f	0.37152144
11	0x3e676d70	0.22600341
12	0x3ef6c209	0.48194912
13	0x3e911cd6	0.28342313
14	0x3ee8edde	0.45493978
15	0x3ecbace4	0.39780343
16	0x3ee0c603	0.4390107
17	0x3f083d32	0.53218377
18	0x3eee085c	0.46490753
19	0x3e575961	0.21030189
20	0x3ea15668	0.31511235
21	0x3e936d0e	0.2879414
22	0x3e8edac3	0.27901277
23	0x3ebd6a79	0.36995295
24	0x3e8706a9	0.2637227
25	0x3efbbe0f	0.4916844
26	0x3eb25631	0.34831384
27	0x3ef3f9fd	0.47651663
28	0x3f07657b	0.5288922
29	0x3ebc9959	0.36835745
30	0x3f09c172	0.538108
31	0x3f01db4c	0.50725245
32	0x3f010f8b	0.5041434
33	0x3e98ffaa	0.29882556
34	0x3f037362	0.51347935
35	0x3ed5a218	0.4172523
36	0x3ed4985e	0.41522497
37	0x3f04d92e	0.5189389
38	0x3e6d105a	0.23150769
39	0x3eef5f54	0.46752417
40	0x3e8e5d23	0.27805433
41	0x3f083e5c	0.5322015
42	0x3e93bbde	0.2885427
43	0x3f02ecf2	0.511428
44	0x3e819506	0.25309008
45	0x3e75e6d7	0.2401384
46	0x3e850032	0.25976712
47	0x3ea3e8ac	0.32013452
48	0x3e62bf6c	0.22143334
49	0x3e5c9102	0.21539691
50	0x3ee7fd09	0.45310238
51	0x3ea1281d	0.31475917
52	0x3e443a76	0.19162926
53	0x3ed510c9	0.4161437
54	0x3ee3bdbe	0.444807
55	0x3ec3ce3d	0.38243285
56	0x3e54e7aa	0.20791498
57	0x3e9c68eb	0.30548796
58	0x3eff7adf	0.4989843
59	0x3f02b628	0.510592

tcn.2.conv1.weight_v f4 [60, 60, 5]
0	0xbd053337	-0.032519545
1	0xbbedc444	-0.0072560627
2	0xbd4adc32	-0.0495264
3	0x3c9cec3c	0.019155614
4	0x3b9ea202	0.00484109
5	0x3d1314fa	0.035908677
6	0xbc59103c	-0.0132484995
7	0xbcb3b19d	-0.021935279
8	0x3d2c48df	0.042061683
9	0x3c643be7	0.013930297
10	0x3b8b4496	0.0042501194
11	0x3b7e4f12	0.0038804454
12	0x3c647d4a	0.013945887
13	0x3cf3af88	0.029746786
14	0xbd0308fe	-0.031990997
15	0xbc97a2c7	-0.018510235
16	0x3cbe43dc	0.023225717
17	0x3cd6ecd3	0.026235973
18	0x3cd26305	0.025681982
19	0x3c8ee3ad	0.017442549
20	0x3cef00fe	0.029175278
21	0xbd1b1db2	-0.037870117
22	0xbcfeaa15	-0.03108696
23	0xbd2c0f8a	-0.042007007
24	0xbceedb4c	-0.029157303
25	0x3bc0aff6	0.005880351
26	0xbd2316ee	-0.03981679
27	0xbd30ee6a	-0.04319612
28	0xbcf336b7	-0.029689176
29	0xbd26264a	-0.04056386
30	0xbbc87254	-0.0061171446
31	0xbd3ce5be	-0.046117537
32	0x3b64a969	0.0034891015
33	0x3c681b77	0.014166704
34	0x3c52fd4e	0.012877775
35	0xbd26f90f	-0.040764865
36	0x3b1dfbee	0.002410646
37	0x3b53d816	0.0032324842
38	0xbd0dd47f	-0.03462648
39	0x3bec5a65	0.0072129243
40	0x3d05b770	0.032645643
41	0x3c8cc588	0.017184034
42	0xbd069fd2	-0.03286726
43	0xbd3bd82a	-0.045860447
44	0x3d058e7d	0.03260659
45	0xbcda36fb	-0.026637545
46	0xbb6b24e1	-0.0035880136
47	0x3b7dd687	0.0038732605
48	0x3d35f556	0.044423424
49	0x3b790d61	0.003800236
50	0xbd524d2c	-0.051343128
51	0xbce1f8e4	-0.0275845
52	0xbbfe3bde	-0.0077586016
53	0xbc69819b	-0.014252092
54	0xbd251bc5	-0.040309686
55	0xbcb4d229	-0.022072868
56	0xbd056c45	-0.032573957
57	0x3c921b2d	0.017835224
58	0x3d116a26	0.03550162
59	0x3ca1a979	0.019734131
60	0xbd4bc729	-0.04975048
61	0xbc44a4c5	-0.012002175
62	0xbd1e9eb3	-0.038725566
63	0xbd68c0dc	-0.05682455
64	0xbc4fd2c5	-0.012684529
65	0x3c06f560	0.008237213
66	0xbc213fd3	-0.009841877
67	0xbcc77e6e	-0.024352279
68	0xbcae6125	-0.021286556
69	0x3d0b950c	0.03407769
70	0x3cb939db	0.022610595
71	0xbc461493	-0.012089866
72	0x3c063716	0.008191844
73	0xbd5cb78d	-0.053885985
74	0xbd166171	-0.03671402
75	0x3d2a48ce	0.04157334
76	0x3ccc5c02	0.024946216
77	0xbbba25de	-0.0056807837
78	0x3b14e3e4	0.0022718841
79	0x3c8c3c92	0.017118726
80	0x3b7e4de4	0.003880375
81	0xbc844852	-0.016147766
82	0xbc94de2c	-0.018172346
83	0xbbcf915d	-0.0063344673
84	0xbc044b42	-0.0080745835
85	0xbd44ed65	-0.04807796
86	0xbc0b57be	-0.008504806
87	0x3cb2dc52	0.021833573
88	0x3c68382e	0.0141735505
89	0xbc9ec613	-0.019381559
90	0xbd2bd03c	-0.041946635
91	0x3ca9f494	0.020746507
92	0x3d08b3dd	0.033374656
93	0xbccb94ef	-0.02485129
94	0x3ce30f52	0.027717266
95	0x3cb35e99	0.021895694
96	0xbd2f09e3	-0.042734038
97	0xbca8e25e	-0.020615753
98	0xbd70929c	-0.058733568
99	0x3cf3c3c5	0.029756436
100	0x3ca4950f	0.020090608
101	0x3cc066f5	0.023486594
102	0x3d0cf2f4	0.034411386
103	0xbc9bdfa2	-0.019027535
104	0x3d2a1f2d	0.041533638
105	0xbd17a692	-0.03702409
106	0xbb681aac	-0.0035416288
107	0x3c80db59	0.015729593
108	0xbc9a34bc	-0.018823974
109	0x3d041ddb	0.032255035
110	0x3cf22b8c	0.02956178
111	0x3b98a1f3	0.0046579777
112	0x3cc94c55	0.02457253
113	0x3d33192c	0.043725178
114	0x3c9868ec	0.018604718
115	0x3c90b71d	0.01766544
116	0xbce263bd	-0.02763545
117	0x3b237218	0.0024939831
118	0x3ce96ef7	0.028495295
119	0xbd5e4486	-0.054264568
120	0x3b95b73f	0.004568964
121	0xbc1e58cb	-0.009664725
122	0x3b8096fc	0.0039242487
123	0x3bb38625	0.0054786378
124	0xbc8d4746	-0.0172459
125	0xbc20e5a7	-0.009820378
126	0xbd15b823	-0.03655256
127	0xbd1ccfc5	-0.038284082
128	0x3b66d9f8	0.0035225134
129	0x3ba3c3ef	0.0049977223
130	0x3c2008f8	0.009767763
131	0xbca3517c	-0.019936316
132	0xbd00f71f	-0.031485673
133	0x3c88f278	0.01671718
134	0xbcc9babd	-0.024625177
135	0xbb26f13f	-0.0025473384
136	0xbd2cd371	-0.042193834
137	0x3bf9db74	0.007625038
138	0x3c5d9889	0.013525137
139	0x3cab0926	0.020878386
140	0x3cce6a61	0.02519721
141	0xbcf48162	-0.02984685
142	0x3bd74038	0.006568935
143	0xbc8dc010	-0.017303497
144	0xbd1430bc	-0.03617929
145	0xbc98937f	-0.01862502
146	0x3b92ee8d	0.004484004
147	0xbcc2b17c	-0.023766272
148	0xbc93d614	-0.018046416
149	0xbbfb0c02	-0.0076613436
150	0x3d03b1d3	0.03215201
151	0xbcfe3c65	-0.031034658
152	0xbc556516	-0.013024589
153	0xbd12111a	-0.03566084
154	0xbb5396be	-0.0032285894
155	0xbcb76249	-0.022385733
156	0x3ccf42aa	0.025300343
157	0xbc2b167e	-0.010442374
158	0xbc1ccfca	-0.009571025
159	0xbd260325	-0.040530343
160	0xbd4cca80	-0.049997807
161	0x3cbb2333	0.022843933
162	0xbbcef065	-0.0063152784
163	0xbd4be5f2	-0.04977984
164	0xbd30f949	-0.043206487
165	0xbd388cb8	-0.045056075
166	0xbbff79ea	-0.0077965157
167	0x3c3b3769	0.011426785
168	0x3d1bcf94	0.03803976
169	0x3ce41548	0.027842179
170	0x3c28784a	0.010282585
171	0x3cc24c57	0.023718042
172	0xbc48034d	-0.012207818
173	0x3d30f91c	0.04320632
174	0x3b258c70	0.002526071
175	0xbcef29af	-0.029194681
176	0xbcf4216a	-0.02980109
177	0xbcc81132	-0.024422262
178	0xbd2dd162	-0.04243601
179	0x3d2821af	0.04104775
180	0xbd253f8e	-0.040343814
181	0x3c874e42	0.016516808
182	0x3cbc576f	0.02299091
183	0x3ccc63f4	0.024950005
184	0x3d107fa6	0.035277985
185	0xbc9863ed	-0.018602336
186	0x3ccdbddb	0.025114944
187	0x3c79ffd4	0.015258748
188	0xbd3f94e5	-0.046772856
189	0xbd0e8575	-0.034795243
190	0xbd1d682f	-0.038429435
191	0xbc37ab69	-0.011210301
192	0x3cc7ff61	0.024413766
193	0xb9caf225	-0.00038708854
194	0xbd4433e2	-0.04790104
195	0x3cd59895	0.026073733
196	0xbb1b40ba	-0.0023689703
197	0x3ae0443d	0.001711018
198	0x3c4b4092	0.0124055315
199	0xbb03cb82	-0.0020110314
200	0xbd31b35b	-0.043383937
201	0xbccb570e	-0.024821784
202	0xbd098d57	-0.033582058
203	0xbd0aafb2	-0.033858962
204	0x3d191fba	0.037383772
205	0xbc6664b7	-0.014062098
206	0xbb8ca049	-0.0042915684
207	0xbb183b81	-0.0023228826
208	0x3d2c2d6d	0.04203551
209	0xbd3c5c1c	-0.04598628
210	0xbd07e044	-0.03317286
211	0x3c207ff8	0.009796135
212	0x3ca3c1d0	0.019989878
213	0x3cf32f81	0.029685738
214	0xbc1cc249	-0.009567806
215	0xbd13efb8	-0.036117285
216	0xbc538eec	-0.012912493
217	0x3d08a75c	0.03336273
218	0x3b704381	0.003666133
219	0x3d2a8599	0.041631315
220	0x3c3d754f	0.011563613
221	0xbcb2eb20	-0.021840632
222	0x3c5d27c3	0.013498249
223	0xbd474a1c	-0.04865466
224	0xbd15f7ff	-0.03661346
225	0x3d09b958	0.033624023
226	0xbc3c66d6	-0.011499127
227	0x3d106191	0.035249297
228	0x3d0fa8db	0.035073142
229	0x3c7066ba	0.014672929
230	0x3c599860	0.013280958
231	0xbd02b5e2	-0.03191174
232	0x3cc89c76	0.024488669
233	0xbd316114	-0.04330547
234	0xbcf87690	-0.030329973
235	0xbb3a8efb	-0.002846657
236	0xbb8c6926	-0.0042849956
237	0xbb16e5bf	-0.0023025123
238	0xbcb2bbd3	-0.021818077
239	0x3d34340c	0.04399495
240	0xbc2ba239	-0.010475689
241	0xbac53970	-0.0015047025
242	0x3c958069	0.018249707
243	0x3d1cbd1d	0.03826629
244	0xbc877ba9	-0.016538458
245	0x3d0c4a67	0.034250643
246	0xbd352a9a	-0.04423008
247	0x3bb6d8c2	0.0055800388
248	0xbd4ca4f0	-0.049961984
249	0xbd33c22d	-0.043886352
250	0x3cb03fd3	0.021514809
251	0xbce4d8c9	-0.027935402
252	0xbcf2e036	-0.029647928
253	0xbc41324e	-0.011791779
254	0xbc3bf824	-0.011472736
255	0x3cee8ed2	0.029120836
