raisimGymTorch/raisimGymTorch/algo/ppo/student/models/tcn_student_2022_09_24.pth (torch, 900915 bytes, 74 tensors)

tcn.0.conv1.bias f4 [60]
0.05921306 0.026303945 -0.022806624 0.037067056 0.05266723 -0.041633178 0.062280905 0.07690879
0.009280351 0.04830287 -3.467421e-05 -0.0035262378 -0.024870751 0.016488226 0.087132715 0.0307651
0.0018776827 0.074170046 -0.009414109 0.08848214 0.028697463 -0.015498743 -0.0004088133 -0.070555076
-0.06575019 -0.004479869 0.05686317 -0.009236602 -0.012243211 -0.022042066 0.032352533 0.051500324
-0.074155964 -0.008519735 0.0043084915 0.070372365 -0.00315434 -0.049281046 0.045680843 0.048875798
-0.009997822 0.027017701 -0.044752542 0.010852108 0.04584368 -0.010392362 0.016685337 -0.0068936246
0.0017211351 -0.079774104 -0.0056274445 -0.014075182 0.06971971 0.015635137 0.053773012 0.053991262
-0.03758816 0.012064336 -0.008481129 0.03617132
00000000: 6589 723d 5f7b d73c f5d4 babc a0d3 173d
00000010: 98b9 573d 8d87 2abd 431a 7f3d 5b82 9d3d
00000020: 9d0c 183c 3bd9 453d 266f 11b8 7418 67bb
00000030: bfbd cbbc 5112 873c a372 b23d 1707 fc3c
00000040: 941c f63a 77e6 973d a33d 1abc 2036 b53d
00000050: f116 eb3c 71ee 7dbc fe55 d6b9 2e7f 90bd
00000060: 09a8 86bd ddcb 92bb 5be9 683d 1e55 17bc
00000070: c097 48bc 9091 b4bc 1784 043d 01f2 523d
00000080: 15df 97bd 5c96 0bbc 3f2e 8d3b 631f 903d
00000090: 0bb9 4ebb ecda 49bd d61b 3b3d fd31 483d
000000a0: e8cd 23bc 3a54 dd3c 714e 37bd 0acd 313c
000000b0: 95c6 3b3d ba44 2abc b0af 883c eae3 e1bb
000000c0: b697 e13a 9b60 a3bd 6d66 b8bb 989b 66bc
000000d0: 35c9 8e3d 4215 803c 1741 5c3d f125 5d3d
000000e0: 0bf6 19bd 7ea9 453c 6ff4 0abc 6128 143d

tcn.0.conv1.weight_g f4 [60, 1, 1]
0.5796236 0.53585064 0.5514215 0.55611384 0.57306087 0.58042 0.57979846 0.5532786
0.5460585 0.5737922 0.58177376 0.5825124 0.55789006 0.58566636 0.58137834 0.56516695
0.54415494 0.5871974 0.5498878 0.58814967 0.60027045 0.54590183 0.57413065 0.56774193
0.5541409 0.5363108 0.56193537 0.5709981 0.58550316 0.5775425 0.5949174 0.587212
0.57014066 0.5720262 0.5493329 0.56477094 0.5377842 0.5870528 0.5717721 0.59342265
0.56244576 0.5669794 0.56489336 0.5922158 0.5502798 0.5194789 0.5770491 0.56213844
0.5474386 0.5662126 0.59674925 0.5931719 0.5575083 0.5806523 0.5691038 0.5438695
0.6025556 0.56881076 0.578089 0.5202816
00000000: 3662 143f 822d 093f f629 0d3f 7a5d 0e3f
00000010: 1eb4 123f 6896 143f ac6d 143f aba3 0d3f
00000020: 7dca 0b3f 0ce4 123f 20ef 143f 881f 153f
00000030: e2d1 0e3f 3bee 153f 36d5 143f c8ae 103f
00000040: bd4d 0b3f 9252 163f 72c5 0c3f fa90 163f
00000050: 53ab 193f 39c0 0b3f 3afa 123f 8957 113f
00000060: 2edc 0d3f aa4b 093f ffda 0f3f ee2c 123f
00000070: 89e3 153f d3d9 133f 824c 183f 8753 163f
00000080: bdf4 113f 4f70 123f 15a1 0c3f d494 103f
00000090: 3aac 093f 1849 163f a85f 123f 8cea 173f
000000a0: 72fc 0f3f 9025 113f da9c 103f 749b 173f
000000b0: 23df 0c3f 92fc 043f 7db9 133f 4ee8 0f3f
000000c0: f024 0c3f 4ff3 103f 8fc4 183f 1dda 173f
000000d0: ddb8 0e3f a1a5 143f c9b0 113f 083b 0b3f
000000e0: 1541 1a3f 959d 113f a4fd 133f 2d31 053f

tcn.0.conv1.weight_v f4 [60, 60, 5]
-0.05027519 -0.038070496 0.017066611 -0.024742212 0.009422123 -0.020363452 -0.0074664867 0.027887015
0.02928108 -0.032491665 -0.014272833 -0.02630496 -0.04704776 0.018699098 -0.007326151 0.02265291
0.017464807 0.0004195027 -0.05483949 0.015375225 -0.0020840217 -0.004920895 -0.043947786 -0.056875866
0.042094775 0.012670533 0.02225758 0.034513243 -0.056771103 -0.0310736 -0.01755063 0.012449444
-0.04590516 0.019657046 0.021153837 0.02694312 -0.020602033 0.034554888 -0.04261686 -0.0011317064
0.01453283 -0.00097166235 -0.0091657825 -0.03212344 -0.02473941 -0.0407194 -0.04378611 0.027403094
-0.03182552 -0.0409227 0.009298158 0.0216474 -0.02683781 -0.035073463 0.022173615 0.035110448
-0.008142315 0.035290964 -0.020984601 0.020321494 -0.009454791 0.012339992 -0.0120514445 -0.06471753
0.03389892 -0.025741767 0.022349995 -0.003952131 -0.026373079 0.023540344 0.031136217 -0.032890942
-0.03904517 0.031540975 -0.007677626 0.009804647 -0.037176497 0.026695052 -0.061054755 0.029614996
0.051063344 0.029592277 -0.015945528 -0.041113336 0.05024982 -0.04022341 -0.012468563 0.020812744
-0.008217419 -0.017297806 0.015295224 -0.021252962 -0.01120922 -0.034641597 0.0017041627 0.02452584
0.040441763 -0.035550337 0.0246121 0.023342118 -0.03307351 0.04797163 -0.02486061 0.0049263895
0.040179774 0.015221096 -0.00814649 -0.018701412 -0.047352426 0.029800031 0.012256018 -0.01144233
-0.012388138 -0.041091755 -0.008816204 -0.03585999 -0.013718655 -0.033270366 -0.033469144 -0.0043370305
0.04437458 0.00997381 0.0055407705 -0.06666138 0.01583704 -0.020749573 0.026352461 0.038919356
-0.0023293556 0.045386408 0.031437557 0.04535568 -0.032691114 -0.03568317 -0.023707883 0.02390314
0.057217445 0.00305296 -0.0037475172 0.025573289 -0.024217889 0.021386966 -0.024679778 -0.05309237
0.0574609 0.039449506 0.023615958 0.017694257 -0.031047262 -0.0056302045 -0.027070537 0.02634589
-0.044206172 -0.035871882 0.05959957 0.046429787 0.043831322 -0.025441987 -0.06479124 0.005219952
-0.02226873 0.033220384 0.026104469 -0.026966661 0.02758584 0.018726006 0.008125045 0.0052687535
0.012861372 0.026518738 -0.033002906 -0.0069346987 -0.032085974 -0.04975436 0.017624538 -0.008743884
-0.028263347 -0.017292935 -0.035123933 0.036412437 -0.014766162 -0.028442683 -0.03273261 -0.024005737
0.01413564 0.033295635 0.031996895 -0.04411858 -0.046821747 -0.0058657415 0.045434006 0.027062614
0.02288696 -0.052100707 0.03386498 -0.016415188 -0.021651715 -0.039865296 -0.010685786 0.0015590708
0.047809802 0.03045777 -0.007820682 -0.064417444 -0.032304384 -0.017453711 -0.036246866 -0.017909309
-0.031564977 -0.0035723501 -0.024841651 0.033215355 -0.005284427 -0.00033340085 -0.035403788 0.033900104
-0.0053732605 -0.03786914 -0.0127039915 0.01932022 0.042801753 0.01543551 0.017589193 -0.008771705
-0.010640134 0.0023409463 0.025054509 -0.009651881 -0.037423704 0.009870294 0.051375013 -0.024325734
0.02651022 -0.058766615 -0.012494545 -0.03526286 0.01692963 0.030990552 -0.062409367 -0.0014213335
-0.00756675 -0.026403558 -0.043385394 0.0038918657 -0.04333482 0.0054977895 -0.01739223 -0.03705946
0.03337588 0.02461162 0.020482924 -0.027329745 -0.013962339 -0.017067833 0.03199278 0.04117079
00000000: 5ced 4dbd cfef 1bbd 47cf 8b3c 2eb0 cabc
00000010: 405f 1a3c 41d1 a6bc 6ea9 f4bb 4f73 e43c
00000020: e0de ef3c fb15 05bd 9ad8 69bc 807d d7bc
00000030: 27b5 40bd da2e 993c 3510 f0bb 9892 b93c
00000040: 5b12 8f3c b3f0 db39 609f 60bd 5ee8 7b3c
00000050: 1594 08bb 763f a1bb 9802 34bd abf6 68bd
00000060: 926b 2c3d 1198 4f3c 8755 b63c c25d 0d3d
00000070: d188 68bd 108e febc 57c6 8fbc c1f8 4b3c
00000080: 0d07 3cbd d007 a13c d04a ad3c d1b7 dc3c
00000090: 98c5 a8bc 6d89 0d3d 048f 2ebd c455 94ba
000000a0: 1b1b 6e3c 28b7 7eba 142c 16bc de93 03bd
000000b0: 4eaa cabc 63c9 26bd 1059 33bd 747c e03c
000000c0: 7a5b 02bd 909e 27bd 4d57 183c e355 b13c
000000d0: f8da dbbc 31a9 0fbd 71a5 b53c f9cf 0f3d
000000e0: 5867 05bc 428d 103d e6e7 abbc 4379 a63c
000000f0: 45e8 1abc ae2d 4a3c 6c73 45bc a08a 84bd
00000100: 98d9 0a3d 66e0 d2bc 5617 b73c e180 81bb
00000110: 5b0c d8bc aed7 c03c 6111 ff3c a7b8 06bd
00000120: d4ed 1fbd 1c31 013d 9894 fbbb aca3 203c
00000130: 6246 18bd 95af da3c 8d14 7abd 269b f23c
00000140: cc27 513d 816b f23c 32a0 82bc 7566 28bd
00000150: c1d2 4d3d 4dc1 24bd f248 4cbc 7d7f aa3c
00000160: 5aa2 06bc 21b4 8dbc d298 7a3c b11a aebc
00000170: e0a6 37bc 59e4 0dbd 365e df3a 6aea c83c
00000180: 43a6 253d 3b9d 11bd 519f c93c f837 bf3c
00000190: 1778 07bd e67d 443d 7aa8 cbbc 8d6d a13b
000001a0: 8c93 243d e761 793c db78 05bc b433 99bc
000001b0: 9ef4 41bd 321f f43c 77cd 483c 9c78 3bbc
000001c0: 9ef7 4abc d44f 28bd d771 10bc ede1 12bd
000001d0: 36c4 60bc 8246 08bd f116 09bd a61d 8ebb
000001e0: 1fc2 353d 3169 233c 5a8f b53b c385 88bd
000001f0: aebc 813c 02fb a9bc 1ee1 d73c e769 1f3d
00000200: 1aa8 18bb 19e7 393d abc4 003d e1c6 393d
00000210: 1ee7 05bd 8428 12bd 0937 c2bc 85d0 c33c
00000220: d75c 6a3d 2b14 483b e898 75bb 137f d13c
00000230: 9864 c6bc b833 af3c 3f2d cabc 6377 59bd
00000240: 1f5c 6b3d ce95 213d 4176 c13c 8cf3 903c
00000250: d456 febc 947d b8bb 08c3 ddbc 56d3 d73c
00000260: 8811 35bd 65ee 12bd ae1e 743d 292d 3e3d
00000270: 7988 333d b76b d0bc 45b1 84bd 220c ab3b
00000280: e96c b6bc 1912 083d 0ad9 d53c 30e9 dcbc
00000290: b3fb e13c 4867 993c e91e 053c 82a5 ac3b
000002a0: 81b8 523c d33d d93c 0e2e 07bd 783c e3bb
000002b0: 956c 03bd 3acb 4bbd 5661 903c 8242 0fbc
000002c0: 8988 e7bc eaa9 8dbc 1dde 0fbd 3525 153d
000002d0: c6ed 71bc a100 e9bc a112 06bd aea7 c4bc
000002e0: 2c99 673c 0161 083d 2d0f 033d afb5 34bd
000002f0: 29c8 3fbd 6835 c0bb 0219 3a3d 6ab2 dd3c
00000300: 6f7d bb3c 8d67 55bd 01b6 0a3d 2579 86bc
00000310: f05e b1bc cb49 23bd 6f13 2fbc bc59 cc3a
00000320: 36d4 433d 9382 f93c 5122 00bc 4bed 83bd
00000330: 9a51 04bd 16fb 8ebc 9877 14bd 8bb6 92bc
00000340: 474a 01bd 171e 6abb b880 cbbc d30c 083d
00000350: fd28 adbb 4ecc aeb9 9003 11bd d6da 0a3d
00000360: 2d12 b0bb ac1c 1bbd 6724 50bc 7045 9e3c
00000370: e450 2f3d 39e5 7c3c 3617 903c 33b7 0fbc
00000380: f553 2ebc 906a 193b 1d3f cd3c ec22 1ebc
00000390: 9949 19bd 03b7 213c 9b6e 523d c346 c7bc
000003a0: f62b d93c 43b5 70bd ecb5 4cbc ca6f 10bd
000003b0: 02b0 8a3c e6df fd3c f7a0 7fbd 0a4c baba
000003c0: 80f2 f7bb 464c d8bc e2b4 31bd ac0e 7f3b
000003d0: da7f 31bd cd26 b43b 267a 8ebc a9cb 17bd
000003e0: 26b5 083d 4f9e c93c cecb a73c a1e2 dfbc
000003f0: 4bc2 64bc d7d1 8bbc dc0a 033d b4a2 283d

tcn.0.conv2.bias f4 [60]
0.033598043 -0.085132904 -0.014462336 0.0036481384 -0.02814886 0.033959873 0.01010501 0.079124354
0.079242244 -0.07608417 -0.03775379 0.032476284 -0.034316912 -0.05585723 -0.06655885 0.0077558015
-0.07169713 0.008064817 -0.004147319 0.07671185 0.0700943 -0.042939182 0.036165863 -0.026926205
-0.017863985 0.023730159 -0.059994597 0.0019870412 0.044638216 0.06880471 0.0090045575 -0.0017493761
0.08362235 0.028504042 -0.066281706 -0.080479905 0.007425431 -0.0609348 -0.005502304 0.054132618
0.04656715 0.0020873863 0.0887011 0.038675558 0.021913348 -0.018125644 0.0023766628 0.019854886
0.040682983 0.061116256 -0.07008047 0.03229447 0.091427185 0.053936206 0.01116587 -0.06828937
0.07045593 -0.09655363 0.03985049 0.00044464503
00000000: 1a9e 093d 295a aebd 6ff3 6cbc 9b15 6f3b
00000010: 7098 e6bc 8219 0b3d 7c8f 253c f30b a23d
00000020: c249 a23d 04d2 9bbd b8a3 1abd da05 053d
00000030: e48f 0cbd 8dca 64bd 0250 88bd 6124 fe3b
00000040: f2d5 92bd 4b22 043c 3ce6 87bb 1a1b 9d3d
00000050: 9a8d 8f3d ffe0 2fbd a822 143d 5894 dcbc
00000060: 7e57 92bc c065 c23c e5bc 75bd 0539 023b
00000070: 90d6 363d 7ce9 8c3d da87 133c 524b e5ba
00000080: 3242 ab3d 4f81 e93c b4be 87bd a6d2 a4bd
00000090: 0851 f33b c596 79bd ac4c b4bb 2aba 5d3d
000000a0: 32bd 3e3d 88cc 083b eca8 b53d 436a 1e3d
000000b0: 9f83 b33c 3b7c 94bc c9c1 1b3b b7a6 a23c
000000c0: 33a3 263d 0a55 7a3d 5986 8fbd 3547 043d
000000d0: 2d3e bb3d 36ec 5c3d 0ef1 363c 4cdb 8bbd
000000e0: 334b 903d e9bd c5bd 443a 233d 3f1f e939

tcn.0.conv2.weight_g f4 [60, 1, 1]
0.640087 0.60732216 0.58371323 0.5911603 0.5884593 0.5505926 0.55699384 0.5851425
0.58032167 0.53662723 0.55956084 0.57361054 0.5623338 0.5584068 0.5908057 0.5634251
0.5619392 0.55588686 0.53075695 0.56031346 0.5800747 0.55467206 0.5506312 0.5515167
0.524051 0.5161248 0.49665397 0.55203974 0.6087022 0.5777008 0.58485925 0.5727286
0.60610986 0.5549356 0.5385987 0.55527663 0.56003606 0.5487425 0.5362562 0.563494
0.5412833 0.54475164 0.5693255 0.59264845 0.51486707 0.54604423 0.59149337 0.5989339
0.5742041 0.5501667 0.5488176 0.5694564 0.5534916 0.54964256 0.52879155 0.5635811
0.5879034 0.5914891 0.5574707 0.57552993
00000000: bedc 233f 7779 1b3f 3b6e 153f 4856 173f
00000010: 45a5 163f a3f3 0c3f 2697 0e3f e6cb 153f
00000020: f68f 143f 6760 093f 613f 0f3f 24d8 123f
00000030: 1cf5 0f3f bff3 0e3f 0b3f 173f a13c 103f
00000040: 3fdb 0f3f 9a4e 0e3f b0df 073f b470 0f3f
00000050: c77f 143f fdfe 0d3f 2bf6 0c3f 3330 0d3f
00000060: 3528 063f c120 043f 6e49 fe3e 7a52 0d3f
00000070: e8d3 1b3f 33e4 133f 56b9 153f 579e 123f
00000080: 042a 1b3f 4210 0e3f 9be1 093f 9c26 0e3f
00000090: 865e 0f3f 637a 0c3f 1648 093f 2541 103f
000000a0: 8b91 0a3f d874 0b3f 51bf 113f cfb7 173f
000000b0: 54ce 033f 8ec9 0b3f 1c6c 173f bb53 193f
000000c0: 0aff 123f bad7 0c3f 4f7f 0c3f e5c7 113f
000000d0: a0b1 0d3f 60b5 0c3f e25e 073f da46 103f
000000e0: d680 163f d46b 173f 66b6 0e3f ee55 133f

tcn.0.conv2.weight_v f4 [60, 60, 5]
0.008675055 -0.027222805 -0.03673752 -0.06098006 -0.020482413 0.018365135 -0.009069734 0.055283602
-0.019894 -0.0036183177 0.04112254 0.0016893549 -0.041925136 0.03834189 -0.017798867 0.04242108
-0.030825393 -0.01970275 -0.026669746 0.01413502 0.015272929 -0.0521946 -0.009915921 0.014633239
-0.017505517 -0.053183965 -0.0625484 0.00026791476 0.005015903 0.018559022 -0.015543831 0.0038964094
-0.015344479 -0.023585262 -0.039642934 -0.018633189 -0.031246923 0.01764924 0.0460434 0.043988705
0.030009571 -0.030560061 0.05626772 -0.02703927 0.0071515297 0.05584341 0.027387237 0.03290861
0.010093473 0.077404834 -0.045876026 -0.021711985 0.012106896 -0.04407055 0.054732576 -0.048868466
0.047818024 -0.06190274 -0.023527563 0.01830903 0.009821056 0.0062465123 0.03080574 0.054561194
-0.05544596 -0.02084849 -0.028062519 0.039972447 -0.032566853 0.030445997 -0.057796873 0.04074857
0.034979783 0.015604063 -0.027871788 -0.020855017 -0.024250634 -0.030829685 -0.04061423 0.025852304
0.040417854 -0.017940855 -0.014800609 0.044492528 0.008780558 -0.003923708 -0.034978654 -0.004947734
-0.01891392 -0.039598428 -0.04424207 0.02108359 -0.0035317498 0.035557464 0.026060559 0.034914356
0.006083467 0.031001119 -0.03182556 -0.031448312 -0.030716687 -0.033538517 0.027042316 -0.036026232
0.04949143 0.043792516 -0.0016636377 0.003469538 -0.03217543 -0.0075770617 0.02045882 0.05065812
0.05013903 -0.016001357 0.017107567 -0.06086502 -0.025888927 -0.007677547 0.014162423 -0.008796796
-0.052437283 0.049144097 0.007176156 0.015523083 0.019581206 0.0197762 -0.027687922 0.004854015
-0.0033346314 0.047827967 -0.014485821 0.049933437 -0.042719815 0.007489301 -0.013524481 0.04178871
-0.03565944 0.02499997 -0.017245123 0.024308898 0.014812208 0.021130066 0.034309845 0.028659524
0.038662255 -0.05165835 -0.009351522 -0.03406753 -0.0067408034 -0.034450516 -0.045513086 -0.037297357
0.04565499 0.041337837 -0.03527798 -0.02384411 0.0075618937 0.023921082 -0.04158905 -0.016942069
0.011471094 0.07085732 -0.045541067 -0.0049236636 0.05405672 -0.051936414 -0.021746064 0.029436642
-0.019637961 -0.0032518753 -0.024580672 0.043563273 -0.064860374 0.023461133 -0.012194309 -0.026057081
-0.043755304 0.04848786 0.030970262 0.023386117 0.033056002 -0.010028419 0.011158054 -0.026474372
0.037099693 -0.018789506 0.04914193 -0.010575755 0.029099178 -0.036517892 0.018428028 0.024220472
-0.0061724493 0.004837038 0.01331575 -0.0021497342 0.04405129 0.02597489 0.025424704 0.041374695
0.047473352 -0.0024568455 0.040087286 0.050087042 -0.04121449 -0.018548379 -0.025620049 -0.013848908
-0.019464046 -0.038141068 0.022451375 -0.021257048 0.034986258 -0.05647339 0.0273464 0.023556326
0.056534052 0.04747322 0.053623002 0.010712771 0.016224016 -0.023843383 0.027276471 0.052083224
0.0013547791 0.03735958 -0.05309469 0.0377387 0.026793962 0.0052777296 -0.031718425 0.040557705
0.05635583 0.009046594 -0.024529768 -0.029915465 -0.058887586 -0.034171633 0.036220923 -0.007898837
0.005214506 0.027509546 0.045585133 -0.021593673 -0.00189255 0.057910994 -0.05618993 0.014019968
0.012054518 -0.051806066 -0.027835522 0.029616725 0.01823193 -0.038042918 -0.035937663 -0.011108698
00000000: d121 0e3c 5c02 dfbc 157a 16bd 3ac6 79bd
00000010: bcca a7bc 7b72 963c 3999 14bc 0f71 623d
00000020: bef8 a2bc 4c21 6dbb 1c70 283d 586d dd3a
00000030: b1b9 2bbd 630c 1d3d eece 91bc bac1 2d3d
00000040: 8985 fcbc a967 a1bc 837a dabc 9296 673c
00000050: 4f3b 7a3c 01ca 55bd 6376 22bc 41c0 6f3c
00000060: bb67 8fbc 6ed7 59bd 6019 80bd e976 8c39
00000070: 725c a43b 1709 983c 8dab 7ebc e75a 7f3b
00000080: 6967 7bbc e135 c1bc a160 22bd a1a4 98bc
00000090: 8cf9 ffbc 2495 903c 0198 3c3d 802d 343d
000000a0: a2d6 f53c 1859 fabc fb78 663d 7681 ddbc
000000b0: 6157 ea3b 0fbc 643d 335b e03c 2ecb 063d
000000c0: 185f 253c 6d86 9e3d 80e8 3bbd 55dd b1bc
000000d0: 015c 463c 5283 34bd 442f 603d 4d2a 48bd
000000e0: d5dc 433d ba8d 7dbd e0bc c0bc d2fc 953c
000000f0: 7fe8 203c 8baf cc3b 525c fc3c 8f7b 5f3d
00000100: 4e1b 63bd 74ca aabc 5ee3 e5bc 26ba 233d
00000110: d264 05bd e269 f93c 6abc 6cbd f9e7 263d
00000120: f646 0f3d 2fa8 7f3c 6053 e4bc 24d8 aabc
00000130: 44a9 c6bc 898e fcbc 1b5b 26bd 36c8 d33c
00000140: 318d 253d b3f8 92bc 417e 72bc cc3d 363d
00000150: 54dc 0f3c 7392 80bb c745 0fbd 9a20 a2bb
00000160: 5df1 9abc f631 22bd 2c37 35bd 7eb7 ac3c
00000170: ee74 67bb b4a4 113d f47c d53c 5b02 0f3d
00000180: d257 c73b 0ff6 fd3c 855b 02bd f2cf 00bd
00000190: 90a1 fbbc af5f 09bd d987 dd3c 3e90 13bd
000001a0: 87b7 4a3d c85f 333d 6b0e daba 3061 633b
000001b0: 62ca 03bd 0049 f8bb 4199 a73c e47e 4f3d
000001c0: 955e 4d3d 4715 83bc 2b25 8c3c 994d 79bd
000001d0: 0415 d4bc ef93 fbbb 8209 683c 7020 10bc
000001e0: 7ac8 56bd 524b 493d f625 eb3b 8754 7e3c
000001f0: c468 a03c b301 a23c c8d1 e2bc 6e0e 9f3b
00000200: d589 5abb 42e7 433d f055 6dbc 0187 4c3d
00000210: f9fa 2ebd cf68 f53b c995 5dbc a32a 2b3d
00000220: a20f 12bd bdcc cc3c a545 8dbc 7423 c73c
00000230: e7ae 723c f618 ad3c 7b88 0c3d 61c7 ea3c
00000240: 505c 1e3d b597 53bd 2037 19bc 658a 0bbd
00000250: f5e1 dcbb fc1b 0dbd ee6b 3abd 1dc5 18bd
00000260: ba00 3b3d dd51 293d a57f 10bd b954 c3bc
00000270: c3c9 f73b 25f6 c33c 4859 2abd 18ca 8abc
00000280: 41f1 3b3c a51d 913d 4589 3abd af56 a1bb
00000290: 946a 5d3d 47bb 54bd cd24 b2bc 1d25 f13c
000002a0: cadf a0bc 6a1d 55bb 685d c9bc 676f 323d
000002b0: 84d5 84bd 9031 c03c a4ca 47bc a975 d5bc
000002c0: c338 33bd 359b 463d 59b5 fd3c 3e94 bf3c
000002d0: bb65 073d 3d4e 24bc 45d0 363c c8e0 d8bc
000002e0: d9f5 173d 73ec 99bc 0c49 493d ee45 2dbc
000002f0: 6661 ee3c c993 15bd 60f6 963c 036a c63c
00000300: 4242 cabb 0480 9e3b 4e2a 5a3c 8ee2 0cbb
00000310: 206f 343d 4bc9 d43c 7847 d03c 8378 293d
00000320: 6b73 423d 0703 21bb 9132 243d 1228 4d3d
00000330: 86d0 28bd c5f2 97bc 23e1 d1bc 88e6 62bc
00000340: 1073 9fbc cf39 1cbd f2eb b73c 4323 aebc
00000350: c04d 0f3d a450 67bd 8f05 e03c 32f9 c03c
00000360: 4090 673d 4773 423d cba3 5b3d 9e84 2f3c
00000370: 3ae8 843c 3353 c3bc e872 df3c 3855 553d
00000380: d892 b13a 5c06 193d d179 59bd e593 1a3d
00000390: 037f db3c cef0 ac3b 2eeb 01bd d61f 263d
000003a0: 5fd5 663d 2a38 143c a7f2 c8bc 4711 f5bc
000003b0: 1c34 71bd 8ef7 0bbd 645c 143d 206a 01bc
000003c0: 72de aa3b b35b e13c 7ab7 3a3d 37e5 b0bc
000003d0: 710f f8ba 1434 6d3d 6927 66bd 02b4 653c
000003e0: 5080 453c 9932 54bd 5207 e4bc c69e f23c
000003f0: 215b 953c e4d2 1bbd 5f33 13bd 4201 36bc

tcn.0.net.0.bias f4 [60]
0.05921306 0.026303945 -0.022806624 0.037067056 0.05266723 -0.041633178 0.062280905 0.07690879
0.009280351 0.04830287 -3.467421e-05 -0.0035262378 -0.024870751 0.016488226 0.087132715 0.0307651
0.0018776827 0.074170046 -0.009414109 0.08848214 0.028697463 -0.015498743 -0.0004088133 -0.070555076
-0.06575019 -0.004479869 0.05686317 -0.009236602 -0.012243211 -0.022042066 0.032352533 0.051500324
-0.074155964 -0.008519735 0.0043084915 0.070372365 -0.00315434 -0.049281046 0.045680843 0.048875798
-0.009997822 0.027017701 -0.044752542 0.010852108 0.04584368 -0.010392362 0.016685337 -0.0068936246
0.0017211351 -0.079774104 -0.0056274445 -0.014075182 0.06971971 0.015635137 0.053773012 0.053991262
-0.03758816 0.012064336 -0.008481129 0.03617132
00000000: 6589 723d 5f7b d73c f5d4 babc a0d3 173d
00000010: 98b9 573d 8d87 2abd 431a 7f3d 5b82 9d3d
00000020: 9d0c 183c 3bd9 453d 266f 11b8 7418 67bb
00000030: bfbd cbbc 5112 873c a372 b23d 1707 fc3c
00000040: 941c f63a 77e6 973d a33d 1abc 2036 b53d
00000050: f116 eb3c 71ee 7dbc fe55 d6b9 2e7f 90bd
00000060: 09a8 86bd ddcb 92bb 5be9 683d 1e55 17bc
00000070: c097 48bc 9091 b4bc 1784 043d 01f2 523d
00000080: 15df 97bd 5c96 0bbc 3f2e 8d3b 631f 903d
00000090: 0bb9 4ebb ecda 49bd d61b 3b3d fd31 483d
000000a0: e8cd 23bc 3a54 dd3c 714e 37bd 0acd 313c
000000b0: 95c6 3b3d ba44 2abc b0af 883c eae3 e1bb
000000c0: b697 e13a 9b60 a3bd 6d66 b8bb 989b 66bc
000000d0: 35c9 8e3d 4215 803c 1741 5c3d f125 5d3d
000000e0: 0bf6 19bd 7ea9 453c 6ff4 0abc 6128 143d

tcn.0.net.0.weight_g f4 [60, 1, 1]
0.5796236 0.53585064 0.5514215 0.55611384 0.57306087 0.58042 0.57979846 0.5532786
0.5460585 0.5737922 0.58177376 0.5825124 0.55789006 0.58566636 0.58137834 0.56516695
0.54415494 0.5871974 0.5498878 0.58814967 0.60027045 0.54590183 0.57413065 0.56774193
0.5541409 0.5363108 0.56193537 0.5709981 0.58550316 0.5775425 0.5949174 0.587212
0.57014066 0.5720262 0.5493329 0.56477094 0.5377842 0.5870528 0.5717721 0.59342265
0.56244576 0.5669794 0.56489336 0.5922158 0.5502798 0.5194789 0.5770491 0.56213844
0.5474386 0.5662126 0.59674925 0.5931719 0.5575083 0.5806523 0.5691038 0.5438695
0.6025556 0.56881076 0.578089 0.5202816
00000000: 3662 143f 822d 093f f629 0d3f 7a5d 0e3f
00000010: 1eb4 123f 6896 143f ac6d 143f aba3 0d3f
00000020: 7dca 0b3f 0ce4 123f 20ef 143f 881f 153f
00000030: e2d1 0e3f 3bee 153f 36d5 143f c8ae 103f
00000040: bd4d 0b3f 9252 163f 72c5 0c3f fa90 163f
00000050: 53ab 193f 39c0 0b3f 3afa 123f 8957 113f
00000060: 2edc 0d3f aa4b 093f ffda 0f3f ee2c 123f
00000070: 89e3 153f d3d9 133f 824c 183f 8753 163f
00000080: bdf4 113f 4f70 123f 15a1 0c3f d494 103f
00000090: 3aac 093f 1849 163f a85f 123f 8cea 173f
000000a0: 72fc 0f3f 9025 113f da9c 103f 749b 173f
000000b0: 23df 0c3f 92fc 043f 7db9 133f 4ee8 0f3f
000000c0: f024 0c3f 4ff3 103f 8fc4 183f 1dda 173f
000000d0: ddb8 0e3f a1a5 143f c9b0 113f 083b 0b3f
000000e0: 1541 1a3f 959d 113f a4fd 133f 2d31 053f

tcn.0.net.0.weight_v f4 [60, 60, 5]
-0.05027519 -0.038070496 0.017066611 -0.024742212 0.009422123 -0.020363452 -0.0074664867 0.027887015
0.02928108 -0.032491665 -0.014272833 -0.02630496 -0.04704776 0.018699098 -0.007326151 0.02265291
0.017464807 0.0004195027 -0.05483949 0.015375225 -0.0020840217 -0.004920895 -0.043947786 -0.056875866
0.042094775 0.012670533 0.02225758 0.034513243 -0.056771103 -0.0310736 -0.01755063 0.012449444
-0.04590516 0.019657046 0.021153837 0.02694312 -0.020602033 0.034554888 -0.04261686 -0.0011317064
0.01453283 -0.00097166235 -0.0091657825 -0.03212344 -0.02473941 -0.0407194 -0.04378611 0.027403094
-0.03182552 -0.0409227 0.009298158 0.0216474 -0.02683781 -0.035073463 0.022173615 0.035110448
-0.008142315 0.035290964 -0.020984601 0.020321494 -0.009454791 0.012339992 -0.0120514445 -0.06471753
0.03389892 -0.025741767 0.022349995 -0.003952131 -0.026373079 0.023540344 0.031136217 -0.032890942
-0.03904517 0.031540975 -0.007677626 0.009804647 -0.037176497 0.026695052 -0.061054755 0.029614996
0.051063344 0.029592277 -0.015945528 -0.041113336 0.05024982 -0.04022341 -0.012468563 0.020812744
-0.008217419 -0.017297806 0.015295224 -0.021252962 -0.01120922 -0.034641597 0.0017041627 0.02452584
0.040441763 -0.035550337 0.0246121 0.023342118 -0.03307351 0.04797163 -0.02486061 0.0049263895
0.040179774 0.015221096 -0.00814649 -0.018701412 -0.047352426 0.029800031 0.012256018 -0.01144233
-0.012388138 -0.041091755 -0.008816204 -0.03585999 -0.013718655 -0.033270366 -0.033469144 -0.0043370305
0.04437458 0.00997381 0.0055407705 -0.06666138 0.01583704 -0.020749573 0.026352461 0.038919356
-0.0023293556 0.045386408 0.031437557 0.04535568 -0.032691114 -0.03568317 -0.023707883 0.02390314
0.057217445 0.00305296 -0.0037475172 0.025573289 -0.024217889 0.021386966 -0.024679778 -0.05309237
0.0574609 0.039449506 0.023615958 0.017694257 -0.031047262 -0.0056302045 -0.027070537 0.02634589
-0.044206172 -0.035871882 0.05959957 0.046429787 0.043831322 -0.025441987 -0.06479124 0.005219952
-0.02226873 0.033220384 0.026104469 -0.026966661 0.02758584 0.018726006 0.008125045 0.0052687535
0.012861372 0.026518738 -0.033002906 -0.0069346987 -0.032085974 -0.04975436 0.017624538 -0.008743884
-0.028263347 -0.017292935 -0.035123933 0.036412437 -0.014766162 -0.028442683 -0.03273261 -0.024005737
0.01413564 0.033295635 0.031996895 -0.04411858 -0.046821747 -0.0058657415 0.045434006 0.027062614
0.02288696 -0.052100707 0.03386498 -0.016415188 -0.021651715 -0.039865296 -0.010685786 0.0015590708
0.047809802 0.03045777 -0.007820682 -0.064417444 -0.032304384 -0.017453711 -0.036246866 -0.017909309
-0.031564977 -0.0035723501 -0.024841651 0.033215355 -0.005284427 -0.00033340085 -0.035403788 0.033900104
-0.0053732605 -0.03786914 -0.0127039915 0.01932022 0.042801753 0.01543551 0.017589193 -0.008771705
-0.010640134 0.0023409463 0.025054509 -0.009651881 -0.037423704 0.009870294 0.051375013 -0.024325734
0.02651022 -0.058766615 -0.012494545 -0.03526286 0.01692963 0.030990552 -0.062409367 -0.0014213335
-0.00756675 -0.026403558 -0.043385394 0.0038918657 -0.04333482 0.0054977895 -0.01739223 -0.03705946
0.03337588 0.02461162 0.020482924 -0.027329745 -0.013962339 -0.017067833 0.03199278 0.04117079
00000000: 5ced 4dbd cfef 1bbd 47cf 8b3c 2eb0 cabc
00000010: 405f 1a3c 41d1 a6bc 6ea9 f4bb 4f73 e43c
00000020: e0de ef3c fb15 05bd 9ad8 69bc 807d d7bc
00000030: 27b5 40bd da2e 993c 3510 f0bb 9892 b93c
00000040: 5b12 8f3c b3f0 db39 609f 60bd 5ee8 7b3c
00000050: 1594 08bb 763f a1bb 9802 34bd abf6 68bd
00000060: 926b 2c3d 1198 4f3c 8755 b63c c25d 0d3d
00000070: d188 68bd 108e febc 57c6 8fbc c1f8 4b3c
00000080: 0d07 3cbd d007 a13c d04a ad3c d1b7 dc3c
00000090: 98c5 a8bc 6d89 0d3d 048f 2ebd c455 94ba
000000a0: 1b1b 6e3c 28b7 7eba 142c 16bc de93 03bd
000000b0: 4eaa cabc 63c9 26bd 1059 33bd 747c e03c
000000c0: 7a5b 02bd 909e 27bd 4d57 183c e355 b13c
000000d0: f8da dbbc 31a9 0fbd 71a5 b53c f9cf 0f3d
000000e0: 5867 05bc 428d 103d e6e7 abbc 4379 a63c
000000f0: 45e8 1abc ae2d 4a3c 6c73 45bc a08a 84bd
00000100: 98d9 0a3d 66e0 d2bc 5617 b73c e180 81bb
00000110: 5b0c d8bc aed7 c03c 6111 ff3c a7b8 06bd
00000120: d4ed 1fbd 1c31 013d 9894 fbbb aca3 203c
00000130: 6246 18bd 95af da3c 8d14 7abd 269b f23c
00000140: cc27 513d 816b f23c 32a0 82bc 7566 28bd
00000150: c1d2 4d3d 4dc1 24bd f248 4cbc 7d7f aa3c
00000160: 5aa2 06bc 21b4 8dbc d298 7a3c b11a aebc
00000170: e0a6 37bc 59e4 0dbd 365e df3a 6aea c83c
00000180: 43a6 253d 3b9d 11bd 519f c93c f837 bf3c
00000190: 1778 07bd e67d 443d 7aa8 cbbc 8d6d a13b
000001a0: 8c93 243d e761 793c db78 05bc b433 99bc
000001b0: 9ef4 41bd 321f f43c 77cd 483c 9c78 3bbc
000001c0: 9ef7 4abc d44f 28bd d771 10bc ede1 12bd
000001d0: 36c4 60bc 8246 08bd f116 09bd a61d 8ebb
000001e0: 1fc2 353d 3169 233c 5a8f b53b c385 88bd
000001f0: aebc 813c 02fb a9bc 1ee1 d73c e769 1f3d
00000200: 1aa8 18bb 19e7 393d abc4 003d e1c6 393d
00000210: 1ee7 05bd 8428 12bd 0937 c2bc 85d0 c33c
00000220: d75c 6a3d 2b14 483b e898 75bb 137f d13c
00000230: 9864 c6bc b833 af3c 3f2d cabc 6377 59bd
00000240: 1f5c 6b3d ce95 213d 4176 c13c 8cf3 903c
00000250: d456 febc 947d b8bb 08c3 ddbc 56d3 d73c
00000260: 8811 35bd 65ee 12bd ae1e 743d 292d 3e3d
00000270: 7988 333d b76b d0bc 45b1 84bd 220c ab3b
00000280: e96c b6bc 1912 083d 0ad9 d53c 30e9 dcbc
00000290: b3fb e13c 4867 993c e91e 053c 82a5 ac3b
000002a0: 81b8 523c d33d d93c 0e2e 07bd 783c e3bb
000002b0: 956c 03bd 3acb 4bbd 5661 903c 8242 0fbc
000002c0: 8988 e7bc eaa9 8dbc 1dde 0fbd 3525 153d
000002d0: c6ed 71bc a100 e9bc a112 06bd aea7 c4bc
000002e0: 2c99 673c 0161 083d 2d0f 033d afb5 34bd
000002f0: 29c8 3fbd 6835 c0bb 0219 3a3d 6ab2 dd3c
00000300: 6f7d bb3c 8d67 55bd 01b6 0a3d 2579 86bc
00000310: f05e b1bc cb49 23bd 6f13 2fbc bc59 cc3a
00000320: 36d4 433d 9382 f93c 5122 00bc 4bed 83bd
00000330: 9a51 04bd 16fb 8ebc 9877 14bd 8bb6 92bc
00000340: 474a 01bd 171e 6abb b880 cbbc d30c 083d
00000350: fd28 adbb 4ecc aeb9 9003 11bd d6da 0a3d
00000360: 2d12 b0bb ac1c 1bbd 6724 50bc 7045 9e3c
00000370: e450 2f3d 39e5 7c3c 3617 903c 33b7 0fbc
00000380: f553 2ebc 906a 193b 1d3f cd3c ec22 1ebc
00000390: 9949 19bd 03b7 213c 9b6e 523d c346 c7bc
000003a0: f62b d93c 43b5 70bd ecb5 4cbc ca6f 10bd
000003b0: 02b0 8a3c e6df fd3c f7a0 7fbd 0a4c baba
000003c0: 80f2 f7bb 464c d8bc e2b4 31bd ac0e 7f3b
000003d0: da7f 31bd cd26 b43b 267a 8ebc a9cb 17bd
000003e0: 26b5 083d 4f9e c93c cecb a73c a1e2 dfbc
000003f0: 4bc2 64bc d7d1 8bbc dc0a 033d b4a2 283d

tcn.0.net.4.bias f4 [60]
0.033598043 -0.085132904 -0.014462336 0.0036481384 -0.02814886 0.033959873 0.01010501 0.079124354
0.079242244 -0.07608417 -0.03775379 0.032476284 -0.034316912 -0.05585723 -0.06655885 0.0077558015
-0.07169713 0.008064817 -0.004147319 0.07671185 0.0700943 -0.042939182 0.036165863 -0.026926205
-0.017863985 0.023730159 -0.059994597 0.0019870412 0.044638216 0.06880471 0.0090045575 -0.0017493761
0.08362235 0.028504042 -0.066281706 -0.080479905 0.007425431 -0.0609348 -0.005502304 0.054132618
0.04656715 0.0020873863 0.0887011 0.038675558 0.021913348 -0.018125644 0.0023766628 0.019854886
0.040682983 0.061116256 -0.07008047 0.03229447 0.091427185 0.053936206 0.01116587 -0.06828937
0.07045593 -0.09655363 0.03985049 0.00044464503
00000000: 1a9e 093d 295a aebd 6ff3 6cbc 9b15 6f3b
00000010: 7098 e6bc 8219 0b3d 7c8f 253c f30b a23d
00000020: c249 a23d 04d2 9bbd b8a3 1abd da05 053d
00000030: e48f 0cbd 8dca 64bd 0250 88bd 6124 fe3b
00000040: f2d5 92bd 4b22 043c 3ce6 87bb 1a1b 9d3d
00000050: 9a8d 8f3d ffe0 2fbd a822 143d 5894 dcbc
00000060: 7e57 92bc c065 c23c e5bc 75bd 0539 023b
00000070: 90d6 363d 7ce9 8c3d da87 133c 524b e5ba
00000080: 3242 ab3d 4f81 e93c b4be 87bd a6d2 a4bd
00000090: 0851 f33b c596 79bd ac4c b4bb 2aba 5d3d
000000a0: 32bd 3e3d 88cc 083b eca8 b53d 436a 1e3d
000000b0: 9f83 b33c 3b7c 94bc c9c1 1b3b b7a6 a23c
000000c0: 33a3 263d 0a55 7a3d 5986 8fbd 3547 043d
000000d0: 2d3e bb3d 36ec 5c3d 0ef1 363c 4cdb 8bbd
000000e0: 334b 903d e9bd c5bd 443a 233d 3f1f e939

tcn.0.net.4.weight_g f4 [60, 1, 1]
0.640087 0.60732216 0.58371323 0.5911603 0.5884593 0.5505926 0.55699384 0.5851425
0.58032167 0.53662723 0.55956084 0.57361054 0.5623338 0.5584068 0.5908057 0.5634251
0.5619392 0.55588686 0.53075695 0.56031346 0.5800747 0.55467206 0.5506312 0.5515167
0.524051 0.5161248 0.49665397 0.55203974 0.6087022 0.5777008 0.58485925 0.5727286
0.60610986 0.5549356 0.5385987 0.55527663 0.56003606 0.5487425 0.5362562 0.563494
0.5412833 0.54475164 0.5693255 0.59264845 0.51486707 0.54604423 0.59149337 0.5989339
0.5742041 0.5501667 0.5488176 0.5694564 0.5534916 0.54964256 0.52879155 0.5635811
0.5879034 0.5914891 0.5574707 0.57552993
00000000: bedc 233f 7779 1b3f 3b6e 153f 4856 173f
00000010: 45a5 163f a3f3 0c3f 2697 0e3f e6cb 153f
00000020: f68f 143f 6760 093f 613f 0f3f 24d8 123f
00000030: 1cf5 0f3f bff3 0e3f 0b3f 173f a13c 103f
00000040: 3fdb 0f3f 9a4e 0e3f b0df 073f b470 0f3f
00000050: c77f 143f fdfe 0d3f 2bf6 0c3f 3330 0d3f
00000060: 3528 063f c120 043f 6e49 fe3e 7a52 0d3f
00000070: e8d3 1b3f 33e4 133f 56b9 153f 579e 123f
00000080: 042a 1b3f 4210 0e3f 9be1 093f 9c26 0e3f
00000090: 865e 0f3f 637a 0c3f 1648 093f 2541 103f
000000a0: 8b91 0a3f d874 0b3f 51bf 113f cfb7 173f
000000b0: 54ce 033f 8ec9 0b3f 1c6c 173f bb53 193f
000000c0: 0aff 123f bad7 0c3f 4f7f 0c3f e5c7 113f
000000d0: a0b1 0d3f 60b5 0c3f e25e 073f da46 103f
000000e0: d680 163f d46b 173f 66b6 0e3f ee55 133f

tcn.0.net.4.weight_v f4 [60, 60, 5]
0.008675055 -0.027222805 -0.03673752 -0.06098006 -0.020482413 0.018365135 -0.009069734 0.055283602
-0.019894 -0.0036183177 0.04112254 0.0016893549 -0.041925136 0.03834189 -0.017798867 0.04242108
-0.030825393 -0.01970275 -0.026669746 0.01413502 0.015272929 -0.0521946 -0.009915921 0.014633239
-0.017505517 -0.053183965 -0.0625484 0.00026791476 0.005015903 0.018559022 -0.015543831 0.0038964094
-0.015344479 -0.023585262 -0.039642934 -0.018633189 -0.031246923 0.01764924 0.0460434 0.043988705
0.030009571 -0.030560061 0.05626772 -0.02703927 0.0071515297 0.05584341 0.027387237 0.03290861
0.010093473 0.077404834 -0.045876026 -0.021711985 0.012106896 -0.04407055 0.054732576 -0.048868466
0.047818024 -0.06190274 -0.023527563 0.01830903 0.009821056 0.0062465123 0.03080574 0.054561194
-0.05544596 -0.02084849 -0.028062519 0.039972447 -0.032566853 0.030445997 -0.057796873 0.04074857
0.034979783 0.015604063 -0.027871788 -0.020855017 -0.024250634 -0.030829685 -0.04061423 0.025852304
0.040417854 -0.017940855 -0.014800609 0.044492528 0.008780558 -0.003923708 -0.034978654 -0.004947734
-0.01891392 -0.039598428 -0.04424207 0.02108359 -0.0035317498 0.035557464 0.026060559 0.034914356
0.006083467 0.031001119 -0.03182556 -0.031448312 -0.030716687 -0.033538517 0.027042316 -0.036026232
0.04949143 0.043792516 -0.0016636377 0.003469538 -0.03217543 -0.0075770617 0.02045882 0.05065812
0.05013903 -0.016001357 0.017107567 -0.06086502 -0.025888927 -0.007677547 0.014162423 -0.008796796
-0.052437283 0.049144097 0.007176156 0.015523083 0.019581206 0.0197762 -0.027687922 0.004854015
-0.0033346314 0.047827967 -0.014485821 0.049933437 -0.042719815 0.007489301 -0.013524481 0.04178871
-0.03565944 0.02499997 -0.017245123 0.024308898 0.014812208 0.021130066 0.034309845 0.028659524
0.038662255 -0.05165835 -0.009351522 -0.03406753 -0.0067408034 -0.034450516 -0.045513086 -0.037297357
0.04565499 0.041337837 -0.03527798 -0.02384411 0.0075618937 0.023921082 -0.04158905 -0.016942069
0.011471094 0.07085732 -0.045541067 -0.0049236636 0.05405672 -0.051936414 -0.021746064 0.029436642
-0.019637961 -0.0032518753 -0.024580672 0.043563273 -0.064860374 0.023461133 -0.012194309 -0.026057081
-0.043755304 0.04848786 0.030970262 0.023386117 0.033056002 -0.010028419 0.011158054 -0.026474372
0.037099693 -0.018789506 0.04914193 -0.010575755 0.029099178 -0.036517892 0.018428028 0.024220472
-0.0061724493 0.004837038 0.01331575 -0.0021497342 0.04405129 0.02597489 0.025424704 0.041374695
0.047473352 -0.0024568455 0.040087286 0.050087042 -0.04121449 -0.018548379 -0.025620049 -0.013848908
-0.019464046 -0.038141068 0.022451375 -0.021257048 0.034986258 -0.05647339 0.0273464 0.023556326
0.056534052 0.04747322 0.053623002 0.010712771 0.016224016 -0.023843383 0.027276471 0.052083224
0.0013547791 0.03735958 -0.05309469 0.0377387 0.026793962 0.0052777296 -0.031718425 0.040557705
0.05635583 0.009046594 -0.024529768 -0.029915465 -0.058887586 -0.034171633 0.036220923 -0.007898837
0.005214506 0.027509546 0.045585133 -0.021593673 -0.00189255 0.057910994 -0.05618993 0.014019968
0.012054518 -0.051806066 -0.027835522 0.029616725 0.01823193 -0.038042918 -0.035937663 -0.011108698
00000000: d121 0e3c 5c02 dfbc 157a 16bd 3ac6 79bd
00000010: bcca a7bc 7b72 963c 3999 14bc 0f71 623d
00000020: bef8 a2bc 4c21 6dbb 1c70 283d 586d dd3a
00000030: b1b9 2bbd 630c 1d3d eece 91bc bac1 2d3d
00000040: 8985 fcbc a967 a1bc 837a dabc 9296 673c
00000050: 4f3b 7a3c 01ca 55bd 6376 22bc 41c0 6f3c
00000060: bb67 8fbc 6ed7 59bd 6019 80bd e976 8c39
00000070: 725c a43b 1709 983c 8dab 7ebc e75a 7f3b
00000080: 6967 7bbc e135 c1bc a160 22bd a1a4 98bc
00000090: 8cf9 ffbc 2495 903c 0198 3c3d 802d 343d
000000a0: a2d6 f53c 1859 fabc fb78 663d 7681 ddbc
000000b0: 6157 ea3b 0fbc 643d 335b e03c 2ecb 063d
000000c0: 185f 253c 6d86 9e3d 80e8 3bbd 55dd b1bc
000000d0: 015c 463c 5283 34bd 442f 603d 4d2a 48bd
000000e0: d5dc 433d ba8d 7dbd e0bc c0bc d2fc 953c
000000f0: 7fe8 203c 8baf cc3b 525c fc3c 8f7b 5f3d
00000100: 4e1b 63bd 74ca aabc 5ee3 e5bc 26ba 233d
00000110: d264 05bd e269 f93c 6abc 6cbd f9e7 263d
00000120: f646 0f3d 2fa8 7f3c 6053 e4bc 24d8 aabc
00000130: 44a9 c6bc 898e fcbc 1b5b 26bd 36c8 d33c
00000140: 318d 253d b3f8 92bc 417e 72bc cc3d 363d
00000150: 54dc 0f3c 7392 80bb c745 0fbd 9a20 a2bb
00000160: 5df1 9abc f631 22bd 2c37 35bd 7eb7 ac3c
00000170: ee74 67bb b4a4 113d f47c d53c 5b02 0f3d
00000180: d257 c73b 0ff6 fd3c 855b 02bd f2cf 00bd
00000190: 90a1 fbbc af5f 09bd d987 dd3c 3e90 13bd
000001a0: 87b7 4a3d c85f 333d 6b0e daba 3061 633b
000001b0: 62ca 03bd 0049 f8bb 4199 a73c e47e 4f3d
000001c0: 955e 4d3d 4715 83bc 2b25 8c3c 994d 79bd
000001d0: 0415 d4bc ef93 fbbb 8209 683c 7020 10bc
000001e0: 7ac8 56bd 524b 493d f625 eb3b 8754 7e3c
000001f0: c468 a03c b301 a23c c8d1 e2bc 6e0e 9f3b
00000200: d589 5abb 42e7 433d f055 6dbc 0187 4c3d
00000210: f9fa 2ebd cf68 f53b c995 5dbc a32a 2b3d
00000220: a20f 12bd bdcc cc3c a545 8dbc 7423 c73c
00000230: e7ae 723c f618 ad3c 7b88 0c3d 61c7 ea3c
00000240: 505c 1e3d b597 53bd 2037 19bc 658a 0bbd
00000250: f5e1 dcbb fc1b 0dbd ee6b 3abd 1dc5 18bd
00000260: ba00 3b3d dd51 293d a57f 10bd b954 c3bc
00000270: c3c9 f73b 25f6 c33c 4859 2abd 18ca 8abc
00000280: 41f1 3b3c a51d 913d 4589 3abd af56 a1bb
00000290: 946a 5d3d 47bb 54bd cd24 b2bc 1d25 f13c
000002a0: cadf a0bc 6a1d 55bb 685d c9bc 676f 323d
000002b0: 84d5 84bd 9031 c03c a4ca 47bc a975 d5bc
000002c0: c338 33bd 359b 463d 59b5 fd3c 3e94 bf3c
000002d0: bb65 073d 3d4e 24bc 45d0 363c c8e0 d8bc
000002e0: d9f5 173d 73ec 99bc 0c49 493d ee45 2dbc
000002f0: 6661 ee3c c993 15bd 60f6 963c 036a c63c
00000300: 4242 cabb 0480 9e3b 4e2a 5a3c 8ee2 0cbb
00000310: 206f 343d 4bc9 d43c 7847 d03c 8378 293d
00000320: 6b73 423d 0703 21bb 9132 243d 1228 4d3d
00000330: 86d0 28bd c5f2 97bc 23e1 d1bc 88e6 62bc
00000340: 1073 9fbc cf39 1cbd f2eb b73c 4323 aebc
00000350: c04d 0f3d a450 67bd 8f05 e03c 32f9 c03c
00000360: 4090 673d 4773 423d cba3 5b3d 9e84 2f3c
00000370: 3ae8 843c 3353 c3bc e872 df3c 3855 553d
00000380: d892 b13a 5c06 193d d179 59bd e593 1a3d
00000390: 037f db3c cef0 ac3b 2eeb 01bd d61f 263d
000003a0: 5fd5 663d 2a38 143c a7f2 c8bc 4711 f5bc
000003b0: 1c34 71bd 8ef7 0bbd 645c 143d 206a 01bc
000003c0: 72de aa3b b35b e13c 7ab7 3a3d 37e5 b0bc
000003d0: 710f f8ba 1434 6d3d 6927 66bd 02b4 653c
000003e0: 5080 453c 9932 54bd 5207 e4bc c69e f23c
000003f0: 215b 953c e4d2 1bbd 5f33 13bd 4201 36bc

tcn.2.conv1.bias f4 [60]
0.09874711 0.017126705 0.08135589 -0.052334454 0.0039547775 0.06884508 -0.003219878 -0.06863469
0.10426379 0.0189038 0.12949546 0.00187649 0.08683785 -0.03523088 -0.05715463 -0.011934644
0.09295582 0.07951291 -0.028487295 -0.056818537 0.064076774 -0.001966421 0.018181004 -0.03369005
0.03844481 0.027806344 0.0446566 0.015219444 0.06358945 -0.079077594 0.048655853 -0.07494901
-0.056826063 0.033845875 -0.07135007 0.07012393 -0.058343142 -0.026659528 0.06713169 -0.0021652635
0.016238088 -0.005201412 0.05935519 0.07825315 -0.02181333 0.057437696 0.084252596 0.09749596
-0.010908193 -0.04645611 0.013962347 0.0458351 0.04284824 -0.07288962 -0.0027510244 -0.046526764
0.024061263 -0.004977516 0.038528785 -0.014621443
00000000: ed3b ca3d 4e4d 8c3c eb9d a63d a75c 56bd
00000010: 1497 813b a6fe 8c3d 9704 53bb 5890 8cbd
00000020: 4188 d53d 24dc 9a3c 759a 043e 8ef4 f53a
00000030: 0bd8 b13d 414e 10bd f91a 6abd 8689 43bc
00000040: 9f5f be3d aad7 a23d 305e e9bc 8eba 68bd
00000050: af3a 833d 12df 00bb 54f0 943c 94fe 09bd
00000060: 4e78 1d3d 21ca e33c d7e9 363d fa5a 793c
00000070: 303b 823d 6ff3 a1bd 5c4b 473d de7e 99bd
00000080: 72c2 68bd f9a1 0a3d fc1f 92bd 239d 8f3d
00000090: 38f9 6ebd 1565 dabc 577c 893d 18e7 0dbb
000000a0: bd05 853c 9b70 aabb 6d1e 733d 3043 a03d
000000b0: deb1 b2bc ca43 6b3d a08c ac3d f6ab c73d
000000c0: 47b8 32bc c348 3ebd 54c2 643c 96bd 3b3d
000000d0: a381 2f3d 2747 95bd 884a 34bb d992 3ebd
000000e0: 201c c53c 6e1a a3bb 5cd0 1d3d c78e 6fbc

tcn.2.conv1.weight_g f4 [60, 1, 1]
0.58395284 0.5943355 0.5413866 0.5597709 0.5646647 0.5875671 0.553454 0.58109933
0.5657456 0.54858816 0.53222215 0.55349827 0.57291496 0.55298966 0.5573803 0.5539188
0.55956113 0.56634563 0.5676159 0.556219 0.5644676 0.5574288 0.5391192 0.5575902
0.5709643 0.56795245 0.57142776 0.54987144 0.5549561 0.54572976 0.56785613 0.57024455
0.55698574 0.5595989 0.55921817 0.5582621 0.5632377 0.5281349 0.5728506 0.53006804
0.54405963 0.5632595 0.5467957 0.5650997 0.55436945 0.5451678 0.52973795 0.551934
0.5596987 0.5279615 0.5397457 0.5415638 0.5583505 0.58111197 0.547982 0.553834
0.5637891 0.5723276 0.57727444 0.5885663
00000000: ef7d 153f 5f26 183f 5098 0a3f 254d 0f3f
00000010: de8d 103f cc6a 163f 29af 0d3f edc2 143f
00000020: b4d4 103f 4670 0c3f b63f 083f 10b2 0d3f
00000030: 8eaa 123f bb90 0d3f 7ab0 0e3f 9fcd 0d3f
00000040: 663f 0f3f 07fc 103f 474f 113f 5e64 0e3f
00000050: f380 103f a7b3 0e3f b703 0a3f 3bbe 0e3f
00000060: b72a 123f 5565 113f 1749 123f 60c4 0c3f
00000070: 9a11 0e3f f2b4 0b3f 055f 113f 8cfb 113f
00000080: 9e96 0e3f e041 0f3f ec28 0f3f 44ea 0e3f
00000090: 5930 103f d933 073f 56a6 123f 8ab2 073f
000000a0: 7e47 0b3f c631 103f cefa 0b3f 60aa 103f
000000b0: 28eb 0d3f 1e90 0b3f e89c 073f 8c4b 0d3f
000000c0: 6a48 0f3f 7c28 073f c62c 0a3f eda3 0a3f
000000d0: 0ff0 0e3f c1c3 143f 8c48 0c3f 11c8 0d3f
000000e0: 7c54 103f 1084 123f 42c8 133f 48ac 163f

tcn.2.conv1.weight_v f4 [60, 60, 5]
0.029935554 -0.03133744 0.0036916628 0.038866367 -0.009188525 0.04374698 0.034142077 -0.012686703
0.025013829 0.0074665523 0.051744 0.0438108 0.023904923 0.04939563 -0.020194398 -0.030538231
0.048168715 0.0042674122 0.06350534 -0.04756181 -0.030590318 0.052948434 -0.01665828 0.05807667
-0.015183026 0.017701693 -0.024129573 0.039270364 0.06635734 0.013541082 -0.006138632 0.02607039
-0.0014130963 -0.0442882 0.042620122 -0.0021933366 0.056701683 0.017828595 0.054342393 -0.016346546
0.04078259 0.01039749 0.0353347 0.045396652 0.014933445 -0.0374593 0.053531826 -0.029358504
-0.035076033 0.02609486 0.030289484 -0.0022712739 -0.026714753 0.05439525 0.022416487 0.030605217
0.028707251 0.03418048 0.031490598 0.032983575 0.0073016137 0.019457517 -0.044073347 0.04117937
-0.0011971523 -0.042712897 -0.022333808 -0.013929158 0.060479425 -0.020443399 -0.0067203683 0.052282542
-0.011381021 -0.01173837 -0.0065925824 -0.019727565 -0.0352062 -0.056023676 -0.045136645 0.048092037
0.004331057 0.0117614735 -0.053752076 -0.0273161 -0.019121278 -0.0022664515 -0.008186119 -0.03148174
-0.03648655 0.032946214 0.008267962 -0.044701386 -0.01501302 0.047807682 -0.025353165 -0.043268062
-0.033278912 0.03912136 0.04989629 -0.0341787 0.017528383 0.027864536 -0.026975483 0.025274219
-0.035862878 -0.042506147 -0.015824722 -0.033859186 0.004480728 0.0010980933 0.025853636 -0.007177819
0.023804203 0.05103001 -0.026377626 0.024732767 -0.035213966 -0.061243262 0.024276031 0.03321753
-0.025766654 -0.046845056 -0.012836895 0.0038735748 0.033180293 -0.026294919 -0.00044599446 -0.042054605
0.01952071 0.037241366 -0.016941728 -0.0007454918 -0.010628419 -0.031739008 -0.03851538 -0.009887005
-0.009796379 -0.055410884 0.010614556 0.038701307 0.0586383 0.03715581 -0.058670316 0.039054893
0.04002652 -0.015516021 0.05321264 -0.017690599 0.012822432 -0.0028396226 -0.038255617 0.02680654
-0.050792586 0.051685046 0.046499703 0.040845867 0.023942174 -0.014271248 0.01025763 0.03856523
-0.002226761 -0.00184039 0.037316523 0.03887401 0.04586572 0.040220268 -0.033434294 -0.014082237
-0.045668587 0.04715096 0.047212828 0.04165238 -0.002333944 -0.008139757 0.034203075 -0.02798259
-0.03271251 0.015557479 0.046850856 -0.019363329 -0.012635694 0.021673063 0.020884441 0.044540428
0.01016805 0.0042946152 -0.03214274 -0.048953667 -0.017632514 0.013343357 0.025496664 0.01082848
-0.0012653767 -0.03152203 -5.0469094e-05 -0.00306966 -0.030099487 0.008774375 0.046976216 0.042760395
-0.03611794 0.023311691 -0.023594672 0.057714798 -0.007972474 -0.0041293656 0.03099022 -0.002178562
0.043140378 0.0427969 0.047398265 0.035975892 0.016166098 0.016783027 -0.041085724 -0.0386979
-0.016559908 -0.008819651 0.046824727 0.02025405 -0.038179178 0.025770014 -0.040988676 0.012824335
-0.009227361 0.019357858 -0.024126735 0.0076429476 0.033589795 -0.00841387 -0.02865261 -0.004553387
0.0025010908 -0.04442189 0.015152992 0.054882847 0.049865104 -0.00553838 0.024029363 0.0328618
0.02310419 0.053777702 0.046540767 -0.01181407 -0.0401888 -0.025507301 0.004202227 -0.022776205
-0.014270909 -0.013701478 0.043813385 0.026530905 -0.03128911 -0.017967671 0.03970261 0.022707444
00000000: 683b f53c b05b 00bd d3ef 713b 5732 1f3d
00000010: 788b 16bc 0930 333d 90d8 0b3d e4db 4fbc
00000020: cde9 cc3c fba9 f43b 84f1 533d f472 333d
00000030: 42d4 c33c 1253 4a3d b96e a5bc 502b fabc
00000040: 8f4c 453d a6d5 8b3b 160f 823d 2cd0 42bd
00000050: 8c98 fabc 75e0 583d f276 88bc cde1 6d3d
00000060: 3ac2 78bc 2403 913c 62ab c5bc f6d9 203d
00000070: 5be6 873d 6adb 5d3c 9426 c9bb 9291 d53c
00000080: a537 b9ba 8b67 35bd 7092 2e3d 15be 0fbb
00000090: 0640 683d 460d 923c 2196 5e3d 31e9 85bc
000000a0: a50b 273d 3c5a 2a3c 1ebb 103d d7f1 393d
000000b0: 68ab 743c ec6e 19bd 3044 5b3d 3f81 f0bc
000000c0: e3ab 0fbd e3c4 d53c a721 f83c a7d9 14bb
000000d0: e6d8 dabc 8ecd 5e3d c8a2 b73c cbb7 fa3c
000000e0: 782b eb3c d500 0c3d 49fc 003d c919 073d
000000f0: 6042 ef3b 5f65 9f3c 4186 34bd b3ab 283d
00000100: c4e9 9cba b8f3 2ebd 64f5 b6bc 2037 64bc
00000110: 46b9 773d ea78 a7bc 8936 dcbb 3826 563d
00000120: 7677 3abc 4b52 40bc 9706 d8bb b49b a1bc
00000130: 6034 10bd 1579 65bd 34e1 38bd 28fc 443d
00000140: 8aeb 8d3b 32b3 403c 232b 5cbd 04c6 dfbc
00000150: 3aa4 9cbc bf88 14bb 121f 06bc fff2 00bd
00000160: ec72 15bd 9cf2 063d 5976 073c cd18 37bd
00000170: 2bf9 75bc fdd1 433d 71b1 cfbc da39 31bd
00000180: 784f 08bd b83d 203d 0d60 4c3d f7fe 0bbd
00000190: af97 8f3c 2b44 e43c b0fb dcbc e10b cf3c
000001a0: f4e4 12bd ed1a 2ebd d9a2 81bc eeaf 0abd
000001b0: 12d3 923b e6ed 8f3a 01cb d33c e933 ebbb
000001c0: 0801 c33c d804 513d e415 d8bc 5f9c ca3c
000001d0: 853c 10bd 37da 7abd 87de c63c 1b0f 083d
000001e0: 9714 d3bc 9ae0 3fbd d751 52bc cddb 7d3b
000001f0: 0fe8 073d 7168 d7bc 5dd4 e9b9 7341 2cbd
00000200: e5e9 9f3c 678a 183d 61c9 8abc 1c6d 43ba
00000210: d222 2ebc c300 02bd 4ec2 1dbd 1bfd 21bc
00000220: fe80 20bc 86f6 62bd ade8 2d3c 4385 1e3d
00000230: b72e 703d b130 183d 4950 70bd 06f8 1f3d
00000240: d9f2 233d e936 7ebc 7ff5 593d e0eb 90bc
00000250: 2e15 523c f618 3abb ecb1 1cbd 6499 db3c
00000260: e30b 50bd b3b3 533d 7976 3e3d ff4d 273d
00000270: 6122 c43c f4d1 69bc 9e0f 283c 93f6 1d3d
00000280: daee 11bb 3e39 f1ba 36d9 183d 5b3a 1f3d
00000290: b1dd 3b3d 02be 243d 66f2 08bd 2fb9 66bc
000002a0: fc0e 3bbd 5d21 413d 3d62 413d b09b 2a3d
000002b0: 15f5 18bb 9e5c 05bc 8618 0c3d bf3b e5bc
000002c0: 8efd 05bd cce4 7e3c afe6 3f3d d89f 9ebc
000002d0: f105 4fbc b58b b13c d915 ab3c 0670 363d
000002e0: e597 263c d8b9 8c3b 1ba8 03bd a483 48bd
000002f0: 1072 90bc 189e 5a3c 61de d03c f069 313c
00000300: ffda a5ba 3e1d 01bd c7ae 53b8 592c 49bb
00000310: 3393 f6bc 65c2 0f3c 226a 403d 8625 2f3d
00000320: 68f0 13bd 29f8 be3c 9d49 c1bc 5a66 6c3d
00000330: fb9e 02bc a14f 87bb 34df fd3c 35c6 0ebb
00000340: f7b3 303d cd4b 2f3d af24 423d 755b 133d
00000350: c46e 843c 8f7c 893c 8149 28bd b081 1ebd
00000360: a5a8 87bc 4c80 10bc 49cb 3f3d d2eb a53c
00000370: c561 1cbd a31b d33c bee3 27bd 291d 523c
00000380: 5b2e 17bc 5f94 9e3c 6ea5 c5bc b171 fa3b
00000390: 7495 093d 54da 09bc e1b8 eabc 9434 95bb
000003a0: 57e9 233b baf3 35bd 4144 783c d6cc 603d
000003b0: 5a3f 4c3d 4c7b b5bb 3ad9 c43c 189a 063d
000003c0: 0045 bd3c 0246 5c3d 88a1 3e3d cd8f 41bc
000003d0: 039d 24bd b0f4 d0bc d6b2 893b 2a95 babc
000003e0: 88d0 69bc 2a7c 60bc aa75 333d 5757 d93c
000003f0: 0329 00bd f030 93bc 349f 223d f604 ba3c

tcn.2.conv2.bias f4 [60]
0.03260925 -0.060336705 -0.018183978 0.028036539 0.0006918188 -0.0087371105 0.023432763 -0.016753046
0.0642905 -0.019632084 0.05475325 0.010393113 0.09565986 -0.09100571 -0.008287587 0.04917552
-0.060287286 0.09587907 -0.018388333 0.0109409 0.061952308 -0.04872283 0.05753105 -0.00083462684
0.026489692 -0.0012135003 0.0069732047 0.068096034 0.078592874 0.017814925 0.060679913 0.060921326
0.096477084 0.022301245 -0.0056183836 -0.08545654 0.042543173 0.03439613 0.040102202 0.072239384
0.09668463 0.021801842 -0.018648567 0.04369401 0.08575512 0.07813907 -0.03287961 0.007399795
-0.011950511 0.03799472 -0.09030382 -0.0820892 -0.025425788 -0.065897085 -0.052457705 -0.003060057
-0.007843953 -0.02734716 0.08769145 -0.07353272
00000000: 4791 053d 9f23 77bd 91f6 94bc e2ac e53c
00000010: 2c5b 353a 1926 0fbc 11f6 bf3c af3d 89bc
00000020: bdaa 833d 77d3 a0bc f244 603d e047 2a3c
00000030: 51e9 c33d 3461 babd a9c8 07bc 456c 493d
00000040: cdef 76bd 3f5c c43d 21a3 96bc 7641 333c
00000050: b4c1 7d3d 9791 47bd aea5 6b3d dcca 5aba
00000060: e900 d93c 500e 9fba 7b7f e43b ef75 8b3d
00000070: 4df5 a03d 9bf0 913c 808b 783d a488 793d
00000080: c795 c53d 1ab1 b63c 6b1a b8bb d703 afbd
00000090: c041 2e3d f5e2 0c3d 3542 243d 3ef2 933d
000000a0: 9702 c63d c799 b23c e1c4 98bc 7df8 323d
000000b0: 61a0 af3d 6007 a03d c5ac 06bd fb79 f23b
000000c0: 13cc 43bc 5aa0 1b3d 36f1 b8bd 621e a8bd
000000d0: be49 d0bc 0df5 86bd e4dd 56bd 3d8b 48bb
000000e0: ec83 00bc 2707 e0bc 9397 b33d 5398 96bd

tcn.2.conv2.weight_g f4 [60, 1, 1]
0.61175436 0.5603676 0.5411329 0.57811904 0.4955656 0.56038636 0.5437524 0.5565042
0.5603683 0.5953442 0.5610131 0.5519384 0.56606126 0.56019986 0.4689731 0.5531973
0.5718922 0.535225 0.49486133 0.55508876 0.5078628 0.51411116 0.57362163 0.5618193
0.53117806 0.5255097 0.56166273 0.5969085 0.5372413 0.585637 0.5230621 0.5845157
0.5837569 0.57662207 0.551182 0.5570373 0.51997 0.563365 0.5469763 0.53602284
0.53720987 0.5199171 0.54144853 0.5690157 0.55923903 0.5423875 0.55850816 0.6072046
0.5407969 0.48590687 0.5591853 0.55161923 0.5492197 0.5963902 0.53525186 0.54861754
0.5441074 0.58587146 0.51534015 0.49746045
00000000: ef9b 1c3f 4074 0f3f b087 0a3f 9cff 133f
00000010: c6ba fd3e 7b75 0f3f 5b33 0b3f 0f77 0e3f
00000020: 4c74 0f3f 7a68 183f 8e9e 0f3f d64b 0d3f
00000030: 64e9 103f 4269 0f3f 3e1d f03e 579e 0d3f
00000040: 8767 123f 8104 093f 775e fd3e 4c1a 0e3f
00000050: 4c03 023f ca9c 033f ded8 123f 64d3 0f3f
00000060: 49fb 073f ce87 063f 21c9 0f3f ffce 183f
00000070: a588 093f 4eec 153f 66e7 053f d2a2 153f
00000080: 1871 153f 819d 133f 431a 0d3f ff99 0e3f
00000090: c11c 053f b038 103f a406 0c3f cb38 093f
000000a0: 9686 093f 4919 053f 5f9c 0a3f 03ab 113f
000000b0: 4a2a 0f3f e8d9 0a3f 64fa 0e3f c371 1b3f
000000c0: aa71 0a3f c9c8 f83e c526 0f3f eb36 0d3f
000000d0: aa99 0c3f 07ad 183f 4406 093f 3372 0c3f
000000e0: 9f4a 0b3f acfb 153f 55ed 033f 23b3 fe3e
